…
I0806 20:29:18.998917   221 net.cpp:323] The NetState phase (0) differed from the phase (1) specified by a rule in layer loss3/top-1
I0806 20:29:18.999786   221 net.cpp:52] Initializing net from parameters:
state {
phase: TRAIN
}
layer {
name: "train-data"
type: "Data"
top: "data"
top: "label"
include {
phase: TRAIN
}
transform_param {
mirror: true
crop_size: 224
mean_file: "/opt/DIGITS/digits/jobs/20180806-200841-9b3a/mean.binaryproto"
}
data_param {
source: "/opt/DIGITS/digits/jobs/20180806-200841-9b3a/train_db"
batch_size: 64
backend: LMDB
}
}
layer {
name: "conv1/7x7_s2"
type: "Convolution"
bottom: "data"
top: "conv1/7x7_s2"
param {
lr_mult: 1
decay_mult: 1
}
param {
lr_mult: 2
decay_mult: 0
}
convolution_param {
num_output: 64
pad: 3
kernel_size: 7
stride: 2
weight_filler {
type: "xavier"
std: 0.1
}
bias_filler {
type: "constant"
value: 0.2
}
}
}
layer {
name: "conv1/relu_7x7"
type: "ReLU"
bottom: "conv1/7x7_s2"
top: "conv1/7x7_s2"
}
layer {
name: "pool1/3x3_s2"
type: "Pooling"
bottom: "conv1/7x7_s2"
top: "pool1/3x3_s2"
pooling_param {
pool: MAX
kernel_size: 3
stride: 2
}
}
layer {
name: "pool1/norm1"
type: "LRN"
bottom: "pool1/3x3_s2"
top: "pool1/norm1"
lrn_param {
local_size: 5
alpha: 0.0001
beta: 0.75
}
}
layer {
name: "conv2/3x3_reduce"
type: "Convolution"
bottom: "pool1/norm1"
top: "conv2/3x3_reduce"
param {
lr_mult: 1
decay_mult: 1
}
param {
lr_mult: 2
decay_mult: 0
}
convolution_param {
num_output: 64
kernel_size: 1
weight_filler {
type: "xavier"
std: 0.1
}
bias_filler {
type: "constant"
value: 0.2
}
}
}
layer {
name: "conv2/relu_3x3_reduce"
type: "ReLU"
bottom: "conv2/3x3_reduce"
top: "conv2/3x3_reduce"
}
layer {
name: "conv2/3x3"
type: "Convolution"
bottom: "conv2/3x3_reduce"
top: "conv2/3x3"
param {
lr_mult: 1
decay_mult: 1
}
param {
lr_mult: 2
decay_mult: 0
}
convolution_param {
num_output: 192
pad: 1
kernel_size: 3
weight_filler {
type: "xavier"
std: 0.03
}
bias_filler {
type: "constant"
value: 0.2
}
}
}
layer {
name: "conv2/relu_3x3"
type: "ReLU"
bottom: "conv2/3x3"
top: "conv2/3x3"
}
layer {
name: "conv2/norm2"
type: "LRN"
bottom: "conv2/3x3"
top: "conv2/norm2"
lrn_param {
local_size: 5
alpha: 0.0001
beta: 0.75
}
}
layer {
name: "pool2/3x3_s2"
type: "Pooling"
bottom: "conv2/norm2"
top: "pool2/3x3_s2"
pooling_param {
pool: MAX
kernel_size: 3
stride: 2
}
}
layer {
name: "inception_3a/1x1"
type: "Convolution"
bottom: "pool2/3x3_s2"
top: "inception_3a/1x1"
param {
lr_mult: 1
decay_mult: 1
}
param {
lr_mult: 2
decay_mult: 0
}
convolution_param {
num_output: 64
kernel_size: 1
weight_filler {
type: "xavier"
std: 0.03
}
bias_filler {
type: "constant"
value: 0.2
}
}
}
layer {
name: "inception_3a/relu_1x1"
type: "ReLU"
bottom: "inception_3a/1x1"
top: "inception_3a/1x1"
}
layer {
name: "inception_3a/3x3_reduce"
type: "Convolution"
bottom: "pool2/3x3_s2"
top: "inception_3a/3x3_reduce"
param {
lr_mult: 1
decay_mult: 1
}
param {
lr_mult: 2
decay_mult: 0
}
convolution_param {
num_output: 96
kernel_size: 1
weight_filler {
type: "xavier"
std: 0.09
}
bias_filler {
type: "constant"
value: 0.2
}
}
}
layer {
name: "inception_3a/relu_3x3_reduce"
type: "ReLU"
bottom: "inception_3a/3x3_reduce"
top: "inception_3a/3x3_reduce"
}
layer {
name: "inception_3a/3x3"
type: "Convolution"
bottom: "inception_3a/3x3_reduce"
top: "inception_3a/3x3"
param {
lr_mult: 1
decay_mult: 1
}
param {
lr_mult: 2
decay_mult: 0
}
convolution_param {
num_output: 128
pad: 1
kernel_size: 3
weight_filler {
type: "xavier"
std: 0.03
}
bias_filler {
type: "constant"
value: 0.2
}
}
}
layer {
name: "inception_3a/relu_3x3"
type: "ReLU"
bottom: "inception_3a/3x3"
top: "inception_3a/3x3"
}
layer {
name: "inception_3a/5x5_reduce"
type: "Convolution"
bottom: "pool2/3x3_s2"
top: "inception_3a/5x5_reduce"
param {
lr_mult: 1
decay_mult: 1
}
param {
lr_mult: 2
decay_mult: 0
}
convolution_param {
num_output: 16
kernel_size: 1
weight_filler {
type: "xavier"
std: 0.2
}
bias_filler {
type: "constant"
value: 0.2
}
}
}
layer {
name: "inception_3a/relu_5x5_reduce"
type: "ReLU"
bottom: "inception_3a/5x5_reduce"
top: "inception_3a/5x5_reduce"
}
layer {
name: "inception_3a/5x5"
type: "Convolution"
bottom: "inception_3a/5x5_reduce"
top: "inception_3a/5x5"
param {
lr_mult: 1
decay_mult: 1
}
param {
lr_mult: 2
decay_mult: 0
}
convolution_param {
num_output: 32
pad: 2
kernel_size: 5
weight_filler {
type: "xavier"
std: 0.03
}
bias_filler {
type: "constant"
value: 0.2
}
}
}
layer {
name: "inception_3a/relu_5x5"
type: "ReLU"
bottom: "inception_3a/5x5"
top: "inception_3a/5x5"
}
layer {
name: "inception_3a/pool"
type: "Pooling"
bottom: "pool2/3x3_s2"
top: "inception_3a/pool"
pooling_param {
pool: MAX
kernel_size: 3
stride: 1
pad: 1
}
}
layer {
name: "inception_3a/pool_proj"
type: "Convolution"
bottom: "inception_3a/pool"
top: "inception_3a/pool_proj"
param {
lr_mult: 1
decay_mult: 1
}
param {
lr_mult: 2
decay_mult: 0
}
convolution_param {
num_output: 32
kernel_size: 1
weight_filler {
type: "xavier"
std: 0.1
}
bias_filler {
type: "constant"
value: 0.2
}
}
}
layer {
name: "inception_3a/relu_pool_proj"
type: "ReLU"
bottom: "inception_3a/pool_proj"
top: "inception_3a/pool_proj"
}
layer {
name: "inception_3a/output"
type: "Concat"
bottom: "inception_3a/1x1"
bottom: "inception_3a/3x3"
bottom: "inception_3a/5x5"
bottom: "inception_3a/pool_proj"
top: "inception_3a/output"
}
layer {
name: "inception_3b/1x1"
type: "Convolution"
bottom: "inception_3a/output"
top: "inception_3b/1x1"
param {
lr_mult: 1
decay_mult: 1
}
param {
lr_mult: 2
decay_mult: 0
}
convolution_param {
num_output: 128
kernel_size: 1
weight_filler {
type: "xavier"
std: 0.03
}
bias_filler {
type: "constant"
value: 0.2
}
}
}
layer {
name: "inception_3b/relu_1x1"
type: "ReLU"
bottom: "inception_3b/1x1"
top: "inception_3b/1x1"
}
layer {
name: "inception_3b/3x3_reduce"
type: "Convolution"
bottom: "inception_3a/output"
top: "inception_3b/3x3_reduce"
param {
lr_mult: 1
decay_mult: 1
}
param {
lr_mult: 2
decay_mult: 0
}
convolution_param {
num_output: 128
kernel_size: 1
weight_filler {
type: "xavier"
std: 0.09
}
bias_filler {
type: "constant"
value: 0.2
}
}
}
layer {
name: "inception_3b/relu_3x3_reduce"
type: "ReLU"
bottom: "inception_3b/3x3_reduce"
top: "inception_3b/3x3_reduce"
}
layer {
name: "inception_3b/3x3"
type: "Convolution"
bottom: "inception_3b/3x3_reduce"
top: "inception_3b/3x3"
param {
lr_mult: 1
decay_mult: 1
}
param {
lr_mult: 2
decay_mult: 0
}
convolution_param {
num_output: 192
pad: 1
kernel_size: 3
weight_filler {
type: "xavier"
std: 0.03
}
bias_filler {
type: "constant"
value: 0.2
}
}
}
layer {
name: "inception_3b/relu_3x3"
type: "ReLU"
bottom: "inception_3b/3x3"
top: "inception_3b/3x3"
}
layer {
name: "inception_3b/5x5_reduce"
type: "Convolution"
bottom: "inception_3a/output"
top: "inception_3b/5x5_reduce"
param {
lr_mult: 1
decay_mult: 1
}
param {
lr_mult: 2
decay_mult: 0
}
convolution_param {
num_output: 32
kernel_size: 1
weight_filler {
type: "xavier"
std: 0.2
}
bias_filler {
type: "constant"
value: 0.2
}
}
}
layer {
name: "inception_3b/relu_5x5_reduce"
type: "ReLU"
bottom: "inception_3b/5x5_reduce"
top: "inception_3b/5x5_reduce"
}
layer {
name: "inception_3b/5x5"
type: "Convolution"
bottom: "inception_3b/5x5_reduce"
top: "inception_3b/5x5"
param {
lr_mult: 1
decay_mult: 1
}
param {
lr_mult: 2
decay_mult: 0
}
convolution_param {
num_output: 96
pad: 2
kernel_size: 5
weight_filler {
type: "xavier"
std: 0.03
}
bias_filler {
type: "constant"
value: 0.2
}
}
}
layer {
name: "inception_3b/relu_5x5"
type: "ReLU"
bottom: "inception_3b/5x5"
top: "inception_3b/5x5"
}
layer {
name: "inception_3b/pool"
type: "Pooling"
bottom: "inception_3a/output"
top: "inception_3b/pool"
pooling_param {
pool: MAX
kernel_size: 3
stride: 1
pad: 1
}
}
layer {
name: "inception_3b/pool_proj"
type: "Convolution"
bottom: "inception_3b/pool"
top: "inception_3b/pool_proj"
param {
lr_mult: 1
decay_mult: 1
}
param {
lr_mult: 2
decay_mult: 0
}
convolution_param {
num_output: 64
kernel_size: 1
weight_filler {
type: "xavier"
std: 0.1
}
bias_filler {
type: "constant"
value: 0.2
}
}
}
layer {
name: "inception_3b/relu_pool_proj"
type: "ReLU"
bottom: "inception_3b/pool_proj"
top: "inception_3b/pool_proj"
}
layer {
name: "inception_3b/output"
type: "Concat"
bottom: "inception_3b/1x1"
bottom: "inception_3b/3x3"
bottom: "inception_3b/5x5"
bottom: "inception_3b/pool_proj"
top: "inception_3b/output"
}
layer {
name: "pool3/3x3_s2"
type: "Pooling"
bottom: "inception_3b/output"
top: "pool3/3x3_s2"
pooling_param {
pool: MAX
kernel_size: 3
stride: 2
}
}
layer {
name: "inception_4a/1x1"
type: "Convolution"
bottom: "pool3/3x3_s2"
top: "inception_4a/1x1"
param {
lr_mult: 1
decay_mult: 1
}
param {
lr_mult: 2
decay_mult: 0
}
convolution_param {
num_output: 192
kernel_size: 1
weight_filler {
type: "xavier"
std: 0.03
}
bias_filler {
type: "constant"
value: 0.2
}
}
}
layer {
name: "inception_4a/relu_1x1"
type: "ReLU"
bottom: "inception_4a/1x1"
top: "inception_4a/1x1"
}
layer {
name: "inception_4a/3x3_reduce"
type: "Convolution"
bottom: "pool3/3x3_s2"
top: "inception_4a/3x3_reduce"
param {
lr_mult: 1
decay_mult: 1
}
param {
lr_mult: 2
decay_mult: 0
}
convolution_param {
num_output: 96
kernel_size: 1
weight_filler {
type: "xavier"
std: 0.09
}
bias_filler {
type: "constant"
value: 0.2
}
}
}
layer {
name: "inception_4a/relu_3x3_reduce"
type: "ReLU"
bottom: "inception_4a/3x3_reduce"
top: "inception_4a/3x3_reduce"
}
layer {
name: "inception_4a/3x3"
type: "Convolution"
bottom: "inception_4a/3x3_reduce"
top: "inception_4a/3x3"
param {
lr_mult: 1
decay_mult: 1
}
param {
lr_mult: 2
decay_mult: 0
}
convolution_param {
num_output: 208
pad: 1
kernel_size: 3
weight_filler {
type: "xavier"
std: 0.03
}
bias_filler {
type: "constant"
value: 0.2
}
}
}
layer {
name: "inception_4a/relu_3x3"
type: "ReLU"
bottom: "inception_4a/3x3"
top: "inception_4a/3x3"
}
layer {
name: "inception_4a/5x5_reduce"
type: "Convolution"
bottom: "pool3/3x3_s2"
top: "inception_4a/5x5_reduce"
param {
lr_mult: 1
decay_mult: 1
}
param {
lr_mult: 2
decay_mult: 0
}
convolution_param {
num_output: 16
kernel_size: 1
weight_filler {
type: "xavier"
std: 0.2
}
bias_filler {
type: "constant"
value: 0.2
}
}
}
layer {
name: "inception_4a/relu_5x5_reduce"
type: "ReLU"
bottom: "inception_4a/5x5_reduce"
top: "inception_4a/5x5_reduce"
}
layer {
name: "inception_4a/5x5"
type: "Convolution"
bottom: "inception_4a/5x5_reduce"
top: "inception_4a/5x5"
param {
lr_mult: 1
decay_mult: 1
}
param {
lr_mult: 2
decay_mult: 0
}
convolution_param {
num_output: 48
pad: 2
kernel_size: 5
weight_filler {
type: "xavier"
std: 0.03
}
bias_filler {
type: "constant"
value: 0.2
}
}
}
layer {
name: "inception_4a/relu_5x5"
type: "ReLU"
bottom: "inception_4a/5x5"
top: "inception_4a/5x5"
}
layer {
name: "inception_4a/pool"
type: "Pooling"
bottom: "pool3/3x3_s2"
top: "inception_4a/pool"
pooling_param {
pool: MAX
kernel_size: 3
stride: 1
pad: 1
}
}
layer {
name: "inception_4a/pool_proj"
type: "Convolution"
bottom: "inception_4a/pool"
top: "inception_4a/pool_proj"
param {
lr_mult: 1
decay_mult: 1
}
param {
lr_mult: 2
decay_mult: 0
}
convolution_param {
num_output: 64
kernel_size: 1
weight_filler {
type: "xavier"
std: 0.1
}
bias_filler {
type: "constant"
value: 0.2
}
}
}
layer {
name: "inception_4a/relu_pool_proj"
type: "ReLU"
bottom: "inception_4a/pool_proj"
top: "inception_4a/pool_proj"
}
layer {
name: "inception_4a/output"
type: "Concat"
bottom: "inception_4a/1x1"
bottom: "inception_4a/3x3"
bottom: "inception_4a/5x5"
bottom: "inception_4a/pool_proj"
top: "inception_4a/output"
}
layer {
name: "loss1/ave_pool"
type: "Pooling"
bottom: "inception_4a/output"
top: "loss1/ave_pool"
pooling_param {
pool: AVE
kernel_size: 5
stride: 3
}
}
layer {
name: "loss1/conv"
type: "Convolution"
bottom: "loss1/ave_pool"
top: "loss1/conv"
param {
lr_mult: 1
decay_mult: 1
}
param {
lr_mult: 2
decay_mult: 0
}
convolution_param {
num_output: 128
kernel_size: 1
weight_filler {
type: "xavier"
std: 0.08
}
bias_filler {
type: "constant"
value: 0.2
}
}
}
layer {
name: "loss1/relu_conv"
type: "ReLU"
bottom: "loss1/conv"
top: "loss1/conv"
}
layer {
name: "loss1/fc"
type: "InnerProduct"
bottom: "loss1/conv"
top: "loss1/fc"
param {
lr_mult: 1
decay_mult: 1
}
param {
lr_mult: 2
decay_mult: 0
}
inner_product_param {
num_output: 1024
weight_filler {
type: "xavier"
std: 0.02
}
bias_filler {
type: "constant"
value: 0.2
}
}
}
layer {
name: "loss1/relu_fc"
type: "ReLU"
bottom: "loss1/fc"
top: "loss1/fc"
}
layer {
name: "loss1/drop_fc"
type: "Dropout"
bottom: "loss1/fc"
top: "loss1/fc"
dropout_param {
dropout_ratio: 0.7
}
}
layer {
name: "loss1/classifier"
type: "InnerProduct"
bottom: "loss1/fc"
top: "loss1/classifier"
param {
lr_mult: 1
decay_mult: 1
}
param {
lr_mult: 2
decay_mult: 0
}
inner_product_param {
num_output: 3
weight_filler {
type: "xavier"
std: 0.0009765625
}
bias_filler {
type: "constant"
value: 0
}
}
}
layer {
name: "loss1/loss"
type: "SoftmaxWithLoss"
bottom: "loss1/classifier"
bottom: "label"
top: "loss1/loss"
loss_weight: 0.3
}
layer {
name: "inception_4b/1x1"
type: "Convolution"
bottom: "inception_4a/output"
top: "inception_4b/1x1"
param {
lr_mult: 1
decay_mult: 1
}
param {
lr_mult: 2
decay_mult: 0
}
convolution_param {
num_output: 160
kernel_size: 1
weight_filler {
type: "xavier"
std: 0.03
}
bias_filler {
type: "constant"
value: 0.2
}
}
}
layer {
name: "inception_4b/relu_1x1"
type: "ReLU"
bottom: "inception_4b/1x1"
top: "inception_4b/1x1"
}
layer {
name: "inception_4b/3x3_reduce"
type: "Convolution"
bottom: "inception_4a/output"
top: "inception_4b/3x3_reduce"
param {
lr_mult: 1
decay_mult: 1
}
param {
lr_mult: 2
decay_mult: 0
}
convolution_param {
num_output: 112
kernel_size: 1
weight_filler {
type: "xavier"
std: 0.09
}
bias_filler {
type: "constant"
value: 0.2
}
}
}
layer {
name: "inception_4b/relu_3x3_reduce"
type: "ReLU"
bottom: "inception_4b/3x3_reduce"
top: "inception_4b/3x3_reduce"
}
layer {
name: "inception_4b/3x3"
type: "Convolution"
bottom: "inception_4b/3x3_reduce"
top: "inception_4b/3x3"
param {
lr_mult: 1
decay_mult: 1
}
param {
lr_mult: 2
decay_mult: 0
}
convolution_param {
num_output: 224
pad: 1
kernel_size: 3
weight_filler {
type: "xavier"
std: 0.03
}
bias_filler {
type: "constant"
value: 0.2
}
}
}
layer {
name: "inception_4b/relu_3x3"
type: "ReLU"
bottom: "inception_4b/3x3"
top: "inception_4b/3x3"
}
layer {
name: "inception_4b/5x5_reduce"
type: "Convolution"
bottom: "inception_4a/output"
top: "inception_4b/5x5_reduce"
param {
lr_mult: 1
decay_mult: 1
}
param {
lr_mult: 2
decay_mult: 0
}
convolution_param {
num_output: 24
kernel_size: 1
weight_filler {
type: "xavier"
std: 0.2
}
bias_filler {
type: "constant"
value: 0.2
}
}
}
layer {
name: "inception_4b/relu_5x5_reduce"
type: "ReLU"
bottom: "inception_4b/5x5_reduce"
top: "inception_4b/5x5_reduce"
}
layer {
name: "inception_4b/5x5"
type: "Convolution"
bottom: "inception_4b/5x5_reduce"
top: "inception_4b/5x5"
param {
lr_mult: 1
decay_mult: 1
}
param {
lr_mult: 2
decay_mult: 0
}
convolution_param {
num_output: 64
pad: 2
kernel_size: 5
weight_filler {
type: "xavier"
std: 0.03
}
bias_filler {
type: "constant"
value: 0.2
}
}
}
layer {
name: "inception_4b/relu_5x5"
type: "ReLU"
bottom: "inception_4b/5x5"
top: "inception_4b/5x5"
}
layer {
name: "inception_4b/pool"
type: "Pooling"
bottom: "inception_4a/output"
top: "inception_4b/pool"
pooling_param {
pool: MAX
kernel_size: 3
stride: 1
pad: 1
}
}
layer {
name: "inception_4b/pool_proj"
type: "Convolution"
bottom: "inception_4b/pool"
top: "inception_4b/pool_proj"
param {
lr_mult: 1
decay_mult: 1
}
param {
lr_mult: 2
decay_mult: 0
}
convolution_param {
num_output: 64
kernel_size: 1
weight_filler {
type: "xavier"
std: 0.1
}
bias_filler {
type: "constant"
value: 0.2
}
}
}
layer {
name: "inception_4b/relu_pool_proj"
type: "ReLU"
bottom: "inception_4b/pool_proj"
top: "inception_4b/pool_proj"
}
layer {
name: "inception_4b/output"
type: "Concat"
bottom: "inception_4b/1x1"
bottom: "inception_4b/3x3"
bottom: "inception_4b/5x5"
bottom: "inception_4b/pool_proj"
top: "inception_4b/output"
}
layer {
name: "inception_4c/1x1"
type: "Convolution"
bottom: "inception_4b/output"
top: "inception_4c/1x1"
param {
lr_mult: 1
decay_mult: 1
}
param {
lr_mult: 2
decay_mult: 0
}
convolution_param {
num_output: 128
kernel_size: 1
weight_filler {
type: "xavier"
std: 0.03
}
bias_filler {
type: "constant"
value: 0.2
}
}
}
layer {
name: "inception_4c/relu_1x1"
type: "ReLU"
bottom: "inception_4c/1x1"
top: "inception_4c/1x1"
}
layer {
name: "inception_4c/3x3_reduce"
type: "Convolution"
bottom: "inception_4b/output"
top: "inception_4c/3x3_reduce"
param {
lr_mult: 1
decay_mult: 1
}
param {
lr_mult: 2
decay_mult: 0
}
convolution_param {
num_output: 128
kernel_size: 1
weight_filler {
type: "xavier"
std: 0.09
}
bias_filler {
type: "constant"
value: 0.2
}
}
}
layer {
name: "inception_4c/relu_3x3_reduce"
type: "ReLU"
bottom: "inception_4c/3x3_reduce"
top: "inception_4c/3x3_reduce"
}
layer {
name: "inception_4c/3x3"
type: "Convolution"
bottom: "inception_4c/3x3_reduce"
top: "inception_4c/3x3"
param {
lr_mult: 1
decay_mult: 1
}
param {
lr_mult: 2
decay_mult: 0
}
convolution_param {
num_output: 256
pad: 1
kernel_size: 3
weight_filler {
type: "xavier"
std: 0.03
}
bias_filler {
type: "constant"
value: 0.2
}
}
}
layer {
name: "inception_4c/relu_3x3"
type: "ReLU"
bottom: "inception_4c/3x3"
top: "inception_4c/3x3"
}
layer {
name: "inception_4c/5x5_reduce"
type: "Convolution"
bottom: "inception_4b/output"
top: "inception_4c/5x5_reduce"
param {
lr_mult: 1
decay_mult: 1
}
param {
lr_mult: 2
decay_mult: 0
}
convolution_param {
num_output: 24
kernel_size: 1
weight_filler {
type: "xavier"
std: 0.2
}
bias_filler {
type: "constant"
value: 0.2
}
}
}
layer {
name: "inception_4c/relu_5x5_reduce"
type: "ReLU"
bottom: "inception_4c/5x5_reduce"
top: "inception_4c/5x5_reduce"
}
layer {
name: "inception_4c/5x5"
type: "Convolution"
bottom: "inception_4c/5x5_reduce"
top: "inception_4c/5x5"
param {
lr_mult: 1
decay_mult: 1
}
param {
lr_mult: 2
decay_mult: 0
}
convolution_param {
num_output: 64
pad: 2
kernel_size: 5
weight_filler {
type: "xavier"
std: 0.03
}
bias_filler {
type: "constant"
value: 0.2
}
}
}
layer {
name: "inception_4c/relu_5x5"
type: "ReLU"
bottom: "inception_4c/5x5"
top: "inception_4c/5x5"
}
layer {
name: "inception_4c/pool"
type: "Pooling"
bottom: "inception_4b/output"
top: "inception_4c/pool"
pooling_param {
pool: MAX
kernel_size: 3
stride: 1
pad: 1
}
}
layer {
name: "inception_4c/pool_proj"
type: "Convolution"
bottom: "inception_4c/pool"
top: "inception_4c/pool_proj"
param {
lr_mult: 1
decay_mult: 1
}
param {
lr_mult: 2
decay_mult: 0
}
convolution_param {
num_output: 64
kernel_size: 1
weight_filler {
type: "xavier"
std: 0.1
}
bias_filler {
type: "constant"
value: 0.2
}
}
}
layer {
name: "inception_4c/relu_pool_proj"
type: "ReLU"
bottom: "inception_4c/pool_proj"
top: "inception_4c/pool_proj"
}
layer {
name: "inception_4c/output"
type: "Concat"
bottom: "inception_4c/1x1"
bottom: "inception_4c/3x3"
bottom: "inception_4c/5x5"
bottom: "inception_4c/pool_proj"
top: "inception_4c/output"
}
layer {
name: "inception_4d/1x1"
type: "Convolution"
bottom: "inception_4c/output"
top: "inception_4d/1x1"
param {
lr_mult: 1
decay_mult: 1
}
param {
lr_mult: 2
decay_mult: 0
}
convolution_param {
num_output: 112
kernel_size: 1
weight_filler {
type: "xavier"
std: 0.03
}
bias_filler {
type: "constant"
value: 0.2
}
}
}
layer {
name: "inception_4d/relu_1x1"
type: "ReLU"
bottom: "inception_4d/1x1"
top: "inception_4d/1x1"
}
layer {
name: "inception_4d/3x3_reduce"
type: "Convolution"
bottom: "inception_4c/output"
top: "inception_4d/3x3_reduce"
param {
lr_mult: 1
decay_mult: 1
}
param {
lr_mult: 2
decay_mult: 0
}
convolution_param {
num_output: 144
kernel_size: 1
weight_filler {
type: "xavier"
std: 0.09
}
bias_filler {
type: "constant"
value: 0.2
}
}
}
layer {
name: "inception_4d/relu_3x3_reduce"
type: "ReLU"
bottom: "inception_4d/3x3_reduce"
top: "inception_4d/3x3_reduce"
}
layer {
name: "inception_4d/3x3"
type: "Convolution"
bottom: "inception_4d/3x3_reduce"
top: "inception_4d/3x3"
param {
lr_mult: 1
decay_mult: 1
}
param {
lr_mult: 2
decay_mult: 0
}
convolution_param {
num_output: 288
pad: 1
kernel_size: 3
weight_filler {
type: "xavier"
std: 0.03
}
bias_filler {
type: "constant"
value: 0.2
}
}
}
layer {
name: "inception_4d/relu_3x3"
type: "ReLU"
bottom: "inception_4d/3x3"
top: "inception_4d/3x3"
}
layer {
name: "inception_4d/5x5_reduce"
type: "Convolution"
bottom: "inception_4c/output"
top: "inception_4d/5x5_reduce"
param {
lr_mult: 1
decay_mult: 1
}
param {
lr_mult: 2
decay_mult: 0
}
convolution_param {
num_output: 32
kernel_size: 1
weight_filler {
type: "xavier"
std: 0.2
}
bias_filler {
type: "constant"
value: 0.2
}
}
}
layer {
name: "inception_4d/relu_5x5_reduce"
type: "ReLU"
bottom: "inception_4d/5x5_reduce"
top: "inception_4d/5x5_reduce"
}
layer {
name: "inception_4d/5x5"
type: "Convolution"
bottom: "inception_4d/5x5_reduce"
top: "inception_4d/5x5"
param {
lr_mult: 1
decay_mult: 1
}
param {
lr_mult: 2
decay_mult: 0
}
convolution_param {
num_output: 64
pad: 2
kernel_size: 5
weight_filler {
type: "xavier"
std: 0.03
}
bias_filler {
type: "constant"
value: 0.2
}
}
}
layer {
name: "inception_4d/relu_5x5"
type: "ReLU"
bottom: "inception_4d/5x5"
top: "inception_4d/5x5"
}
layer {
name: "inception_4d/pool"
type: "Pooling"
bottom: "inception_4c/output"
top: "inception_4d/pool"
pooling_param {
pool: MAX
kernel_size: 3
stride: 1
pad: 1
}
}
layer {
name: "inception_4d/pool_proj"
type: "Convolution"
bottom: "inception_4d/pool"
top: "inception_4d/pool_proj"
param {
lr_mult: 1
decay_mult: 1
}
param {
lr_mult: 2
decay_mult: 0
}
convolution_param {
num_output: 64
kernel_size: 1
weight_filler {
type: "xavier"
std: 0.1
}
bias_filler {
type: "constant"
value: 0.2
}
}
}
layer {
name: "inception_4d/relu_pool_proj"
type: "ReLU"
bottom: "inception_4d/pool_proj"
top: "inception_4d/pool_proj"
}
layer {
name: "inception_4d/output"
type: "Concat"
bottom: "inception_4d/1x1"
bottom: "inception_4d/3x3"
bottom: "inception_4d/5x5"
bottom: "inception_4d/pool_proj"
top: "inception_4d/output"
}
layer {
name: "loss2/ave_pool"
type: "Pooling"
bottom: "inception_4d/output"
top: "loss2/ave_pool"
pooling_param {
pool: AVE
kernel_size: 5
stride: 3
}
}
layer {
name: "loss2/conv"
type: "Convolution"
bottom: "loss2/ave_pool"
top: "loss2/conv"
param {
lr_mult: 1
decay_mult: 1
}
param {
lr_mult: 2
decay_mult: 0
}
convolution_param {
num_output: 128
kernel_size: 1
weight_filler {
type: "xavier"
std: 0.08
}
bias_filler {
type: "constant"
value: 0.2
}
}
}
layer {
name: "loss2/relu_conv"
type: "ReLU"
bottom: "loss2/conv"
top: "loss2/conv"
}
layer {
name: "loss2/fc"
type: "InnerProduct"
bottom: "loss2/conv"
top: "loss2/fc"
param {
lr_mult: 1
decay_mult: 1
}
param {
lr_mult: 2
decay_mult: 0
}
inner_product_param {
num_output: 1024
weight_filler {
type: "xavier"
std: 0.02
}
bias_filler {
type: "constant"
value: 0.2
}
}
}
layer {
name: "loss2/relu_fc"
type: "ReLU"
bottom: "loss2/fc"
top: "loss2/fc"
}
layer {
name: "loss2/drop_fc"
type: "Dropout"
bottom: "loss2/fc"
top: "loss2/fc"
dropout_param {
dropout_ratio: 0.7
}
}
layer {
name: "loss2/classifier"
type: "InnerProduct"
bottom: "loss2/fc"
top: "loss2/classifier"
param {
lr_mult: 1
decay_mult: 1
}
param {
lr_mult: 2
decay_mult: 0
}
inner_product_param {
num_output: 3
weight_filler {
type: "xavier"
std: 0.0009765625
}
bias_filler {
type: "constant"
value: 0
}
}
}
layer {
name: "loss2/loss"
type: "SoftmaxWithLoss"
bottom: "loss2/classifier"
bottom: "label"
top: "loss2/loss"
loss_weight: 0.3
}
layer {
name: "inception_4e/1x1"
type: "Convolution"
bottom: "inception_4d/output"
top: "inception_4e/1x1"
param {
lr_mult: 1
decay_mult: 1
}
param {
lr_mult: 2
decay_mult: 0
}
convolution_param {
num_output: 256
kernel_size: 1
weight_filler {
type: "xavier"
std: 0.03
}
bias_filler {
type: "constant"
value: 0.2
}
}
}
layer {
name: "inception_4e/relu_1x1"
type: "ReLU"
bottom: "inception_4e/1x1"
top: "inception_4e/1x1"
}
layer {
name: "inception_4e/3x3_reduce"
type: "Convolution"
bottom: "inception_4d/output"
top: "inception_4e/3x3_reduce"
param {
lr_mult: 1
decay_mult: 1
}
param {
lr_mult: 2
decay_mult: 0
}
convolution_param {
num_output: 160
kernel_size: 1
weight_filler {
type: "xavier"
std: 0.09
}
bias_filler {
type: "constant"
value: 0.2
}
}
}
layer {
name: "inception_4e/relu_3x3_reduce"
type: "ReLU"
bottom: "inception_4e/3x3_reduce"
top: "inception_4e/3x3_reduce"
}
layer {
name: "inception_4e/3x3"
type: "Convolution"
bottom: "inception_4e/3x3_reduce"
top: "inception_4e/3x3"
param {
lr_mult: 1
decay_mult: 1
}
param {
lr_mult: 2
decay_mult: 0
}
convolution_param {
num_output: 320
pad: 1
kernel_size: 3
weight_filler {
type: "xavier"
std: 0.03
}
bias_filler {
type: "constant"
value: 0.2
}
}
}
layer {
name: "inception_4e/relu_3x3"
type: "ReLU"
bottom: "inception_4e/3x3"
top: "inception_4e/3x3"
}
layer {
name: "inception_4e/5x5_reduce"
type: "Convolution"
bottom: "inception_4d/output"
top: "inception_4e/5x5_reduce"
param {
lr_mult: 1
decay_mult: 1
}
param {
lr_mult: 2
decay_mult: 0
}
convolution_param {
num_output: 32
kernel_size: 1
weight_filler {
type: "xavier"
std: 0.2
}
bias_filler {
type: "constant"
value: 0.2
}
}
}
layer {
name: "inceptio
I0806 20:29:19.000656   221 layer_factory.hpp:77] Creating layer train-data
I0806 20:29:19.003167   221 net.cpp:94] Creating Layer train-data
I0806 20:29:19.003192   221 net.cpp:409] train-data -> data
I0806 20:29:19.003221   221 net.cpp:409] train-data -> label
I0806 20:29:19.003247   221 data_transformer.cpp:25] Loading mean file from: /opt/DIGITS/digits/jobs/20180806-200841-9b3a/mean.binaryproto
I0806 20:29:19.003958   226 db_lmdb.cpp:35] Opened lmdb /opt/DIGITS/digits/jobs/20180806-200841-9b3a/train_db
I0806 20:29:19.024049   221 data_layer.cpp:78] ReshapePrefetch 64, 3, 224, 224
I0806 20:29:19.024109   221 data_layer.cpp:83] output data size: 64,3,224,224
I0806 20:29:19.100404   221 net.cpp:144] Setting up train-data
I0806 20:29:19.101591   221 net.cpp:151] Top shape: 64 3 224 224 (9633792)
I0806 20:29:19.101608   221 net.cpp:151] Top shape: 64 (64)
I0806 20:29:19.101634   221 net.cpp:159] Memory required for data: 38535424
I0806 20:29:19.101649   221 layer_factory.hpp:77] Creating layer label_train-data_1_split
I0806 20:29:19.101667   221 net.cpp:94] Creating Layer label_train-data_1_split
I0806 20:29:19.101680   221 net.cpp:435] label_train-data_1_split <- label
I0806 20:29:19.101699   221 net.cpp:409] label_train-data_1_split -> label_train-data_1_split_0
I0806 20:29:19.101716   221 net.cpp:409] label_train-data_1_split -> label_train-data_1_split_1
I0806 20:29:19.101750   221 net.cpp:409] label_train-data_1_split -> label_train-data_1_split_2
I0806 20:29:19.101821   221 net.cpp:144] Setting up label_train-data_1_split
I0806 20:29:19.101835   221 net.cpp:151] Top shape: 64 (64)
I0806 20:29:19.101843   221 net.cpp:151] Top shape: 64 (64)
I0806 20:29:19.101852   221 net.cpp:151] Top shape: 64 (64)
I0806 20:29:19.101861   221 net.cpp:159] Memory required for data: 38536192
I0806 20:29:19.101869   221 layer_factory.hpp:77] Creating layer conv1/7x7_s2
I0806 20:29:19.101907   221 net.cpp:94] Creating Layer conv1/7x7_s2
I0806 20:29:19.101917   221 net.cpp:435] conv1/7x7_s2 <- data
I0806 20:29:19.101928   221 net.cpp:409] conv1/7x7_s2 -> conv1/7x7_s2
I0806 20:29:19.102946   221 net.cpp:144] Setting up conv1/7x7_s2
I0806 20:29:19.102963   221 net.cpp:151] Top shape: 64 64 112 112 (51380224)
I0806 20:29:19.102972   221 net.cpp:159] Memory required for data: 244057088
I0806 20:29:19.102996   221 layer_factory.hpp:77] Creating layer conv1/relu_7x7
I0806 20:29:19.103015   221 net.cpp:94] Creating Layer conv1/relu_7x7
I0806 20:29:19.103024   221 net.cpp:435] conv1/relu_7x7 <- conv1/7x7_s2
I0806 20:29:19.103060   221 net.cpp:396] conv1/relu_7x7 -> conv1/7x7_s2 (in-place)
I0806 20:29:19.104233   221 net.cpp:144] Setting up conv1/relu_7x7
I0806 20:29:19.104265   221 net.cpp:151] Top shape: 64 64 112 112 (51380224)
I0806 20:29:19.104274   221 net.cpp:159] Memory required for data: 449577984
I0806 20:29:19.104282   221 layer_factory.hpp:77] Creating layer pool1/3x3_s2
I0806 20:29:19.104297   221 net.cpp:94] Creating Layer pool1/3x3_s2
I0806 20:29:19.104306   221 net.cpp:435] pool1/3x3_s2 <- conv1/7x7_s2
I0806 20:29:19.104316   221 net.cpp:409] pool1/3x3_s2 -> pool1/3x3_s2
I0806 20:29:19.109117   221 net.cpp:144] Setting up pool1/3x3_s2
I0806 20:29:19.109133   221 net.cpp:151] Top shape: 64 64 56 56 (12845056)
I0806 20:29:19.109143   221 net.cpp:159] Memory required for data: 500958208
I0806 20:29:19.109155   221 layer_factory.hpp:77] Creating layer pool1/norm1
I0806 20:29:19.109170   221 net.cpp:94] Creating Layer pool1/norm1
I0806 20:29:19.109179   221 net.cpp:435] pool1/norm1 <- pool1/3x3_s2
I0806 20:29:19.109191   221 net.cpp:409] pool1/norm1 -> pool1/norm1
I0806 20:29:19.109238   221 net.cpp:144] Setting up pool1/norm1
I0806 20:29:19.109251   221 net.cpp:151] Top shape: 64 64 56 56 (12845056)
I0806 20:29:19.109258   221 net.cpp:159] Memory required for data: 552338432
I0806 20:29:19.109267   221 layer_factory.hpp:77] Creating layer conv2/3x3_reduce
I0806 20:29:19.109282   221 net.cpp:94] Creating Layer conv2/3x3_reduce
I0806 20:29:19.109290   221 net.cpp:435] conv2/3x3_reduce <- pool1/norm1
I0806 20:29:19.109302   221 net.cpp:409] conv2/3x3_reduce -> conv2/3x3_reduce
I0806 20:29:19.110311   221 net.cpp:144] Setting up conv2/3x3_reduce
I0806 20:29:19.110332   221 net.cpp:151] Top shape: 64 64 56 56 (12845056)
I0806 20:29:19.110342   221 net.cpp:159] Memory required for data: 603718656
I0806 20:29:19.110357   221 layer_factory.hpp:77] Creating layer conv2/relu_3x3_reduce
I0806 20:29:19.110385   221 net.cpp:94] Creating Layer conv2/relu_3x3_reduce
I0806 20:29:19.110394   221 net.cpp:435] conv2/relu_3x3_reduce <- conv2/3x3_reduce
I0806 20:29:19.110405   221 net.cpp:396] conv2/relu_3x3_reduce -> conv2/3x3_reduce (in-place)
I0806 20:29:19.110419   221 net.cpp:144] Setting up conv2/relu_3x3_reduce
I0806 20:29:19.110430   221 net.cpp:151] Top shape: 64 64 56 56 (12845056)
I0806 20:29:19.110438   221 net.cpp:159] Memory required for data: 655098880
I0806 20:29:19.110446   221 layer_factory.hpp:77] Creating layer conv2/3x3
I0806 20:29:19.110462   221 net.cpp:94] Creating Layer conv2/3x3
I0806 20:29:19.110471   221 net.cpp:435] conv2/3x3 <- conv2/3x3_reduce
I0806 20:29:19.110482   221 net.cpp:409] conv2/3x3 -> conv2/3x3
I0806 20:29:19.112089   221 net.cpp:144] Setting up conv2/3x3
I0806 20:29:19.112110   221 net.cpp:151] Top shape: 64 192 56 56 (38535168)
I0806 20:29:19.112119   221 net.cpp:159] Memory required for data: 809239552
I0806 20:29:19.112136   221 layer_factory.hpp:77] Creating layer conv2/relu_3x3
I0806 20:29:19.112169   221 net.cpp:94] Creating Layer conv2/relu_3x3
I0806 20:29:19.112179   221 net.cpp:435] conv2/relu_3x3 <- conv2/3x3
I0806 20:29:19.112190   221 net.cpp:396] conv2/relu_3x3 -> conv2/3x3 (in-place)
I0806 20:29:19.112203   221 net.cpp:144] Setting up conv2/relu_3x3
I0806 20:29:19.112213   221 net.cpp:151] Top shape: 64 192 56 56 (38535168)
I0806 20:29:19.112221   221 net.cpp:159] Memory required for data: 963380224
I0806 20:29:19.112231   221 layer_factory.hpp:77] Creating layer conv2/norm2
I0806 20:29:19.112241   221 net.cpp:94] Creating Layer conv2/norm2
I0806 20:29:19.112249   221 net.cpp:435] conv2/norm2 <- conv2/3x3
I0806 20:29:19.112260   221 net.cpp:409] conv2/norm2 -> conv2/norm2
I0806 20:29:19.112306   221 net.cpp:144] Setting up conv2/norm2
I0806 20:29:19.112318   221 net.cpp:151] Top shape: 64 192 56 56 (38535168)
I0806 20:29:19.112330   221 net.cpp:159] Memory required for data: 1117520896
I0806 20:29:19.112339   221 layer_factory.hpp:77] Creating layer pool2/3x3_s2
I0806 20:29:19.112350   221 net.cpp:94] Creating Layer pool2/3x3_s2
I0806 20:29:19.112360   221 net.cpp:435] pool2/3x3_s2 <- conv2/norm2
I0806 20:29:19.112370   221 net.cpp:409] pool2/3x3_s2 -> pool2/3x3_s2
I0806 20:29:19.112411   221 net.cpp:144] Setting up pool2/3x3_s2
I0806 20:29:19.112421   221 net.cpp:151] Top shape: 64 192 28 28 (9633792)
I0806 20:29:19.112431   221 net.cpp:159] Memory required for data: 1156056064
I0806 20:29:19.112438   221 layer_factory.hpp:77] Creating layer pool2/3x3_s2_pool2/3x3_s2_0_split
I0806 20:29:19.112449   221 net.cpp:94] Creating Layer pool2/3x3_s2_pool2/3x3_s2_0_split
I0806 20:29:19.112458   221 net.cpp:435] pool2/3x3_s2_pool2/3x3_s2_0_split <- pool2/3x3_s2
I0806 20:29:19.112469   221 net.cpp:409] pool2/3x3_s2_pool2/3x3_s2_0_split -> pool2/3x3_s2_pool2/3x3_s2_0_split_0
I0806 20:29:19.112481   221 net.cpp:409] pool2/3x3_s2_pool2/3x3_s2_0_split -> pool2/3x3_s2_pool2/3x3_s2_0_split_1
I0806 20:29:19.112493   221 net.cpp:409] pool2/3x3_s2_pool2/3x3_s2_0_split -> pool2/3x3_s2_pool2/3x3_s2_0_split_2
I0806 20:29:19.112504   221 net.cpp:409] pool2/3x3_s2_pool2/3x3_s2_0_split -> pool2/3x3_s2_pool2/3x3_s2_0_split_3
I0806 20:29:19.112558   221 net.cpp:144] Setting up pool2/3x3_s2_pool2/3x3_s2_0_split
I0806 20:29:19.112571   221 net.cpp:151] Top shape: 64 192 28 28 (9633792)
I0806 20:29:19.112579   221 net.cpp:151] Top shape: 64 192 28 28 (9633792)
I0806 20:29:19.112588   221 net.cpp:151] Top shape: 64 192 28 28 (9633792)
I0806 20:29:19.112597   221 net.cpp:151] Top shape: 64 192 28 28 (9633792)
I0806 20:29:19.112606   221 net.cpp:159] Memory required for data: 1310196736
I0806 20:29:19.112613   221 layer_factory.hpp:77] Creating layer inception_3a/1x1
I0806 20:29:19.112627   221 net.cpp:94] Creating Layer inception_3a/1x1
I0806 20:29:19.112637   221 net.cpp:435] inception_3a/1x1 <- pool2/3x3_s2_pool2/3x3_s2_0_split_0
I0806 20:29:19.112648   221 net.cpp:409] inception_3a/1x1 -> inception_3a/1x1
I0806 20:29:19.113569   221 net.cpp:144] Setting up inception_3a/1x1
I0806 20:29:19.113587   221 net.cpp:151] Top shape: 64 64 28 28 (3211264)
I0806 20:29:19.113596   221 net.cpp:159] Memory required for data: 1323041792
I0806 20:29:19.113608   221 layer_factory.hpp:77] Creating layer inception_3a/relu_1x1
I0806 20:29:19.113620   221 net.cpp:94] Creating Layer inception_3a/relu_1x1
I0806 20:29:19.113631   221 net.cpp:435] inception_3a/relu_1x1 <- inception_3a/1x1
I0806 20:29:19.113643   221 net.cpp:396] inception_3a/relu_1x1 -> inception_3a/1x1 (in-place)
I0806 20:29:19.113657   221 net.cpp:144] Setting up inception_3a/relu_1x1
I0806 20:29:19.113667   221 net.cpp:151] Top shape: 64 64 28 28 (3211264)
I0806 20:29:19.113674   221 net.cpp:159] Memory required for data: 1335886848
I0806 20:29:19.113683   221 layer_factory.hpp:77] Creating layer inception_3a/3x3_reduce
I0806 20:29:19.113696   221 net.cpp:94] Creating Layer inception_3a/3x3_reduce
I0806 20:29:19.113705   221 net.cpp:435] inception_3a/3x3_reduce <- pool2/3x3_s2_pool2/3x3_s2_0_split_1
I0806 20:29:19.113718   221 net.cpp:409] inception_3a/3x3_reduce -> inception_3a/3x3_reduce
I0806 20:29:19.114748   221 net.cpp:144] Setting up inception_3a/3x3_reduce
I0806 20:29:19.114766   221 net.cpp:151] Top shape: 64 96 28 28 (4816896)
I0806 20:29:19.114775   221 net.cpp:159] Memory required for data: 1355154432
I0806 20:29:19.114790   221 layer_factory.hpp:77] Creating layer inception_3a/relu_3x3_reduce
I0806 20:29:19.114806   221 net.cpp:94] Creating Layer inception_3a/relu_3x3_reduce
I0806 20:29:19.114816   221 net.cpp:435] inception_3a/relu_3x3_reduce <- inception_3a/3x3_reduce
I0806 20:29:19.114827   221 net.cpp:396] inception_3a/relu_3x3_reduce -> inception_3a/3x3_reduce (in-place)
I0806 20:29:19.114840   221 net.cpp:144] Setting up inception_3a/relu_3x3_reduce
I0806 20:29:19.114850   221 net.cpp:151] Top shape: 64 96 28 28 (4816896)
I0806 20:29:19.114858   221 net.cpp:159] Memory required for data: 1374422016
I0806 20:29:19.114867   221 layer_factory.hpp:77] Creating layer inception_3a/3x3
I0806 20:29:19.114881   221 net.cpp:94] Creating Layer inception_3a/3x3
I0806 20:29:19.114889   221 net.cpp:435] inception_3a/3x3 <- inception_3a/3x3_reduce
I0806 20:29:19.114900   221 net.cpp:409] inception_3a/3x3 -> inception_3a/3x3
I0806 20:29:19.115787   221 net.cpp:144] Setting up inception_3a/3x3
I0806 20:29:19.115805   221 net.cpp:151] Top shape: 64 128 28 28 (6422528)
I0806 20:29:19.115813   221 net.cpp:159] Memory required for data: 1400112128
I0806 20:29:19.115825   221 layer_factory.hpp:77] Creating layer inception_3a/relu_3x3
I0806 20:29:19.115837   221 net.cpp:94] Creating Layer inception_3a/relu_3x3
I0806 20:29:19.115846   221 net.cpp:435] inception_3a/relu_3x3 <- inception_3a/3x3
I0806 20:29:19.115857   221 net.cpp:396] inception_3a/relu_3x3 -> inception_3a/3x3 (in-place)
I0806 20:29:19.115870   221 net.cpp:144] Setting up inception_3a/relu_3x3
I0806 20:29:19.115880   221 net.cpp:151] Top shape: 64 128 28 28 (6422528)
I0806 20:29:19.115887   221 net.cpp:159] Memory required for data: 1425802240
I0806 20:29:19.115896   221 layer_factory.hpp:77] Creating layer inception_3a/5x5_reduce
I0806 20:29:19.115909   221 net.cpp:94] Creating Layer inception_3a/5x5_reduce
I0806 20:29:19.115918   221 net.cpp:435] inception_3a/5x5_reduce <- pool2/3x3_s2_pool2/3x3_s2_0_split_2
I0806 20:29:19.115931   221 net.cpp:409] inception_3a/5x5_reduce -> inception_3a/5x5_reduce
I0806 20:29:19.116179   221 net.cpp:144] Setting up inception_3a/5x5_reduce
I0806 20:29:19.116194   221 net.cpp:151] Top shape: 64 16 28 28 (802816)
I0806 20:29:19.116202   221 net.cpp:159] Memory required for data: 1429013504
I0806 20:29:19.116214   221 layer_factory.hpp:77] Creating layer inception_3a/relu_5x5_reduce
I0806 20:29:19.116225   221 net.cpp:94] Creating Layer inception_3a/relu_5x5_reduce
I0806 20:29:19.116233   221 net.cpp:435] inception_3a/relu_5x5_reduce <- inception_3a/5x5_reduce
I0806 20:29:19.116245   221 net.cpp:396] inception_3a/relu_5x5_reduce -> inception_3a/5x5_reduce (in-place)
I0806 20:29:19.116256   221 net.cpp:144] Setting up inception_3a/relu_5x5_reduce
I0806 20:29:19.116266   221 net.cpp:151] Top shape: 64 16 28 28 (802816)
I0806 20:29:19.116273   221 net.cpp:159] Memory required for data: 1432224768
I0806 20:29:19.116282   221 layer_factory.hpp:77] Creating layer inception_3a/5x5
I0806 20:29:19.116294   221 net.cpp:94] Creating Layer inception_3a/5x5
I0806 20:29:19.116304   221 net.cpp:435] inception_3a/5x5 <- inception_3a/5x5_reduce
I0806 20:29:19.116320   221 net.cpp:409] inception_3a/5x5 -> inception_3a/5x5
I0806 20:29:19.116595   221 net.cpp:144] Setting up inception_3a/5x5
I0806 20:29:19.116609   221 net.cpp:151] Top shape: 64 32 28 28 (1605632)
I0806 20:29:19.116617   221 net.cpp:159] Memory required for data: 1438647296
I0806 20:29:19.116628   221 layer_factory.hpp:77] Creating layer inception_3a/relu_5x5
I0806 20:29:19.116639   221 net.cpp:94] Creating Layer inception_3a/relu_5x5
I0806 20:29:19.116663   221 net.cpp:435] inception_3a/relu_5x5 <- inception_3a/5x5
I0806 20:29:19.116673   221 net.cpp:396] inception_3a/relu_5x5 -> inception_3a/5x5 (in-place)
I0806 20:29:19.116685   221 net.cpp:144] Setting up inception_3a/relu_5x5
I0806 20:29:19.116708   221 net.cpp:151] Top shape: 64 32 28 28 (1605632)
I0806 20:29:19.116717   221 net.cpp:159] Memory required for data: 1445069824
I0806 20:29:19.116725   221 layer_factory.hpp:77] Creating layer inception_3a/pool
I0806 20:29:19.116736   221 net.cpp:94] Creating Layer inception_3a/pool
I0806 20:29:19.116745   221 net.cpp:435] inception_3a/pool <- pool2/3x3_s2_pool2/3x3_s2_0_split_3
I0806 20:29:19.116756   221 net.cpp:409] inception_3a/pool -> inception_3a/pool
I0806 20:29:19.116816   221 net.cpp:144] Setting up inception_3a/pool
I0806 20:29:19.116827   221 net.cpp:151] Top shape: 64 192 28 28 (9633792)
I0806 20:29:19.116835   221 net.cpp:159] Memory required for data: 1483604992
I0806 20:29:19.116843   221 layer_factory.hpp:77] Creating layer inception_3a/pool_proj
I0806 20:29:19.116858   221 net.cpp:94] Creating Layer inception_3a/pool_proj
I0806 20:29:19.116868   221 net.cpp:435] inception_3a/pool_proj <- inception_3a/pool
I0806 20:29:19.116879   221 net.cpp:409] inception_3a/pool_proj -> inception_3a/pool_proj
I0806 20:29:19.117141   221 net.cpp:144] Setting up inception_3a/pool_proj
I0806 20:29:19.117156   221 net.cpp:151] Top shape: 64 32 28 28 (1605632)
I0806 20:29:19.117164   221 net.cpp:159] Memory required for data: 1490027520
I0806 20:29:19.117180   221 layer_factory.hpp:77] Creating layer inception_3a/relu_pool_proj
I0806 20:29:19.117202   221 net.cpp:94] Creating Layer inception_3a/relu_pool_proj
I0806 20:29:19.117211   221 net.cpp:435] inception_3a/relu_pool_proj <- inception_3a/pool_proj
I0806 20:29:19.117223   221 net.cpp:396] inception_3a/relu_pool_proj -> inception_3a/pool_proj (in-place)
I0806 20:29:19.117238   221 net.cpp:144] Setting up inception_3a/relu_pool_proj
I0806 20:29:19.117249   221 net.cpp:151] Top shape: 64 32 28 28 (1605632)
I0806 20:29:19.117256   221 net.cpp:159] Memory required for data: 1496450048
I0806 20:29:19.117264   221 layer_factory.hpp:77] Creating layer inception_3a/output
I0806 20:29:19.117275   221 net.cpp:94] Creating Layer inception_3a/output
I0806 20:29:19.117285   221 net.cpp:435] inception_3a/output <- inception_3a/1x1
I0806 20:29:19.117293   221 net.cpp:435] inception_3a/output <- inception_3a/3x3
I0806 20:29:19.117303   221 net.cpp:435] inception_3a/output <- inception_3a/5x5
I0806 20:29:19.117312   221 net.cpp:435] inception_3a/output <- inception_3a/pool_proj
I0806 20:29:19.117322   221 net.cpp:409] inception_3a/output -> inception_3a/output
I0806 20:29:19.117354   221 net.cpp:144] Setting up inception_3a/output
I0806 20:29:19.117367   221 net.cpp:151] Top shape: 64 256 28 28 (12845056)
I0806 20:29:19.117374   221 net.cpp:159] Memory required for data: 1547830272
I0806 20:29:19.117398   221 layer_factory.hpp:77] Creating layer inception_3a/output_inception_3a/output_0_split
I0806 20:29:19.117424   221 net.cpp:94] Creating Layer inception_3a/output_inception_3a/output_0_split
I0806 20:29:19.117434   221 net.cpp:435] inception_3a/output_inception_3a/output_0_split <- inception_3a/output
I0806 20:29:19.117444   221 net.cpp:409] inception_3a/output_inception_3a/output_0_split -> inception_3a/output_inception_3a/output_0_split_0
I0806 20:29:19.117457   221 net.cpp:409] inception_3a/output_inception_3a/output_0_split -> inception_3a/output_inception_3a/output_0_split_1
I0806 20:29:19.117470   221 net.cpp:409] inception_3a/output_inception_3a/output_0_split -> inception_3a/output_inception_3a/output_0_split_2
I0806 20:29:19.117481   221 net.cpp:409] inception_3a/output_inception_3a/output_0_split -> inception_3a/output_inception_3a/output_0_split_3
I0806 20:29:19.117539   221 net.cpp:144] Setting up inception_3a/output_inception_3a/output_0_split
I0806 20:29:19.117552   221 net.cpp:151] Top shape: 64 256 28 28 (12845056)
I0806 20:29:19.117560   221 net.cpp:151] Top shape: 64 256 28 28 (12845056)
I0806 20:29:19.117569   221 net.cpp:151] Top shape: 64 256 28 28 (12845056)
I0806 20:29:19.117578   221 net.cpp:151] Top shape: 64 256 28 28 (12845056)
I0806 20:29:19.117586   221 net.cpp:159] Memory required for data: 1753351168
I0806 20:29:19.117606   221 layer_factory.hpp:77] Creating layer inception_3b/1x1
I0806 20:29:19.117621   221 net.cpp:94] Creating Layer inception_3b/1x1
I0806 20:29:19.117630   221 net.cpp:435] inception_3b/1x1 <- inception_3a/output_inception_3a/output_0_split_0
I0806 20:29:19.117642   221 net.cpp:409] inception_3b/1x1 -> inception_3b/1x1
I0806 20:29:19.118100   221 net.cpp:144] Setting up inception_3b/1x1
I0806 20:29:19.118115   221 net.cpp:151] Top shape: 64 128 28 28 (6422528)
I0806 20:29:19.118124   221 net.cpp:159] Memory required for data: 1779041280
I0806 20:29:19.118135   221 layer_factory.hpp:77] Creating layer inception_3b/relu_1x1
I0806 20:29:19.118146   221 net.cpp:94] Creating Layer inception_3b/relu_1x1
I0806 20:29:19.118155   221 net.cpp:435] inception_3b/relu_1x1 <- inception_3b/1x1
I0806 20:29:19.118166   221 net.cpp:396] inception_3b/relu_1x1 -> inception_3b/1x1 (in-place)
I0806 20:29:19.118180   221 net.cpp:144] Setting up inception_3b/relu_1x1
I0806 20:29:19.118188   221 net.cpp:151] Top shape: 64 128 28 28 (6422528)
I0806 20:29:19.118196   221 net.cpp:159] Memory required for data: 1804731392
I0806 20:29:19.118206   221 layer_factory.hpp:77] Creating layer inception_3b/3x3_reduce
I0806 20:29:19.118218   221 net.cpp:94] Creating Layer inception_3b/3x3_reduce
I0806 20:29:19.118227   221 net.cpp:435] inception_3b/3x3_reduce <- inception_3a/output_inception_3a/output_0_split_1
I0806 20:29:19.118240   221 net.cpp:409] inception_3b/3x3_reduce -> inception_3b/3x3_reduce
I0806 20:29:19.118654   221 net.cpp:144] Setting up inception_3b/3x3_reduce
I0806 20:29:19.118667   221 net.cpp:151] Top shape: 64 128 28 28 (6422528)
I0806 20:29:19.118675   221 net.cpp:159] Memory required for data: 1830421504
I0806 20:29:19.118686   221 layer_factory.hpp:77] Creating layer inception_3b/relu_3x3_reduce
I0806 20:29:19.118698   221 net.cpp:94] Creating Layer inception_3b/relu_3x3_reduce
I0806 20:29:19.118706   221 net.cpp:435] inception_3b/relu_3x3_reduce <- inception_3b/3x3_reduce
I0806 20:29:19.118717   221 net.cpp:396] inception_3b/relu_3x3_reduce -> inception_3b/3x3_reduce (in-place)
I0806 20:29:19.118729   221 net.cpp:144] Setting up inception_3b/relu_3x3_reduce
I0806 20:29:19.118738   221 net.cpp:151] Top shape: 64 128 28 28 (6422528)
I0806 20:29:19.118746   221 net.cpp:159] Memory required for data: 1856111616
I0806 20:29:19.118753   221 layer_factory.hpp:77] Creating layer inception_3b/3x3
I0806 20:29:19.118772   221 net.cpp:94] Creating Layer inception_3b/3x3
I0806 20:29:19.118780   221 net.cpp:435] inception_3b/3x3 <- inception_3b/3x3_reduce
I0806 20:29:19.118790   221 net.cpp:409] inception_3b/3x3 -> inception_3b/3x3
I0806 20:29:19.120951   221 net.cpp:144] Setting up inception_3b/3x3
I0806 20:29:19.120986   221 net.cpp:151] Top shape: 64 192 28 28 (9633792)
I0806 20:29:19.120995   221 net.cpp:159] Memory required for data: 1894646784
I0806 20:29:19.121007   221 layer_factory.hpp:77] Creating layer inception_3b/relu_3x3
I0806 20:29:19.121019   221 net.cpp:94] Creating Layer inception_3b/relu_3x3
I0806 20:29:19.121028   221 net.cpp:435] inception_3b/relu_3x3 <- inception_3b/3x3
I0806 20:29:19.121040   221 net.cpp:396] inception_3b/relu_3x3 -> inception_3b/3x3 (in-place)
I0806 20:29:19.121057   221 net.cpp:144] Setting up inception_3b/relu_3x3
I0806 20:29:19.121073   221 net.cpp:151] Top shape: 64 192 28 28 (9633792)
I0806 20:29:19.121081   221 net.cpp:159] Memory required for data: 1933181952
I0806 20:29:19.121090   221 layer_factory.hpp:77] Creating layer inception_3b/5x5_reduce
I0806 20:29:19.121104   221 net.cpp:94] Creating Layer inception_3b/5x5_reduce
I0806 20:29:19.121114   221 net.cpp:435] inception_3b/5x5_reduce <- inception_3a/output_inception_3a/output_0_split_2
I0806 20:29:19.121125   221 net.cpp:409] inception_3b/5x5_reduce -> inception_3b/5x5_reduce
I0806 20:29:19.121392   221 net.cpp:144] Setting up inception_3b/5x5_reduce
I0806 20:29:19.121407   221 net.cpp:151] Top shape: 64 32 28 28 (1605632)
I0806 20:29:19.121414   221 net.cpp:159] Memory required for data: 1939604480
I0806 20:29:19.121425   221 layer_factory.hpp:77] Creating layer inception_3b/relu_5x5_reduce
I0806 20:29:19.121450   221 net.cpp:94] Creating Layer inception_3b/relu_5x5_reduce
I0806 20:29:19.121459   221 net.cpp:435] inception_3b/relu_5x5_reduce <- inception_3b/5x5_reduce
I0806 20:29:19.121471   221 net.cpp:396] inception_3b/relu_5x5_reduce -> inception_3b/5x5_reduce (in-place)
I0806 20:29:19.121484   221 net.cpp:144] Setting up inception_3b/relu_5x5_reduce
I0806 20:29:19.121492   221 net.cpp:151] Top shape: 64 32 28 28 (1605632)
I0806 20:29:19.121500   221 net.cpp:159] Memory required for data: 1946027008
I0806 20:29:19.121508   221 layer_factory.hpp:77] Creating layer inception_3b/5x5
I0806 20:29:19.121521   221 net.cpp:94] Creating Layer inception_3b/5x5
I0806 20:29:19.121529   221 net.cpp:435] inception_3b/5x5 <- inception_3b/5x5_reduce
I0806 20:29:19.121541   221 net.cpp:409] inception_3b/5x5 -> inception_3b/5x5
I0806 20:29:19.122908   221 net.cpp:144] Setting up inception_3b/5x5
I0806 20:29:19.122942   221 net.cpp:151] Top shape: 64 96 28 28 (4816896)
I0806 20:29:19.122951   221 net.cpp:159] Memory required for data: 1965294592
I0806 20:29:19.122962   221 layer_factory.hpp:77] Creating layer inception_3b/relu_5x5
I0806 20:29:19.122974   221 net.cpp:94] Creating Layer inception_3b/relu_5x5
I0806 20:29:19.122984   221 net.cpp:435] inception_3b/relu_5x5 <- inception_3b/5x5
I0806 20:29:19.122995   221 net.cpp:396] inception_3b/relu_5x5 -> inception_3b/5x5 (in-place)
I0806 20:29:19.123024   221 net.cpp:144] Setting up inception_3b/relu_5x5
I0806 20:29:19.123034   221 net.cpp:151] Top shape: 64 96 28 28 (4816896)
I0806 20:29:19.123042   221 net.cpp:159] Memory required for data: 1984562176
I0806 20:29:19.123090   221 layer_factory.hpp:77] Creating layer inception_3b/pool
I0806 20:29:19.123101   221 net.cpp:94] Creating Layer inception_3b/pool
I0806 20:29:19.123111   221 net.cpp:435] inception_3b/pool <- inception_3a/output_inception_3a/output_0_split_3
I0806 20:29:19.123122   221 net.cpp:409] inception_3b/pool -> inception_3b/pool
I0806 20:29:19.123167   221 net.cpp:144] Setting up inception_3b/pool
I0806 20:29:19.123180   221 net.cpp:151] Top shape: 64 256 28 28 (12845056)
I0806 20:29:19.123188   221 net.cpp:159] Memory required for data: 2035942400
I0806 20:29:19.123196   221 layer_factory.hpp:77] Creating layer inception_3b/pool_proj
I0806 20:29:19.123210   221 net.cpp:94] Creating Layer inception_3b/pool_proj
I0806 20:29:19.123220   221 net.cpp:435] inception_3b/pool_proj <- inception_3b/pool
I0806 20:29:19.123232   221 net.cpp:409] inception_3b/pool_proj -> inception_3b/pool_proj
I0806 20:29:19.123561   221 net.cpp:144] Setting up inception_3b/pool_proj
I0806 20:29:19.123576   221 net.cpp:151] Top shape: 64 64 28 28 (3211264)
I0806 20:29:19.123584   221 net.cpp:159] Memory required for data: 2048787456
I0806 20:29:19.123595   221 layer_factory.hpp:77] Creating layer inception_3b/relu_pool_proj
I0806 20:29:19.123607   221 net.cpp:94] Creating Layer inception_3b/relu_pool_proj
I0806 20:29:19.123616   221 net.cpp:435] inception_3b/relu_pool_proj <- inception_3b/pool_proj
I0806 20:29:19.123627   221 net.cpp:396] inception_3b/relu_pool_proj -> inception_3b/pool_proj (in-place)
I0806 20:29:19.123641   221 net.cpp:144] Setting up inception_3b/relu_pool_proj
I0806 20:29:19.123651   221 net.cpp:151] Top shape: 64 64 28 28 (3211264)
I0806 20:29:19.123657   221 net.cpp:159] Memory required for data: 2061632512
I0806 20:29:19.123666   221 layer_factory.hpp:77] Creating layer inception_3b/output
I0806 20:29:19.123693   221 net.cpp:94] Creating Layer inception_3b/output
I0806 20:29:19.123703   221 net.cpp:435] inception_3b/output <- inception_3b/1x1
I0806 20:29:19.123713   221 net.cpp:435] inception_3b/output <- inception_3b/3x3
I0806 20:29:19.123721   221 net.cpp:435] inception_3b/output <- inception_3b/5x5
I0806 20:29:19.123730   221 net.cpp:435] inception_3b/output <- inception_3b/pool_proj
I0806 20:29:19.123741   221 net.cpp:409] inception_3b/output -> inception_3b/output
I0806 20:29:19.123773   221 net.cpp:144] Setting up inception_3b/output
I0806 20:29:19.123800   221 net.cpp:151] Top shape: 64 480 28 28 (24084480)
I0806 20:29:19.123807   221 net.cpp:159] Memory required for data: 2157970432
I0806 20:29:19.123816   221 layer_factory.hpp:77] Creating layer pool3/3x3_s2
I0806 20:29:19.123827   221 net.cpp:94] Creating Layer pool3/3x3_s2
I0806 20:29:19.123836   221 net.cpp:435] pool3/3x3_s2 <- inception_3b/output
I0806 20:29:19.123848   221 net.cpp:409] pool3/3x3_s2 -> pool3/3x3_s2
I0806 20:29:19.123890   221 net.cpp:144] Setting up pool3/3x3_s2
I0806 20:29:19.123901   221 net.cpp:151] Top shape: 64 480 14 14 (6021120)
I0806 20:29:19.123909   221 net.cpp:159] Memory required for data: 2182054912
I0806 20:29:19.123919   221 layer_factory.hpp:77] Creating layer pool3/3x3_s2_pool3/3x3_s2_0_split
I0806 20:29:19.123929   221 net.cpp:94] Creating Layer pool3/3x3_s2_pool3/3x3_s2_0_split
I0806 20:29:19.123939   221 net.cpp:435] pool3/3x3_s2_pool3/3x3_s2_0_split <- pool3/3x3_s2
I0806 20:29:19.123950   221 net.cpp:409] pool3/3x3_s2_pool3/3x3_s2_0_split -> pool3/3x3_s2_pool3/3x3_s2_0_split_0
I0806 20:29:19.123961   221 net.cpp:409] pool3/3x3_s2_pool3/3x3_s2_0_split -> pool3/3x3_s2_pool3/3x3_s2_0_split_1
I0806 20:29:19.123973   221 net.cpp:409] pool3/3x3_s2_pool3/3x3_s2_0_split -> pool3/3x3_s2_pool3/3x3_s2_0_split_2
I0806 20:29:19.124001   221 net.cpp:409] pool3/3x3_s2_pool3/3x3_s2_0_split -> pool3/3x3_s2_pool3/3x3_s2_0_split_3
I0806 20:29:19.124074   221 net.cpp:144] Setting up pool3/3x3_s2_pool3/3x3_s2_0_split
I0806 20:29:19.124086   221 net.cpp:151] Top shape: 64 480 14 14 (6021120)
I0806 20:29:19.124111   221 net.cpp:151] Top shape: 64 480 14 14 (6021120)
I0806 20:29:19.124120   221 net.cpp:151] Top shape: 64 480 14 14 (6021120)
I0806 20:29:19.124128   221 net.cpp:151] Top shape: 64 480 14 14 (6021120)
I0806 20:29:19.124136   221 net.cpp:159] Memory required for data: 2278392832
I0806 20:29:19.124145   221 layer_factory.hpp:77] Creating layer inception_4a/1x1
I0806 20:29:19.124173   221 net.cpp:94] Creating Layer inception_4a/1x1
I0806 20:29:19.124182   221 net.cpp:435] inception_4a/1x1 <- pool3/3x3_s2_pool3/3x3_s2_0_split_0
I0806 20:29:19.124195   221 net.cpp:409] inception_4a/1x1 -> inception_4a/1x1
I0806 20:29:19.124888   221 net.cpp:144] Setting up inception_4a/1x1
I0806 20:29:19.124903   221 net.cpp:151] Top shape: 64 192 14 14 (2408448)
I0806 20:29:19.124910   221 net.cpp:159] Memory required for data: 2288026624
I0806 20:29:19.124938   221 layer_factory.hpp:77] Creating layer inception_4a/relu_1x1
I0806 20:29:19.124948   221 net.cpp:94] Creating Layer inception_4a/relu_1x1
I0806 20:29:19.124958   221 net.cpp:435] inception_4a/relu_1x1 <- inception_4a/1x1
I0806 20:29:19.124969   221 net.cpp:396] inception_4a/relu_1x1 -> inception_4a/1x1 (in-place)
I0806 20:29:19.124981   221 net.cpp:144] Setting up inception_4a/relu_1x1
I0806 20:29:19.124990   221 net.cpp:151] Top shape: 64 192 14 14 (2408448)
I0806 20:29:19.124999   221 net.cpp:159] Memory required for data: 2297660416
I0806 20:29:19.125006   221 layer_factory.hpp:77] Creating layer inception_4a/3x3_reduce
I0806 20:29:19.125020   221 net.cpp:94] Creating Layer inception_4a/3x3_reduce
I0806 20:29:19.125031   221 net.cpp:435] inception_4a/3x3_reduce <- pool3/3x3_s2_pool3/3x3_s2_0_split_1
I0806 20:29:19.125043   221 net.cpp:409] inception_4a/3x3_reduce -> inception_4a/3x3_reduce
I0806 20:29:19.125541   221 net.cpp:144] Setting up inception_4a/3x3_reduce
I0806 20:29:19.125556   221 net.cpp:151] Top shape: 64 96 14 14 (1204224)
I0806 20:29:19.125566   221 net.cpp:159] Memory required for data: 2302477312
I0806 20:29:19.125581   221 layer_factory.hpp:77] Creating layer inception_4a/relu_3x3_reduce
I0806 20:29:19.125593   221 net.cpp:94] Creating Layer inception_4a/relu_3x3_reduce
I0806 20:29:19.125603   221 net.cpp:435] inception_4a/relu_3x3_reduce <- inception_4a/3x3_reduce
I0806 20:29:19.125614   221 net.cpp:396] inception_4a/relu_3x3_reduce -> inception_4a/3x3_reduce (in-place)
I0806 20:29:19.125627   221 net.cpp:144] Setting up inception_4a/relu_3x3_reduce
I0806 20:29:19.125636   221 net.cpp:151] Top shape: 64 96 14 14 (1204224)
I0806 20:29:19.125656   221 net.cpp:159] Memory required for data: 2307294208
I0806 20:29:19.125665   221 layer_factory.hpp:77] Creating layer inception_4a/3x3
I0806 20:29:19.125679   221 net.cpp:94] Creating Layer inception_4a/3x3
I0806 20:29:19.125687   221 net.cpp:435] inception_4a/3x3 <- inception_4a/3x3_reduce
I0806 20:29:19.125699   221 net.cpp:409] inception_4a/3x3 -> inception_4a/3x3
I0806 20:29:19.127581   221 net.cpp:144] Setting up inception_4a/3x3
I0806 20:29:19.127600   221 net.cpp:151] Top shape: 64 208 14 14 (2609152)
I0806 20:29:19.127609   221 net.cpp:159] Memory required for data: 2317730816
I0806 20:29:19.127621   221 layer_factory.hpp:77] Creating layer inception_4a/relu_3x3
I0806 20:29:19.127634   221 net.cpp:94] Creating Layer inception_4a/relu_3x3
I0806 20:29:19.127642   221 net.cpp:435] inception_4a/relu_3x3 <- inception_4a/3x3
I0806 20:29:19.127655   221 net.cpp:396] inception_4a/relu_3x3 -> inception_4a/3x3 (in-place)
I0806 20:29:19.127668   221 net.cpp:144] Setting up inception_4a/relu_3x3
I0806 20:29:19.127678   221 net.cpp:151] Top shape: 64 208 14 14 (2609152)
I0806 20:29:19.127686   221 net.cpp:159] Memory required for data: 2328167424
I0806 20:29:19.127694   221 layer_factory.hpp:77] Creating layer inception_4a/5x5_reduce
I0806 20:29:19.127708   221 net.cpp:94] Creating Layer inception_4a/5x5_reduce
I0806 20:29:19.127717   221 net.cpp:435] inception_4a/5x5_reduce <- pool3/3x3_s2_pool3/3x3_s2_0_split_2
I0806 20:29:19.127729   221 net.cpp:409] inception_4a/5x5_reduce -> inception_4a/5x5_reduce
I0806 20:29:19.127987   221 net.cpp:144] Setting up inception_4a/5x5_reduce
I0806 20:29:19.128002   221 net.cpp:151] Top shape: 64 16 14 14 (200704)
I0806 20:29:19.128010   221 net.cpp:159] Memory required for data: 2328970240
I0806 20:29:19.128021   221 layer_factory.hpp:77] Creating layer inception_4a/relu_5x5_reduce
I0806 20:29:19.128032   221 net.cpp:94] Creating Layer inception_4a/relu_5x5_reduce
I0806 20:29:19.128041   221 net.cpp:435] inception_4a/relu_5x5_reduce <- inception_4a/5x5_reduce
I0806 20:29:19.128052   221 net.cpp:396] inception_4a/relu_5x5_reduce -> inception_4a/5x5_reduce (in-place)
I0806 20:29:19.128072   221 net.cpp:144] Setting up inception_4a/relu_5x5_reduce
I0806 20:29:19.128083   221 net.cpp:151] Top shape: 64 16 14 14 (200704)
I0806 20:29:19.128091   221 net.cpp:159] Memory required for data: 2329773056
I0806 20:29:19.128100   221 layer_factory.hpp:77] Creating layer inception_4a/5x5
I0806 20:29:19.128113   221 net.cpp:94] Creating Layer inception_4a/5x5
I0806 20:29:19.128123   221 net.cpp:435] inception_4a/5x5 <- inception_4a/5x5_reduce
I0806 20:29:19.128134   221 net.cpp:409] inception_4a/5x5 -> inception_4a/5x5
I0806 20:29:19.128458   221 net.cpp:144] Setting up inception_4a/5x5
I0806 20:29:19.128473   221 net.cpp:151] Top shape: 64 48 14 14 (602112)
I0806 20:29:19.128480   221 net.cpp:159] Memory required for data: 2332181504
I0806 20:29:19.128492   221 layer_factory.hpp:77] Creating layer inception_4a/relu_5x5
I0806 20:29:19.128504   221 net.cpp:94] Creating Layer inception_4a/relu_5x5
I0806 20:29:19.128513   221 net.cpp:435] inception_4a/relu_5x5 <- inception_4a/5x5
I0806 20:29:19.128525   221 net.cpp:396] inception_4a/relu_5x5 -> inception_4a/5x5 (in-place)
I0806 20:29:19.128536   221 net.cpp:144] Setting up inception_4a/relu_5x5
I0806 20:29:19.128546   221 net.cpp:151] Top shape: 64 48 14 14 (602112)
I0806 20:29:19.128554   221 net.cpp:159] Memory required for data: 2334589952
I0806 20:29:19.128562   221 layer_factory.hpp:77] Creating layer inception_4a/pool
I0806 20:29:19.128572   221 net.cpp:94] Creating Layer inception_4a/pool
I0806 20:29:19.128582   221 net.cpp:435] inception_4a/pool <- pool3/3x3_s2_pool3/3x3_s2_0_split_3
I0806 20:29:19.128593   221 net.cpp:409] inception_4a/pool -> inception_4a/pool
I0806 20:29:19.128638   221 net.cpp:144] Setting up inception_4a/pool
I0806 20:29:19.128650   221 net.cpp:151] Top shape: 64 480 14 14 (6021120)
I0806 20:29:19.128657   221 net.cpp:159] Memory required for data: 2358674432
I0806 20:29:19.128666   221 layer_factory.hpp:77] Creating layer inception_4a/pool_proj
I0806 20:29:19.128695   221 net.cpp:94] Creating Layer inception_4a/pool_proj
I0806 20:29:19.128705   221 net.cpp:435] inception_4a/pool_proj <- inception_4a/pool
I0806 20:29:19.128717   221 net.cpp:409] inception_4a/pool_proj -> inception_4a/pool_proj
I0806 20:29:19.129101   221 net.cpp:144] Setting up inception_4a/pool_proj
I0806 20:29:19.129115   221 net.cpp:151] Top shape: 64 64 14 14 (802816)
I0806 20:29:19.129124   221 net.cpp:159] Memory required for data: 2361885696
I0806 20:29:19.129135   221 layer_factory.hpp:77] Creating layer inception_4a/relu_pool_proj
I0806 20:29:19.129146   221 net.cpp:94] Creating Layer inception_4a/relu_pool_proj
I0806 20:29:19.129155   221 net.cpp:435] inception_4a/relu_pool_proj <- inception_4a/pool_proj
I0806 20:29:19.129166   221 net.cpp:396] inception_4a/relu_pool_proj -> inception_4a/pool_proj (in-place)
I0806 20:29:19.129179   221 net.cpp:144] Setting up inception_4a/relu_pool_proj
I0806 20:29:19.129189   221 net.cpp:151] Top shape: 64 64 14 14 (802816)
I0806 20:29:19.129196   221 net.cpp:159] Memory required for data: 2365096960
I0806 20:29:19.129205   221 layer_factory.hpp:77] Creating layer inception_4a/output
I0806 20:29:19.129216   221 net.cpp:94] Creating Layer inception_4a/output
I0806 20:29:19.129225   221 net.cpp:435] inception_4a/output <- inception_4a/1x1
I0806 20:29:19.129235   221 net.cpp:435] inception_4a/output <- inception_4a/3x3
I0806 20:29:19.129243   221 net.cpp:435] inception_4a/output <- inception_4a/5x5
I0806 20:29:19.129253   221 net.cpp:435] inception_4a/output <- inception_4a/pool_proj
I0806 20:29:19.129263   221 net.cpp:409] inception_4a/output -> inception_4a/output
I0806 20:29:19.129297   221 net.cpp:144] Setting up inception_4a/output
I0806 20:29:19.129308   221 net.cpp:151] Top shape: 64 512 14 14 (6422528)
I0806 20:29:19.129317   221 net.cpp:159] Memory required for data: 2390787072
I0806 20:29:19.129324   221 layer_factory.hpp:77] Creating layer inception_4a/output_inception_4a/output_0_split
I0806 20:29:19.129336   221 net.cpp:94] Creating Layer inception_4a/output_inception_4a/output_0_split
I0806 20:29:19.129345   221 net.cpp:435] inception_4a/output_inception_4a/output_0_split <- inception_4a/output
I0806 20:29:19.129356   221 net.cpp:409] inception_4a/output_inception_4a/output_0_split -> inception_4a/output_inception_4a/output_0_split_0
I0806 20:29:19.129369   221 net.cpp:409] inception_4a/output_inception_4a/output_0_split -> inception_4a/output_inception_4a/output_0_split_1
I0806 20:29:19.129380   221 net.cpp:409] inception_4a/output_inception_4a/output_0_split -> inception_4a/output_inception_4a/output_0_split_2
I0806 20:29:19.129392   221 net.cpp:409] inception_4a/output_inception_4a/output_0_split -> inception_4a/output_inception_4a/output_0_split_3
I0806 20:29:19.129405   221 net.cpp:409] inception_4a/output_inception_4a/output_0_split -> inception_4a/output_inception_4a/output_0_split_4
I0806 20:29:19.129472   221 net.cpp:144] Setting up inception_4a/output_inception_4a/output_0_split
I0806 20:29:19.129484   221 net.cpp:151] Top shape: 64 512 14 14 (6422528)
I0806 20:29:19.129493   221 net.cpp:151] Top shape: 64 512 14 14 (6422528)
I0806 20:29:19.129503   221 net.cpp:151] Top shape: 64 512 14 14 (6422528)
I0806 20:29:19.129511   221 net.cpp:151] Top shape: 64 512 14 14 (6422528)
I0806 20:29:19.129520   221 net.cpp:151] Top shape: 64 512 14 14 (6422528)
I0806 20:29:19.129528   221 net.cpp:159] Memory required for data: 2519237632
I0806 20:29:19.129537   221 layer_factory.hpp:77] Creating layer loss1/ave_pool
I0806 20:29:19.129549   221 net.cpp:94] Creating Layer loss1/ave_pool
I0806 20:29:19.129557   221 net.cpp:435] loss1/ave_pool <- inception_4a/output_inception_4a/output_0_split_0
I0806 20:29:19.129568   221 net.cpp:409] loss1/ave_pool -> loss1/ave_pool
I0806 20:29:19.129606   221 net.cpp:144] Setting up loss1/ave_pool
I0806 20:29:19.129618   221 net.cpp:151] Top shape: 64 512 4 4 (524288)
I0806 20:29:19.129626   221 net.cpp:159] Memory required for data: 2521334784
I0806 20:29:19.129647   221 layer_factory.hpp:77] Creating layer loss1/conv
I0806 20:29:19.129660   221 net.cpp:94] Creating Layer loss1/conv
I0806 20:29:19.129669   221 net.cpp:435] loss1/conv <- loss1/ave_pool
I0806 20:29:19.129681   221 net.cpp:409] loss1/conv -> loss1/conv
I0806 20:29:19.130239   221 net.cpp:144] Setting up loss1/conv
I0806 20:29:19.130254   221 net.cpp:151] Top shape: 64 128 4 4 (131072)
I0806 20:29:19.130261   221 net.cpp:159] Memory required for data: 2521859072
I0806 20:29:19.130273   221 layer_factory.hpp:77] Creating layer loss1/relu_conv
I0806 20:29:19.130285   221 net.cpp:94] Creating Layer loss1/relu_conv
I0806 20:29:19.130293   221 net.cpp:435] loss1/relu_conv <- loss1/conv
I0806 20:29:19.130303   221 net.cpp:396] loss1/relu_conv -> loss1/conv (in-place)
I0806 20:29:19.130316   221 net.cpp:144] Setting up loss1/relu_conv
I0806 20:29:19.130326   221 net.cpp:151] Top shape: 64 128 4 4 (131072)
I0806 20:29:19.130334   221 net.cpp:159] Memory required for data: 2522383360
I0806 20:29:19.130342   221 layer_factory.hpp:77] Creating layer loss1/fc
I0806 20:29:19.130355   221 net.cpp:94] Creating Layer loss1/fc
I0806 20:29:19.130364   221 net.cpp:435] loss1/fc <- loss1/conv
I0806 20:29:19.130375   221 net.cpp:409] loss1/fc -> loss1/fc
I0806 20:29:19.152839   221 net.cpp:144] Setting up loss1/fc
I0806 20:29:19.152861   221 net.cpp:151] Top shape: 64 1024 (65536)
I0806 20:29:19.152869   221 net.cpp:159] Memory required for data: 2522645504
I0806 20:29:19.152882   221 layer_factory.hpp:77] Creating layer loss1/relu_fc
I0806 20:29:19.152895   221 net.cpp:94] Creating Layer loss1/relu_fc
I0806 20:29:19.152904   221 net.cpp:435] loss1/relu_fc <- loss1/fc
I0806 20:29:19.152931   221 net.cpp:396] loss1/relu_fc -> loss1/fc (in-place)
I0806 20:29:19.152945   221 net.cpp:144] Setting up loss1/relu_fc
I0806 20:29:19.152956   221 net.cpp:151] Top shape: 64 1024 (65536)
I0806 20:29:19.152962   221 net.cpp:159] Memory required for data: 2522907648
I0806 20:29:19.152971   221 layer_factory.hpp:77] Creating layer loss1/drop_fc
I0806 20:29:19.152994   221 net.cpp:94] Creating Layer loss1/drop_fc
I0806 20:29:19.153004   221 net.cpp:435] loss1/drop_fc <- loss1/fc
I0806 20:29:19.153013   221 net.cpp:396] loss1/drop_fc -> loss1/fc (in-place)
I0806 20:29:19.153048   221 net.cpp:144] Setting up loss1/drop_fc
I0806 20:29:19.153059   221 net.cpp:151] Top shape: 64 1024 (65536)
I0806 20:29:19.153087   221 net.cpp:159] Memory required for data: 2523169792
I0806 20:29:19.153096   221 layer_factory.hpp:77] Creating layer loss1/classifier
I0806 20:29:19.153108   221 net.cpp:94] Creating Layer loss1/classifier
I0806 20:29:19.153116   221 net.cpp:435] loss1/classifier <- loss1/fc
I0806 20:29:19.153127   221 net.cpp:409] loss1/classifier -> loss1/classifier
I0806 20:29:19.153261   221 net.cpp:144] Setting up loss1/classifier
I0806 20:29:19.153275   221 net.cpp:151] Top shape: 64 3 (192)
I0806 20:29:19.153281   221 net.cpp:159] Memory required for data: 2523170560
I0806 20:29:19.153292   221 layer_factory.hpp:77] Creating layer loss1/loss
I0806 20:29:19.153304   221 net.cpp:94] Creating Layer loss1/loss
I0806 20:29:19.153313   221 net.cpp:435] loss1/loss <- loss1/classifier
I0806 20:29:19.153322   221 net.cpp:435] loss1/loss <- label_train-data_1_split_0
I0806 20:29:19.153333   221 net.cpp:409] loss1/loss -> loss1/loss
I0806 20:29:19.153426   221 layer_factory.hpp:77] Creating layer loss1/loss
I0806 20:29:19.154778   221 net.cpp:144] Setting up loss1/loss
I0806 20:29:19.154794   221 net.cpp:151] Top shape: (1)
I0806 20:29:19.154803   221 net.cpp:154]     with loss weight 0.3
I0806 20:29:19.154827   221 net.cpp:159] Memory required for data: 2523170564
I0806 20:29:19.154836   221 layer_factory.hpp:77] Creating layer inception_4b/1x1
I0806 20:29:19.154852   221 net.cpp:94] Creating Layer inception_4b/1x1
I0806 20:29:19.154862   221 net.cpp:435] inception_4b/1x1 <- inception_4a/output_inception_4a/output_0_split_1
I0806 20:29:19.154875   221 net.cpp:409] inception_4b/1x1 -> inception_4b/1x1
I0806 20:29:19.155743   221 net.cpp:144] Setting up inception_4b/1x1
I0806 20:29:19.155778   221 net.cpp:151] Top shape: 64 160 14 14 (2007040)
I0806 20:29:19.155788   221 net.cpp:159] Memory required for data: 2531198724
I0806 20:29:19.155800   221 layer_factory.hpp:77] Creating layer inception_4b/relu_1x1
I0806 20:29:19.155812   221 net.cpp:94] Creating Layer inception_4b/relu_1x1
I0806 20:29:19.155822   221 net.cpp:435] inception_4b/relu_1x1 <- inception_4b/1x1
I0806 20:29:19.155833   221 net.cpp:396] inception_4b/relu_1x1 -> inception_4b/1x1 (in-place)
I0806 20:29:19.155846   221 net.cpp:144] Setting up inception_4b/relu_1x1
I0806 20:29:19.155856   221 net.cpp:151] Top shape: 64 160 14 14 (2007040)
I0806 20:29:19.155864   221 net.cpp:159] Memory required for data: 2539226884
I0806 20:29:19.155872   221 layer_factory.hpp:77] Creating layer inception_4b/3x3_reduce
I0806 20:29:19.155886   221 net.cpp:94] Creating Layer inception_4b/3x3_reduce
I0806 20:29:19.155895   221 net.cpp:435] inception_4b/3x3_reduce <- inception_4a/output_inception_4a/output_0_split_2
I0806 20:29:19.155906   221 net.cpp:409] inception_4b/3x3_reduce -> inception_4b/3x3_reduce
I0806 20:29:19.157188   221 net.cpp:144] Setting up inception_4b/3x3_reduce
I0806 20:29:19.157208   221 net.cpp:151] Top shape: 64 112 14 14 (1404928)
I0806 20:29:19.157217   221 net.cpp:159] Memory required for data: 2544846596
I0806 20:29:19.157228   221 layer_factory.hpp:77] Creating layer inception_4b/relu_3x3_reduce
I0806 20:29:19.157240   221 net.cpp:94] Creating Layer inception_4b/relu_3x3_reduce
I0806 20:29:19.157250   221 net.cpp:435] inception_4b/relu_3x3_reduce <- inception_4b/3x3_reduce
I0806 20:29:19.157263   221 net.cpp:396] inception_4b/relu_3x3_reduce -> inception_4b/3x3_reduce (in-place)
I0806 20:29:19.157276   221 net.cpp:144] Setting up inception_4b/relu_3x3_reduce
I0806 20:29:19.157286   221 net.cpp:151] Top shape: 64 112 14 14 (1404928)
I0806 20:29:19.157294   221 net.cpp:159] Memory required for data: 2550466308
I0806 20:29:19.157302   221 layer_factory.hpp:77] Creating layer inception_4b/3x3
I0806 20:29:19.157331   221 net.cpp:94] Creating Layer inception_4b/3x3
I0806 20:29:19.157341   221 net.cpp:435] inception_4b/3x3 <- inception_4b/3x3_reduce
I0806 20:29:19.157351   221 net.cpp:409] inception_4b/3x3 -> inception_4b/3x3
I0806 20:29:19.159471   221 net.cpp:144] Setting up inception_4b/3x3
I0806 20:29:19.159490   221 net.cpp:151] Top shape: 64 224 14 14 (2809856)
I0806 20:29:19.159499   221 net.cpp:159] Memory required for data: 2561705732
I0806 20:29:19.159512   221 layer_factory.hpp:77] Creating layer inception_4b/relu_3x3
I0806 20:29:19.159523   221 net.cpp:94] Creating Layer inception_4b/relu_3x3
I0806 20:29:19.159533   221 net.cpp:435] inception_4b/relu_3x3 <- inception_4b/3x3
I0806 20:29:19.159544   221 net.cpp:396] inception_4b/relu_3x3 -> inception_4b/3x3 (in-place)
I0806 20:29:19.159559   221 net.cpp:144] Setting up inception_4b/relu_3x3
I0806 20:29:19.159569   221 net.cpp:151] Top shape: 64 224 14 14 (2809856)
I0806 20:29:19.159576   221 net.cpp:159] Memory required for data: 2572945156
I0806 20:29:19.159584   221 layer_factory.hpp:77] Creating layer inception_4b/5x5_reduce
I0806 20:29:19.159600   221 net.cpp:94] Creating Layer inception_4b/5x5_reduce
I0806 20:29:19.159608   221 net.cpp:435] inception_4b/5x5_reduce <- inception_4a/output_inception_4a/output_0_split_3
I0806 20:29:19.159621   221 net.cpp:409] inception_4b/5x5_reduce -> inception_4b/5x5_reduce
I0806 20:29:19.159915   221 net.cpp:144] Setting up inception_4b/5x5_reduce
I0806 20:29:19.159929   221 net.cpp:151] Top shape: 64 24 14 14 (301056)
I0806 20:29:19.159938   221 net.cpp:159] Memory required for data: 2574149380
I0806 20:29:19.159950   221 layer_factory.hpp:77] Creating layer inception_4b/relu_5x5_reduce
I0806 20:29:19.159960   221 net.cpp:94] Creating Layer inception_4b/relu_5x5_reduce
I0806 20:29:19.159970   221 net.cpp:435] inception_4b/relu_5x5_reduce <- inception_4b/5x5_reduce
I0806 20:29:19.159981   221 net.cpp:396] inception_4b/relu_5x5_reduce -> inception_4b/5x5_reduce (in-place)
I0806 20:29:19.159992   221 net.cpp:144] Setting up inception_4b/relu_5x5_reduce
I0806 20:29:19.160017   221 net.cpp:151] Top shape: 64 24 14 14 (301056)
I0806 20:29:19.160025   221 net.cpp:159] Memory required for data: 2575353604
I0806 20:29:19.160033   221 layer_factory.hpp:77] Creating layer inception_4b/5x5
I0806 20:29:19.160048   221 net.cpp:94] Creating Layer inception_4b/5x5
I0806 20:29:19.160056   221 net.cpp:435] inception_4b/5x5 <- inception_4b/5x5_reduce
I0806 20:29:19.160076   221 net.cpp:409] inception_4b/5x5 -> inception_4b/5x5
I0806 20:29:19.160531   221 net.cpp:144] Setting up inception_4b/5x5
I0806 20:29:19.160544   221 net.cpp:151] Top shape: 64 64 14 14 (802816)
I0806 20:29:19.160552   221 net.cpp:159] Memory required for data: 2578564868
I0806 20:29:19.160564   221 layer_factory.hpp:77] Creating layer inception_4b/relu_5x5
I0806 20:29:19.160575   221 net.cpp:94] Creating Layer inception_4b/relu_5x5
I0806 20:29:19.160584   221 net.cpp:435] inception_4b/relu_5x5 <- inception_4b/5x5
I0806 20:29:19.160595   221 net.cpp:396] inception_4b/relu_5x5 -> inception_4b/5x5 (in-place)
I0806 20:29:19.160607   221 net.cpp:144] Setting up inception_4b/relu_5x5
I0806 20:29:19.160617   221 net.cpp:151] Top shape: 64 64 14 14 (802816)
I0806 20:29:19.160625   221 net.cpp:159] Memory required for data: 2581776132
I0806 20:29:19.160634   221 layer_factory.hpp:77] Creating layer inception_4b/pool
I0806 20:29:19.160645   221 net.cpp:94] Creating Layer inception_4b/pool
I0806 20:29:19.160653   221 net.cpp:435] inception_4b/pool <- inception_4a/output_inception_4a/output_0_split_4
I0806 20:29:19.160665   221 net.cpp:409] inception_4b/pool -> inception_4b/pool
I0806 20:29:19.160722   221 net.cpp:144] Setting up inception_4b/pool
I0806 20:29:19.160734   221 net.cpp:151] Top shape: 64 512 14 14 (6422528)
I0806 20:29:19.160742   221 net.cpp:159] Memory required for data: 2607466244
I0806 20:29:19.160750   221 layer_factory.hpp:77] Creating layer inception_4b/pool_proj
I0806 20:29:19.160764   221 net.cpp:94] Creating Layer inception_4b/pool_proj
I0806 20:29:19.160773   221 net.cpp:435] inception_4b/pool_proj <- inception_4b/pool
I0806 20:29:19.160785   221 net.cpp:409] inception_4b/pool_proj -> inception_4b/pool_proj
I0806 20:29:19.161181   221 net.cpp:144] Setting up inception_4b/pool_proj
I0806 20:29:19.161196   221 net.cpp:151] Top shape: 64 64 14 14 (802816)
I0806 20:29:19.161204   221 net.cpp:159] Memory required for data: 2610677508
I0806 20:29:19.161216   221 layer_factory.hpp:77] Creating layer inception_4b/relu_pool_proj
I0806 20:29:19.161226   221 net.cpp:94] Creating Layer inception_4b/relu_pool_proj
I0806 20:29:19.161236   221 net.cpp:435] inception_4b/relu_pool_proj <- inception_4b/pool_proj
I0806 20:29:19.161247   221 net.cpp:396] inception_4b/relu_pool_proj -> inception_4b/pool_proj (in-place)
I0806 20:29:19.161259   221 net.cpp:144] Setting up inception_4b/relu_pool_proj
I0806 20:29:19.161268   221 net.cpp:151] Top shape: 64 64 14 14 (802816)
I0806 20:29:19.161279   221 net.cpp:159] Memory required for data: 2613888772
I0806 20:29:19.161288   221 layer_factory.hpp:77] Creating layer inception_4b/output
I0806 20:29:19.161299   221 net.cpp:94] Creating Layer inception_4b/output
I0806 20:29:19.161309   221 net.cpp:435] inception_4b/output <- inception_4b/1x1
I0806 20:29:19.161317   221 net.cpp:435] inception_4b/output <- inception_4b/3x3
I0806 20:29:19.161327   221 net.cpp:435] inception_4b/output <- inception_4b/5x5
I0806 20:29:19.161351   221 net.cpp:435] inception_4b/output <- inception_4b/pool_proj
I0806 20:29:19.161362   221 net.cpp:409] inception_4b/output -> inception_4b/output
I0806 20:29:19.161425   221 net.cpp:144] Setting up inception_4b/output
I0806 20:29:19.161435   221 net.cpp:151] Top shape: 64 512 14 14 (6422528)
I0806 20:29:19.161443   221 net.cpp:159] Memory required for data: 2639578884
I0806 20:29:19.161450   221 layer_factory.hpp:77] Creating layer inception_4b/output_inception_4b/output_0_split
I0806 20:29:19.161461   221 net.cpp:94] Creating Layer inception_4b/output_inception_4b/output_0_split
I0806 20:29:19.161469   221 net.cpp:435] inception_4b/output_inception_4b/output_0_split <- inception_4b/output
I0806 20:29:19.161492   221 net.cpp:409] inception_4b/output_inception_4b/output_0_split -> inception_4b/output_inception_4b/output_0_split_0
I0806 20:29:19.161504   221 net.cpp:409] inception_4b/output_inception_4b/output_0_split -> inception_4b/output_inception_4b/output_0_split_1
I0806 20:29:19.161515   221 net.cpp:409] inception_4b/output_inception_4b/output_0_split -> inception_4b/output_inception_4b/output_0_split_2
I0806 20:29:19.161525   221 net.cpp:409] inception_4b/output_inception_4b/output_0_split -> inception_4b/output_inception_4b/output_0_split_3
I0806 20:29:19.161612   221 net.cpp:144] Setting up inception_4b/output_inception_4b/output_0_split
I0806 20:29:19.161623   221 net.cpp:151] Top shape: 64 512 14 14 (6422528)
I0806 20:29:19.161631   221 net.cpp:151] Top shape: 64 512 14 14 (6422528)
I0806 20:29:19.161640   221 net.cpp:151] Top shape: 64 512 14 14 (6422528)
I0806 20:29:19.161648   221 net.cpp:151] Top shape: 64 512 14 14 (6422528)
I0806 20:29:19.161655   221 net.cpp:159] Memory required for data: 2742339332
I0806 20:29:19.161664   221 layer_factory.hpp:77] Creating layer inception_4c/1x1
I0806 20:29:19.161675   221 net.cpp:94] Creating Layer inception_4c/1x1
I0806 20:29:19.161684   221 net.cpp:435] inception_4c/1x1 <- inception_4b/output_inception_4b/output_0_split_0
I0806 20:29:19.161695   221 net.cpp:409] inception_4c/1x1 -> inception_4c/1x1
I0806 20:29:19.162333   221 net.cpp:144] Setting up inception_4c/1x1
I0806 20:29:19.162348   221 net.cpp:151] Top shape: 64 128 14 14 (1605632)
I0806 20:29:19.162356   221 net.cpp:159] Memory required for data: 2748761860
I0806 20:29:19.162367   221 layer_factory.hpp:77] Creating layer inception_4c/relu_1x1
I0806 20:29:19.162395   221 net.cpp:94] Creating Layer inception_4c/relu_1x1
I0806 20:29:19.162403   221 net.cpp:435] inception_4c/relu_1x1 <- inception_4c/1x1
I0806 20:29:19.162415   221 net.cpp:396] inception_4c/relu_1x1 -> inception_4c/1x1 (in-place)
I0806 20:29:19.162426   221 net.cpp:144] Setting up inception_4c/relu_1x1
I0806 20:29:19.162451   221 net.cpp:151] Top shape: 64 128 14 14 (1605632)
I0806 20:29:19.162458   221 net.cpp:159] Memory required for data: 2755184388
I0806 20:29:19.162467   221 layer_factory.hpp:77] Creating layer inception_4c/3x3_reduce
I0806 20:29:19.162478   221 net.cpp:94] Creating Layer inception_4c/3x3_reduce
I0806 20:29:19.162487   221 net.cpp:435] inception_4c/3x3_reduce <- inception_4b/output_inception_4b/output_0_split_1
I0806 20:29:19.162513   221 net.cpp:409] inception_4c/3x3_reduce -> inception_4c/3x3_reduce
I0806 20:29:19.163128   221 net.cpp:144] Setting up inception_4c/3x3_reduce
I0806 20:29:19.163143   221 net.cpp:151] Top shape: 64 128 14 14 (1605632)
I0806 20:29:19.163151   221 net.cpp:159] Memory required for data: 2761606916
I0806 20:29:19.163162   221 layer_factory.hpp:77] Creating layer inception_4c/relu_3x3_reduce
I0806 20:29:19.163173   221 net.cpp:94] Creating Layer inception_4c/relu_3x3_reduce
I0806 20:29:19.163183   221 net.cpp:435] inception_4c/relu_3x3_reduce <- inception_4c/3x3_reduce
I0806 20:29:19.163194   221 net.cpp:396] inception_4c/relu_3x3_reduce -> inception_4c/3x3_reduce (in-place)
I0806 20:29:19.163206   221 net.cpp:144] Setting up inception_4c/relu_3x3_reduce
I0806 20:29:19.163215   221 net.cpp:151] Top shape: 64 128 14 14 (1605632)
I0806 20:29:19.163223   221 net.cpp:159] Memory required for data: 2768029444
I0806 20:29:19.163233   221 layer_factory.hpp:77] Creating layer inception_4c/3x3
I0806 20:29:19.163245   221 net.cpp:94] Creating Layer inception_4c/3x3
I0806 20:29:19.163254   221 net.cpp:435] inception_4c/3x3 <- inception_4c/3x3_reduce
I0806 20:29:19.163265   221 net.cpp:409] inception_4c/3x3 -> inception_4c/3x3
I0806 20:29:19.165990   221 net.cpp:144] Setting up inception_4c/3x3
I0806 20:29:19.166009   221 net.cpp:151] Top shape: 64 256 14 14 (3211264)
I0806 20:29:19.166033   221 net.cpp:159] Memory required for data: 2780874500
I0806 20:29:19.166077   221 layer_factory.hpp:77] Creating layer inception_4c/relu_3x3
I0806 20:29:19.166121   221 net.cpp:94] Creating Layer inception_4c/relu_3x3
I0806 20:29:19.166158   221 net.cpp:435] inception_4c/relu_3x3 <- inception_4c/3x3
I0806 20:29:19.166169   221 net.cpp:396] inception_4c/relu_3x3 -> inception_4c/3x3 (in-place)
I0806 20:29:19.166187   221 net.cpp:144] Setting up inception_4c/relu_3x3
I0806 20:29:19.166196   221 net.cpp:151] Top shape: 64 256 14 14 (3211264)
I0806 20:29:19.166204   221 net.cpp:159] Memory required for data: 2793719556
I0806 20:29:19.166213   221 layer_factory.hpp:77] Creating layer inception_4c/5x5_reduce
I0806 20:29:19.166226   221 net.cpp:94] Creating Layer inception_4c/5x5_reduce
I0806 20:29:19.166235   221 net.cpp:435] inception_4c/5x5_reduce <- inception_4b/output_inception_4b/output_0_split_2
I0806 20:29:19.166247   221 net.cpp:409] inception_4c/5x5_reduce -> inception_4c/5x5_reduce
I0806 20:29:19.166550   221 net.cpp:144] Setting up inception_4c/5x5_reduce
I0806 20:29:19.166565   221 net.cpp:151] Top shape: 64 24 14 14 (301056)
I0806 20:29:19.166589   221 net.cpp:159] Memory required for data: 2794923780
I0806 20:29:19.166599   221 layer_factory.hpp:77] Creating layer inception_4c/relu_5x5_reduce
I0806 20:29:19.166610   221 net.cpp:94] Creating Layer inception_4c/relu_5x5_reduce
I0806 20:29:19.166618   221 net.cpp:435] inception_4c/relu_5x5_reduce <- inception_4c/5x5_reduce
I0806 20:29:19.166630   221 net.cpp:396] inception_4c/relu_5x5_reduce -> inception_4c/5x5_reduce (in-place)
I0806 20:29:19.166656   221 net.cpp:144] Setting up inception_4c/relu_5x5_reduce
I0806 20:29:19.166664   221 net.cpp:151] Top shape: 64 24 14 14 (301056)
I0806 20:29:19.166687   221 net.cpp:159] Memory required for data: 2796128004
I0806 20:29:19.166694   221 layer_factory.hpp:77] Creating layer inception_4c/5x5
I0806 20:29:19.166707   221 net.cpp:94] Creating Layer inception_4c/5x5
I0806 20:29:19.166714   221 net.cpp:435] inception_4c/5x5 <- inception_4c/5x5_reduce
I0806 20:29:19.166725   221 net.cpp:409] inception_4c/5x5 -> inception_4c/5x5
I0806 20:29:19.167914   221 net.cpp:144] Setting up inception_4c/5x5
I0806 20:29:19.167933   221 net.cpp:151] Top shape: 64 64 14 14 (802816)
I0806 20:29:19.167942   221 net.cpp:159] Memory required for data: 2799339268
I0806 20:29:19.167953   221 layer_factory.hpp:77] Creating layer inception_4c/relu_5x5
I0806 20:29:19.167980   221 net.cpp:94] Creating Layer inception_4c/relu_5x5
I0806 20:29:19.167989   221 net.cpp:435] inception_4c/relu_5x5 <- inception_4c/5x5
I0806 20:29:19.168001   221 net.cpp:396] inception_4c/relu_5x5 -> inception_4c/5x5 (in-place)
I0806 20:29:19.168015   221 net.cpp:144] Setting up inception_4c/relu_5x5
I0806 20:29:19.168025   221 net.cpp:151] Top shape: 64 64 14 14 (802816)
I0806 20:29:19.168032   221 net.cpp:159] Memory required for data: 2802550532
I0806 20:29:19.168041   221 layer_factory.hpp:77] Creating layer inception_4c/pool
I0806 20:29:19.168053   221 net.cpp:94] Creating Layer inception_4c/pool
I0806 20:29:19.168071   221 net.cpp:435] inception_4c/pool <- inception_4b/output_inception_4b/output_0_split_3
I0806 20:29:19.168085   221 net.cpp:409] inception_4c/pool -> inception_4c/pool
I0806 20:29:19.168135   221 net.cpp:144] Setting up inception_4c/pool
I0806 20:29:19.168148   221 net.cpp:151] Top shape: 64 512 14 14 (6422528)
I0806 20:29:19.168155   221 net.cpp:159] Memory required for data: 2828240644
I0806 20:29:19.168164   221 layer_factory.hpp:77] Creating layer inception_4c/pool_proj
I0806 20:29:19.168179   221 net.cpp:94] Creating Layer inception_4c/pool_proj
I0806 20:29:19.168187   221 net.cpp:435] inception_4c/pool_proj <- inception_4c/pool
I0806 20:29:19.168200   221 net.cpp:409] inception_4c/pool_proj -> inception_4c/pool_proj
I0806 20:29:19.168613   221 net.cpp:144] Setting up inception_4c/pool_proj
I0806 20:29:19.168642   221 net.cpp:151] Top shape: 64 64 14 14 (802816)
I0806 20:29:19.168650   221 net.cpp:159] Memory required for data: 2831451908
I0806 20:29:19.168661   221 layer_factory.hpp:77] Creating layer inception_4c/relu_pool_proj
I0806 20:29:19.168671   221 net.cpp:94] Creating Layer inception_4c/relu_pool_proj
I0806 20:29:19.168695   221 net.cpp:435] inception_4c/relu_pool_proj <- inception_4c/pool_proj
I0806 20:29:19.168707   221 net.cpp:396] inception_4c/relu_pool_proj -> inception_4c/pool_proj (in-place)
I0806 20:29:19.168735   221 net.cpp:144] Setting up inception_4c/relu_pool_proj
I0806 20:29:19.168743   221 net.cpp:151] Top shape: 64 64 14 14 (802816)
I0806 20:29:19.168752   221 net.cpp:159] Memory required for data: 2834663172
I0806 20:29:19.168761   221 layer_factory.hpp:77] Creating layer inception_4c/output
I0806 20:29:19.168771   221 net.cpp:94] Creating Layer inception_4c/output
I0806 20:29:19.168781   221 net.cpp:435] inception_4c/output <- inception_4c/1x1
I0806 20:29:19.168789   221 net.cpp:435] inception_4c/output <- inception_4c/3x3
I0806 20:29:19.168799   221 net.cpp:435] inception_4c/output <- inception_4c/5x5
I0806 20:29:19.168808   221 net.cpp:435] inception_4c/output <- inception_4c/pool_proj
I0806 20:29:19.168819   221 net.cpp:409] inception_4c/output -> inception_4c/output
I0806 20:29:19.168854   221 net.cpp:144] Setting up inception_4c/output
I0806 20:29:19.168865   221 net.cpp:151] Top shape: 64 512 14 14 (6422528)
I0806 20:29:19.168874   221 net.cpp:159] Memory required for data: 2860353284
I0806 20:29:19.168882   221 layer_factory.hpp:77] Creating layer inception_4c/output_inception_4c/output_0_split
I0806 20:29:19.168895   221 net.cpp:94] Creating Layer inception_4c/output_inception_4c/output_0_split
I0806 20:29:19.168903   221 net.cpp:435] inception_4c/output_inception_4c/output_0_split <- inception_4c/output
I0806 20:29:19.168915   221 net.cpp:409] inception_4c/output_inception_4c/output_0_split -> inception_4c/output_inception_4c/output_0_split_0
I0806 20:29:19.168927   221 net.cpp:409] inception_4c/output_inception_4c/output_0_split -> inception_4c/output_inception_4c/output_0_split_1
I0806 20:29:19.168939   221 net.cpp:409] inception_4c/output_inception_4c/output_0_split -> inception_4c/output_inception_4c/output_0_split_2
I0806 20:29:19.168951   221 net.cpp:409] inception_4c/output_inception_4c/output_0_split -> inception_4c/output_inception_4c/output_0_split_3
I0806 20:29:19.169011   221 net.cpp:144] Setting up inception_4c/output_inception_4c/output_0_split
I0806 20:29:19.169023   221 net.cpp:151] Top shape: 64 512 14 14 (6422528)
I0806 20:29:19.169032   221 net.cpp:151] Top shape: 64 512 14 14 (6422528)
I0806 20:29:19.169041   221 net.cpp:151] Top shape: 64 512 14 14 (6422528)
I0806 20:29:19.169050   221 net.cpp:151] Top shape: 64 512 14 14 (6422528)
I0806 20:29:19.169059   221 net.cpp:159] Memory required for data: 2963113732
I0806 20:29:19.169075   221 layer_factory.hpp:77] Creating layer inception_4d/1x1
I0806 20:29:19.169090   221 net.cpp:94] Creating Layer inception_4d/1x1
I0806 20:29:19.169098   221 net.cpp:435] inception_4d/1x1 <- inception_4c/output_inception_4c/output_0_split_0
I0806 20:29:19.169112   221 net.cpp:409] inception_4d/1x1 -> inception_4d/1x1
I0806 20:29:19.169713   221 net.cpp:144] Setting up inception_4d/1x1
I0806 20:29:19.169726   221 net.cpp:151] Top shape: 64 112 14 14 (1404928)
I0806 20:29:19.169734   221 net.cpp:159] Memory required for data: 2968733444
I0806 20:29:19.169745   221 layer_factory.hpp:77] Creating layer inception_4d/relu_1x1
I0806 20:29:19.169755   221 net.cpp:94] Creating Layer inception_4d/relu_1x1
I0806 20:29:19.169764   221 net.cpp:435] inception_4d/relu_1x1 <- inception_4d/1x1
I0806 20:29:19.169775   221 net.cpp:396] inception_4d/relu_1x1 -> inception_4d/1x1 (in-place)
I0806 20:29:19.169800   221 net.cpp:144] Setting up inception_4d/relu_1x1
I0806 20:29:19.169824   221 net.cpp:151] Top shape: 64 112 14 14 (1404928)
I0806 20:29:19.169831   221 net.cpp:159] Memory required for data: 2974353156
I0806 20:29:19.169854   221 layer_factory.hpp:77] Creating layer inception_4d/3x3_reduce
I0806 20:29:19.169867   221 net.cpp:94] Creating Layer inception_4d/3x3_reduce
I0806 20:29:19.169876   221 net.cpp:435] inception_4d/3x3_reduce <- inception_4c/output_inception_4c/output_0_split_1
I0806 20:29:19.169888   221 net.cpp:409] inception_4d/3x3_reduce -> inception_4d/3x3_reduce
I0806 20:29:19.170634   221 net.cpp:144] Setting up inception_4d/3x3_reduce
I0806 20:29:19.170650   221 net.cpp:151] Top shape: 64 144 14 14 (1806336)
I0806 20:29:19.170657   221 net.cpp:159] Memory required for data: 2981578500
I0806 20:29:19.170683   221 layer_factory.hpp:77] Creating layer inception_4d/relu_3x3_reduce
I0806 20:29:19.170711   221 net.cpp:94] Creating Layer inception_4d/relu_3x3_reduce
I0806 20:29:19.170719   221 net.cpp:435] inception_4d/relu_3x3_reduce <- inception_4d/3x3_reduce
I0806 20:29:19.170732   221 net.cpp:396] inception_4d/relu_3x3_reduce -> inception_4d/3x3_reduce (in-place)
I0806 20:29:19.170743   221 net.cpp:144] Setting up inception_4d/relu_3x3_reduce
I0806 20:29:19.170753   221 net.cpp:151] Top shape: 64 144 14 14 (1806336)
I0806 20:29:19.170761   221 net.cpp:159] Memory required for data: 2988803844
I0806 20:29:19.170769   221 layer_factory.hpp:77] Creating layer inception_4d/3x3
I0806 20:29:19.170783   221 net.cpp:94] Creating Layer inception_4d/3x3
I0806 20:29:19.170790   221 net.cpp:435] inception_4d/3x3 <- inception_4d/3x3_reduce
I0806 20:29:19.170802   221 net.cpp:409] inception_4d/3x3 -> inception_4d/3x3
I0806 20:29:19.174134   221 net.cpp:144] Setting up inception_4d/3x3
I0806 20:29:19.174154   221 net.cpp:151] Top shape: 64 288 14 14 (3612672)
I0806 20:29:19.174161   221 net.cpp:159] Memory required for data: 3003254532
I0806 20:29:19.174173   221 layer_factory.hpp:77] Creating layer inception_4d/relu_3x3
I0806 20:29:19.174185   221 net.cpp:94] Creating Layer inception_4d/relu_3x3
I0806 20:29:19.174196   221 net.cpp:435] inception_4d/relu_3x3 <- inception_4d/3x3
I0806 20:29:19.174206   221 net.cpp:396] inception_4d/relu_3x3 -> inception_4d/3x3 (in-place)
I0806 20:29:19.174221   221 net.cpp:144] Setting up inception_4d/relu_3x3
I0806 20:29:19.174230   221 net.cpp:151] Top shape: 64 288 14 14 (3612672)
I0806 20:29:19.174238   221 net.cpp:159] Memory required for data: 3017705220
I0806 20:29:19.174249   221 layer_factory.hpp:77] Creating layer inception_4d/5x5_reduce
I0806 20:29:19.174263   221 net.cpp:94] Creating Layer inception_4d/5x5_reduce
I0806 20:29:19.174273   221 net.cpp:435] inception_4d/5x5_reduce <- inception_4c/output_inception_4c/output_0_split_2
I0806 20:29:19.174284   221 net.cpp:409] inception_4d/5x5_reduce -> inception_4d/5x5_reduce
I0806 20:29:19.174623   221 net.cpp:144] Setting up inception_4d/5x5_reduce
I0806 20:29:19.174638   221 net.cpp:151] Top shape: 64 32 14 14 (401408)
I0806 20:29:19.174645   221 net.cpp:159] Memory required for data: 3019310852
I0806 20:29:19.174656   221 layer_factory.hpp:77] Creating layer inception_4d/relu_5x5_reduce
I0806 20:29:19.174681   221 net.cpp:94] Creating Layer inception_4d/relu_5x5_reduce
I0806 20:29:19.174691   221 net.cpp:435] inception_4d/relu_5x5_reduce <- inception_4d/5x5_reduce
I0806 20:29:19.174702   221 net.cpp:396] inception_4d/relu_5x5_reduce -> inception_4d/5x5_reduce (in-place)
I0806 20:29:19.174715   221 net.cpp:144] Setting up inception_4d/relu_5x5_reduce
I0806 20:29:19.174724   221 net.cpp:151] Top shape: 64 32 14 14 (401408)
I0806 20:29:19.174732   221 net.cpp:159] Memory required for data: 3020916484
I0806 20:29:19.174741   221 layer_factory.hpp:77] Creating layer inception_4d/5x5
I0806 20:29:19.174753   221 net.cpp:94] Creating Layer inception_4d/5x5
I0806 20:29:19.174762   221 net.cpp:435] inception_4d/5x5 <- inception_4d/5x5_reduce
I0806 20:29:19.174774   221 net.cpp:409] inception_4d/5x5 -> inception_4d/5x5
I0806 20:29:19.175292   221 net.cpp:144] Setting up inception_4d/5x5
I0806 20:29:19.175307   221 net.cpp:151] Top shape: 64 64 14 14 (802816)
I0806 20:29:19.175314   221 net.cpp:159] Memory required for data: 3024127748
I0806 20:29:19.175325   221 layer_factory.hpp:77] Creating layer inception_4d/relu_5x5
I0806 20:29:19.175338   221 net.cpp:94] Creating Layer inception_4d/relu_5x5
I0806 20:29:19.175346   221 net.cpp:435] inception_4d/relu_5x5 <- inception_4d/5x5
I0806 20:29:19.175357   221 net.cpp:396] inception_4d/relu_5x5 -> inception_4d/5x5 (in-place)
I0806 20:29:19.175384   221 net.cpp:144] Setting up inception_4d/relu_5x5
I0806 20:29:19.175413   221 net.cpp:151] Top shape: 64 64 14 14 (802816)
I0806 20:29:19.175421   221 net.cpp:159] Memory required for data: 3027339012
I0806 20:29:19.175429   221 layer_factory.hpp:77] Creating layer inception_4d/pool
I0806 20:29:19.175441   221 net.cpp:94] Creating Layer inception_4d/pool
I0806 20:29:19.175451   221 net.cpp:435] inception_4d/pool <- inception_4c/output_inception_4c/output_0_split_3
I0806 20:29:19.175462   221 net.cpp:409] inception_4d/pool -> inception_4d/pool
I0806 20:29:19.175513   221 net.cpp:144] Setting up inception_4d/pool
I0806 20:29:19.175525   221 net.cpp:151] Top shape: 64 512 14 14 (6422528)
I0806 20:29:19.175534   221 net.cpp:159] Memory required for data: 3053029124
I0806 20:29:19.175541   221 layer_factory.hpp:77] Creating layer inception_4d/pool_proj
I0806 20:29:19.175556   221 net.cpp:94] Creating Layer inception_4d/pool_proj
I0806 20:29:19.175565   221 net.cpp:435] inception_4d/pool_proj <- inception_4d/pool
I0806 20:29:19.175577   221 net.cpp:409] inception_4d/pool_proj -> inception_4d/pool_proj
I0806 20:29:19.176007   221 net.cpp:144] Setting up inception_4d/pool_proj
I0806 20:29:19.176021   221 net.cpp:151] Top shape: 64 64 14 14 (802816)
I0806 20:29:19.176029   221 net.cpp:159] Memory required for data: 3056240388
I0806 20:29:19.176041   221 layer_factory.hpp:77] Creating layer inception_4d/relu_pool_proj
I0806 20:29:19.176051   221 net.cpp:94] Creating Layer inception_4d/relu_pool_proj
I0806 20:29:19.176061   221 net.cpp:435] inception_4d/relu_pool_proj <- inception_4d/pool_proj
I0806 20:29:19.176080   221 net.cpp:396] inception_4d/relu_pool_proj -> inception_4d/pool_proj (in-place)
I0806 20:29:19.176092   221 net.cpp:144] Setting up inception_4d/relu_pool_proj
I0806 20:29:19.176102   221 net.cpp:151] Top shape: 64 64 14 14 (802816)
I0806 20:29:19.176110   221 net.cpp:159] Memory required for data: 3059451652
I0806 20:29:19.176118   221 layer_factory.hpp:77] Creating layer inception_4d/output
I0806 20:29:19.176128   221 net.cpp:94] Creating Layer inception_4d/output
I0806 20:29:19.176137   221 net.cpp:435] inception_4d/output <- inception_4d/1x1
I0806 20:29:19.176147   221 net.cpp:435] inception_4d/output <- inception_4d/3x3
I0806 20:29:19.176156   221 net.cpp:435] inception_4d/output <- inception_4d/5x5
I0806 20:29:19.176165   221 net.cpp:435] inception_4d/output <- inception_4d/pool_proj
I0806 20:29:19.176177   221 net.cpp:409] inception_4d/output -> inception_4d/output
I0806 20:29:19.176216   221 net.cpp:144] Setting up inception_4d/output
I0806 20:29:19.176229   221 net.cpp:151] Top shape: 64 528 14 14 (6623232)
I0806 20:29:19.176236   221 net.cpp:159] Memory required for data: 3085944580
I0806 20:29:19.176244   221 layer_factory.hpp:77] Creating layer inception_4d/output_inception_4d/output_0_split
I0806 20:29:19.176257   221 net.cpp:94] Creating Layer inception_4d/output_inception_4d/output_0_split
I0806 20:29:19.176281   221 net.cpp:435] inception_4d/output_inception_4d/output_0_split <- inception_4d/output
I0806 20:29:19.176295   221 net.cpp:409] inception_4d/output_inception_4d/output_0_split -> inception_4d/output_inception_4d/output_0_split_0
I0806 20:29:19.176307   221 net.cpp:409] inception_4d/output_inception_4d/output_0_split -> inception_4d/output_inception_4d/output_0_split_1
I0806 20:29:19.176319   221 net.cpp:409] inception_4d/output_inception_4d/output_0_split -> inception_4d/output_inception_4d/output_0_split_2
I0806 20:29:19.176331   221 net.cpp:409] inception_4d/output_inception_4d/output_0_split -> inception_4d/output_inception_4d/output_0_split_3
I0806 20:29:19.176342   221 net.cpp:409] inception_4d/output_inception_4d/output_0_split -> inception_4d/output_inception_4d/output_0_split_4
I0806 20:29:19.176434   221 net.cpp:144] Setting up inception_4d/output_inception_4d/output_0_split
I0806 20:29:19.176445   221 net.cpp:151] Top shape: 64 528 14 14 (6623232)
I0806 20:29:19.176455   221 net.cpp:151] Top shape: 64 528 14 14 (6623232)
I0806 20:29:19.176465   221 net.cpp:151] Top shape: 64 528 14 14 (6623232)
I0806 20:29:19.176486   221 net.cpp:151] Top shape: 64 528 14 14 (6623232)
I0806 20:29:19.176496   221 net.cpp:151] Top shape: 64 528 14 14 (6623232)
I0806 20:29:19.176503   221 net.cpp:159] Memory required for data: 3218409220
I0806 20:29:19.176512   221 layer_factory.hpp:77] Creating layer loss2/ave_pool
I0806 20:29:19.176527   221 net.cpp:94] Creating Layer loss2/ave_pool
I0806 20:29:19.176535   221 net.cpp:435] loss2/ave_pool <- inception_4d/output_inception_4d/output_0_split_0
I0806 20:29:19.176546   221 net.cpp:409] loss2/ave_pool -> loss2/ave_pool
I0806 20:29:19.176585   221 net.cpp:144] Setting up loss2/ave_pool
I0806 20:29:19.176597   221 net.cpp:151] Top shape: 64 528 4 4 (540672)
I0806 20:29:19.176605   221 net.cpp:159] Memory required for data: 3220571908
I0806 20:29:19.176614   221 layer_factory.hpp:77] Creating layer loss2/conv
I0806 20:29:19.176631   221 net.cpp:94] Creating Layer loss2/conv
I0806 20:29:19.176640   221 net.cpp:435] loss2/conv <- loss2/ave_pool
I0806 20:29:19.176654   221 net.cpp:409] loss2/conv -> loss2/conv
I0806 20:29:19.177881   221 net.cpp:144] Setting up loss2/conv
I0806 20:29:19.177899   221 net.cpp:151] Top shape: 64 128 4 4 (131072)
I0806 20:29:19.177907   221 net.cpp:159] Memory required for data: 3221096196
I0806 20:29:19.177920   221 layer_factory.hpp:77] Creating layer loss2/relu_conv
I0806 20:29:19.177932   221 net.cpp:94] Creating Layer loss2/relu_conv
I0806 20:29:19.177942   221 net.cpp:435] loss2/relu_conv <- loss2/conv
I0806 20:29:19.177953   221 net.cpp:396] loss2/relu_conv -> loss2/conv (in-place)
I0806 20:29:19.177965   221 net.cpp:144] Setting up loss2/relu_conv
I0806 20:29:19.177975   221 net.cpp:151] Top shape: 64 128 4 4 (131072)
I0806 20:29:19.177983   221 net.cpp:159] Memory required for data: 3221620484
I0806 20:29:19.177991   221 layer_factory.hpp:77] Creating layer loss2/fc
I0806 20:29:19.178005   221 net.cpp:94] Creating Layer loss2/fc
I0806 20:29:19.178014   221 net.cpp:435] loss2/fc <- loss2/conv
I0806 20:29:19.178025   221 net.cpp:409] loss2/fc -> loss2/fc
I0806 20:29:19.193650   221 net.cpp:144] Setting up loss2/fc
I0806 20:29:19.193670   221 net.cpp:151] Top shape: 64 1024 (65536)
I0806 20:29:19.193678   221 net.cpp:159] Memory required for data: 3221882628
I0806 20:29:19.193691   221 layer_factory.hpp:77] Creating layer loss2/relu_fc
I0806 20:29:19.193706   221 net.cpp:94] Creating Layer loss2/relu_fc
I0806 20:29:19.193714   221 net.cpp:435] loss2/relu_fc <- loss2/fc
I0806 20:29:19.193725   221 net.cpp:396] loss2/relu_fc -> loss2/fc (in-place)
I0806 20:29:19.193739   221 net.cpp:144] Setting up loss2/relu_fc
I0806 20:29:19.193749   221 net.cpp:151] Top shape: 64 1024 (65536)
I0806 20:29:19.193758   221 net.cpp:159] Memory required for data: 3222144772
I0806 20:29:19.193765   221 layer_factory.hpp:77] Creating layer loss2/drop_fc
I0806 20:29:19.193778   221 net.cpp:94] Creating Layer loss2/drop_fc
I0806 20:29:19.193785   221 net.cpp:435] loss2/drop_fc <- loss2/fc
I0806 20:29:19.193799   221 net.cpp:396] loss2/drop_fc -> loss2/fc (in-place)
I0806 20:29:19.193836   221 net.cpp:144] Setting up loss2/drop_fc
I0806 20:29:19.193847   221 net.cpp:151] Top shape: 64 1024 (65536)
I0806 20:29:19.193856   221 net.cpp:159] Memory required for data: 3222406916
I0806 20:29:19.193863   221 layer_factory.hpp:77] Creating layer loss2/classifier
I0806 20:29:19.193876   221 net.cpp:94] Creating Layer loss2/classifier
I0806 20:29:19.193884   221 net.cpp:435] loss2/classifier <- loss2/fc
I0806 20:29:19.193898   221 net.cpp:409] loss2/classifier -> loss2/classifier
I0806 20:29:19.194030   221 net.cpp:144] Setting up loss2/classifier
I0806 20:29:19.194041   221 net.cpp:151] Top shape: 64 3 (192)
I0806 20:29:19.194049   221 net.cpp:159] Memory required for data: 3222407684
I0806 20:29:19.194061   221 layer_factory.hpp:77] Creating layer loss2/loss
I0806 20:29:19.194090   221 net.cpp:94] Creating Layer loss2/loss
I0806 20:29:19.194099   221 net.cpp:435] loss2/loss <- loss2/classifier
I0806 20:29:19.194109   221 net.cpp:435] loss2/loss <- label_train-data_1_split_1
I0806 20:29:19.194140   221 net.cpp:409] loss2/loss -> loss2/loss
I0806 20:29:19.194154   221 layer_factory.hpp:77] Creating layer loss2/loss
I0806 20:29:19.194269   221 net.cpp:144] Setting up loss2/loss
I0806 20:29:19.194281   221 net.cpp:151] Top shape: (1)
I0806 20:29:19.194289   221 net.cpp:154]     with loss weight 0.3
I0806 20:29:19.194304   221 net.cpp:159] Memory required for data: 3222407688
I0806 20:29:19.194313   221 layer_factory.hpp:77] Creating layer inception_4e/1x1
I0806 20:29:19.194331   221 net.cpp:94] Creating Layer inception_4e/1x1
I0806 20:29:19.194340   221 net.cpp:435] inception_4e/1x1 <- inception_4d/output_inception_4d/output_0_split_1
I0806 20:29:19.194352   221 net.cpp:409] inception_4e/1x1 -> inception_4e/1x1
I0806 20:29:19.195324   221 net.cpp:144] Setting up inception_4e/1x1
I0806 20:29:19.195343   221 net.cpp:151] Top shape: 64 256 14 14 (3211264)
I0806 20:29:19.195350   221 net.cpp:159] Memory required for data: 3235252744
I0806 20:29:19.195363   221 layer_factory.hpp:77] Creating layer inception_4e/relu_1x1
I0806 20:29:19.195374   221 net.cpp:94] Creating Layer inception_4e/relu_1x1
I0806 20:29:19.195382   221 net.cpp:435] inception_4e/relu_1x1 <- inception_4e/1x1
I0806 20:29:19.195418   221 net.cpp:396] inception_4e/relu_1x1 -> inception_4e/1x1 (in-place)
I0806 20:29:19.195433   221 net.cpp:144] Setting up inception_4e/relu_1x1
I0806 20:29:19.195443   221 net.cpp:151] Top shape: 64 256 14 14 (3211264)
I0806 20:29:19.195451   221 net.cpp:159] Memory required for data: 3248097800
I0806 20:29:19.195461   221 layer_factory.hpp:77] Creating layer inception_4e/3x3_reduce
I0806 20:29:19.195477   221 net.cpp:94] Creating Layer inception_4e/3x3_reduce
I0806 20:29:19.195485   221 net.cpp:435] inception_4e/3x3_reduce <- inception_4d/output_inception_4d/output_0_split_2
I0806 20:29:19.195500   221 net.cpp:409] inception_4e/3x3_reduce -> inception_4e/3x3_reduce
I0806 20:29:19.199704   221 net.cpp:144] Setting up inception_4e/3x3_reduce
I0806 20:29:19.199723   221 net.cpp:151] Top shape: 64 160 14 14 (2007040)
I0806 20:29:19.199731   221 net.cpp:159] Memory required for data: 3256125960
I0806 20:29:19.199744   221 layer_factory.hpp:77] Creating layer inception_4e/relu_3x3_reduce
I0806 20:29:19.199759   221 net.cpp:94] Creating Layer inception_4e/relu_3x3_reduce
I0806 20:29:19.199769   221 net.cpp:435] inception_4e/relu_3x3_reduce <- inception_4e/3x3_reduce
I0806 20:29:19.199779   221 net.cpp:396] inception_4e/relu_3x3_reduce -> inception_4e/3x3_reduce (in-place)
I0806 20:29:19.199793   221 net.cpp:144] Setting up inception_4e/relu_3x3_reduce
I0806 20:29:19.199806   221 net.cpp:151] Top shape: 64 160 14 14 (2007040)
I0806 20:29:19.199815   221 net.cpp:159] Memory required for data: 3264154120
I0806 20:29:19.199823   221 layer_factory.hpp:77] Creating layer inception_4e/3x3
I0806 20:29:19.199836   221 net.cpp:94] Creating Layer inception_4e/3x3
I0806 20:29:19.199846   221 net.cpp:435] inception_4e/3x3 <- inception_4e/3x3_reduce
I0806 20:29:19.199859   221 net.cpp:409] inception_4e/3x3 -> inception_4e/3x3
I0806 20:29:19.203842   221 net.cpp:144] Setting up inception_4e/3x3
I0806 20:29:19.203863   221 net.cpp:151] Top shape: 64 320 14 14 (4014080)
I0806 20:29:19.203872   221 net.cpp:159] Memory required for data: 3280210440
I0806 20:29:19.203883   221 layer_factory.hpp:77] Creating layer inception_4e/relu_3x3
I0806 20:29:19.203896   221 net.cpp:94] Creating Layer inception_4e/relu_3x3
I0806 20:29:19.203905   221 net.cpp:435] inception_4e/relu_3x3 <- inception_4e/3x3
I0806 20:29:19.203915   221 net.cpp:396] inception_4e/relu_3x3 -> inception_4e/3x3 (in-place)
I0806 20:29:19.203944   221 net.cpp:144] Setting up inception_4e/relu_3x3
I0806 20:29:19.203954   221 net.cpp:151] Top shape: 64 320 14 14 (4014080)
I0806 20:29:19.203963   221 net.cpp:159] Memory required for data: 3296266760
I0806 20:29:19.203970   221 layer_factory.hpp:77] Creating layer inception_4e/5x5_reduce
I0806 20:29:19.203987   221 net.cpp:94] Creating Layer inception_4e/5x5_reduce
I0806 20:29:19.203996   221 net.cpp:435] inception_4e/5x5_reduce <- inception_4d/output_inception_4d/output_0_split_3
I0806 20:29:19.204026   221 net.cpp:409] inception_4e/5x5_reduce -> inception_4e/5x5_reduce
I0806 20:29:19.204408   221 net.cpp:144] Setting up inception_4e/5x5_reduce
I0806 20:29:19.204423   221 net.cpp:151] Top shape: 64 32 14 14 (401408)
I0806 20:29:19.204432   221 net.cpp:159] Memory required for data: 3297872392
I0806 20:29:19.204442   221 layer_factory.hpp:77] Creating layer inception_4e/relu_5x5_reduce
I0806 20:29:19.204453   221 net.cpp:94] Creating Layer inception_4e/relu_5x5_reduce
I0806 20:29:19.204463   221 net.cpp:435] inception_4e/relu_5x5_reduce <- inception_4e/5x5_reduce
I0806 20:29:19.204476   221 net.cpp:396] inception_4e/relu_5x5_reduce -> inception_4e/5x5_reduce (in-place)
I0806 20:29:19.204488   221 net.cpp:144] Setting up inception_4e/relu_5x5_reduce
I0806 20:29:19.204499   221 net.cpp:151] Top shape: 64 32 14 14 (401408)
I0806 20:29:19.204506   221 net.cpp:159] Memory required for data: 3299478024
I0806 20:29:19.204515   221 layer_factory.hpp:77] Creating layer inception_4e/5x5
I0806 20:29:19.204566   221 net.cpp:94] Creating Layer inception_4e/5x5
I0806 20:29:19.204576   221 net.cpp:435] inception_4e/5x5 <- inception_4e/5x5_reduce
I0806 20:29:19.204586   221 net.cpp:409] inception_4e/5x5 -> inception_4e/5x5
I0806 20:29:19.205456   221 net.cpp:144] Setting up inception_4e/5x5
I0806 20:29:19.205469   221 net.cpp:151] Top shape: 64 128 14 14 (1605632)
I0806 20:29:19.205476   221 net.cpp:159] Memory required for data: 3305900552
I0806 20:29:19.205487   221 layer_factory.hpp:77] Creating layer inception_4e/relu_5x5
I0806 20:29:19.205497   221 net.cpp:94] Creating Layer inception_4e/relu_5x5
I0806 20:29:19.205507   221 net.cpp:435] inception_4e/relu_5x5 <- inception_4e/5x5
I0806 20:29:19.205515   221 net.cpp:396] inception_4e/relu_5x5 -> inception_4e/5x5 (in-place)
I0806 20:29:19.205528   221 net.cpp:144] Setting up inception_4e/relu_5x5
I0806 20:29:19.205535   221 net.cpp:151] Top shape: 64 128 14 14 (1605632)
I0806 20:29:19.205543   221 net.cpp:159] Memory required for data: 3312323080
I0806 20:29:19.205550   221 layer_factory.hpp:77] Creating layer inception_4e/pool
I0806 20:29:19.205560   221 net.cpp:94] Creating Layer inception_4e/pool
I0806 20:29:19.205569   221 net.cpp:435] inception_4e/pool <- inception_4d/output_inception_4d/output_0_split_4
I0806 20:29:19.205596   221 net.cpp:409] inception_4e/pool -> inception_4e/pool
I0806 20:29:19.205677   221 net.cpp:144] Setting up inception_4e/pool
I0806 20:29:19.205688   221 net.cpp:151] Top shape: 64 528 14 14 (6623232)
I0806 20:29:19.205696   221 net.cpp:159] Memory required for data: 3338816008
I0806 20:29:19.205705   221 layer_factory.hpp:77] Creating layer inception_4e/pool_proj
I0806 20:29:19.205721   221 net.cpp:94] Creating Layer inception_4e/pool_proj
I0806 20:29:19.205730   221 net.cpp:435] inception_4e/pool_proj <- inception_4e/pool
I0806 20:29:19.205744   221 net.cpp:409] inception_4e/pool_proj -> inception_4e/pool_proj
I0806 20:29:19.206382   221 net.cpp:144] Setting up inception_4e/pool_proj
I0806 20:29:19.206396   221 net.cpp:151] Top shape: 64 128 14 14 (1605632)
I0806 20:29:19.206404   221 net.cpp:159] Memory required for data: 3345238536
I0806 20:29:19.206415   221 layer_factory.hpp:77] Creating layer inception_4e/relu_pool_proj
I0806 20:29:19.206429   221 net.cpp:94] Creating Layer inception_4e/relu_pool_proj
I0806 20:29:19.206439   221 net.cpp:435] inception_4e/relu_pool_proj <- inception_4e/pool_proj
I0806 20:29:19.206449   221 net.cpp:396] inception_4e/relu_pool_proj -> inception_4e/pool_proj (in-place)
I0806 20:29:19.206461   221 net.cpp:144] Setting up inception_4e/relu_pool_proj
I0806 20:29:19.206471   221 net.cpp:151] Top shape: 64 128 14 14 (1605632)
I0806 20:29:19.206480   221 net.cpp:159] Memory required for data: 3351661064
I0806 20:29:19.206487   221 layer_factory.hpp:77] Creating layer inception_4e/output
I0806 20:29:19.206497   221 net.cpp:94] Creating Layer inception_4e/output
I0806 20:29:19.206506   221 net.cpp:435] inception_4e/output <- inception_4e/1x1
I0806 20:29:19.206527   221 net.cpp:435] inception_4e/output <- inception_4e/3x3
I0806 20:29:19.206537   221 net.cpp:435] inception_4e/output <- inception_4e/5x5
I0806 20:29:19.206547   221 net.cpp:435] inception_4e/output <- inception_4e/pool_proj
I0806 20:29:19.206560   221 net.cpp:409] inception_4e/output -> inception_4e/output
I0806 20:29:19.206599   221 net.cpp:144] Setting up inception_4e/output
I0806 20:29:19.206611   221 net.cpp:151] Top shape: 64 832 14 14 (10436608)
I0806 20:29:19.206619   221 net.cpp:159] Memory required for data: 3393407496
I0806 20:29:19.206629   221 layer_factory.hpp:77] Creating layer pool4/3x3_s2
I0806 20:29:19.206638   221 net.cpp:94] Creating Layer pool4/3x3_s2
I0806 20:29:19.206647   221 net.cpp:435] pool4/3x3_s2 <- inception_4e/output
I0806 20:29:19.206661   221 net.cpp:409] pool4/3x3_s2 -> pool4/3x3_s2
I0806 20:29:19.206707   221 net.cpp:144] Setting up pool4/3x3_s2
I0806 20:29:19.206722   221 net.cpp:151] Top shape: 64 832 7 7 (2609152)
I0806 20:29:19.206729   221 net.cpp:159] Memory required for data: 3403844104
I0806 20:29:19.206738   221 layer_factory.hpp:77] Creating layer pool4/3x3_s2_pool4/3x3_s2_0_split
I0806 20:29:19.206764   221 net.cpp:94] Creating Layer pool4/3x3_s2_pool4/3x3_s2_0_split
I0806 20:29:19.206773   221 net.cpp:435] pool4/3x3_s2_pool4/3x3_s2_0_split <- pool4/3x3_s2
I0806 20:29:19.206800   221 net.cpp:409] pool4/3x3_s2_pool4/3x3_s2_0_split -> pool4/3x3_s2_pool4/3x3_s2_0_split_0
I0806 20:29:19.206826   221 net.cpp:409] pool4/3x3_s2_pool4/3x3_s2_0_split -> pool4/3x3_s2_pool4/3x3_s2_0_split_1
I0806 20:29:19.206837   221 net.cpp:409] pool4/3x3_s2_pool4/3x3_s2_0_split -> pool4/3x3_s2_pool4/3x3_s2_0_split_2
I0806 20:29:19.206848   221 net.cpp:409] pool4/3x3_s2_pool4/3x3_s2_0_split -> pool4/3x3_s2_pool4/3x3_s2_0_split_3
I0806 20:29:19.206935   221 net.cpp:144] Setting up pool4/3x3_s2_pool4/3x3_s2_0_split
I0806 20:29:19.206946   221 net.cpp:151] Top shape: 64 832 7 7 (2609152)
I0806 20:29:19.206955   221 net.cpp:151] Top shape: 64 832 7 7 (2609152)
I0806 20:29:19.206964   221 net.cpp:151] Top shape: 64 832 7 7 (2609152)
I0806 20:29:19.206974   221 net.cpp:151] Top shape: 64 832 7 7 (2609152)
I0806 20:29:19.206981   221 net.cpp:159] Memory required for data: 3445590536
I0806 20:29:19.206990   221 layer_factory.hpp:77] Creating layer inception_5a/1x1
I0806 20:29:19.207005   221 net.cpp:94] Creating Layer inception_5a/1x1
I0806 20:29:19.207015   221 net.cpp:435] inception_5a/1x1 <- pool4/3x3_s2_pool4/3x3_s2_0_split_0
I0806 20:29:19.207029   221 net.cpp:409] inception_5a/1x1 -> inception_5a/1x1
I0806 20:29:19.209254   221 net.cpp:144] Setting up inception_5a/1x1
I0806 20:29:19.209275   221 net.cpp:151] Top shape: 64 256 7 7 (802816)
I0806 20:29:19.209285   221 net.cpp:159] Memory required for data: 3448801800
I0806 20:29:19.209297   221 layer_factory.hpp:77] Creating layer inception_5a/relu_1x1
I0806 20:29:19.209309   221 net.cpp:94] Creating Layer inception_5a/relu_1x1
I0806 20:29:19.209318   221 net.cpp:435] inception_5a/relu_1x1 <- inception_5a/1x1
I0806 20:29:19.209329   221 net.cpp:396] inception_5a/relu_1x1 -> inception_5a/1x1 (in-place)
I0806 20:29:19.209343   221 net.cpp:144] Setting up inception_5a/relu_1x1
I0806 20:29:19.209353   221 net.cpp:151] Top shape: 64 256 7 7 (802816)
I0806 20:29:19.209362   221 net.cpp:159] Memory required for data: 3452013064
I0806 20:29:19.209369   221 layer_factory.hpp:77] Creating layer inception_5a/3x3_reduce
I0806 20:29:19.209385   221 net.cpp:94] Creating Layer inception_5a/3x3_reduce
I0806 20:29:19.209395   221 net.cpp:435] inception_5a/3x3_reduce <- pool4/3x3_s2_pool4/3x3_s2_0_split_1
I0806 20:29:19.209409   221 net.cpp:409] inception_5a/3x3_reduce -> inception_5a/3x3_reduce
I0806 20:29:19.213884   221 net.cpp:144] Setting up inception_5a/3x3_reduce
I0806 20:29:19.213917   221 net.cpp:151] Top shape: 64 160 7 7 (501760)
I0806 20:29:19.213924   221 net.cpp:159] Memory required for data: 3454020104
I0806 20:29:19.213937   221 layer_factory.hpp:77] Creating layer inception_5a/relu_3x3_reduce
I0806 20:29:19.213948   221 net.cpp:94] Creating Layer inception_5a/relu_3x3_reduce
I0806 20:29:19.213969   221 net.cpp:435] inception_5a/relu_3x3_reduce <- inception_5a/3x3_reduce
I0806 20:29:19.213984   221 net.cpp:396] inception_5a/relu_3x3_reduce -> inception_5a/3x3_reduce (in-place)
I0806 20:29:19.213997   221 net.cpp:144] Setting up inception_5a/relu_3x3_reduce
I0806 20:29:19.214006   221 net.cpp:151] Top shape: 64 160 7 7 (501760)
I0806 20:29:19.214015   221 net.cpp:159] Memory required for data: 3456027144
I0806 20:29:19.214022   221 layer_factory.hpp:77] Creating layer inception_5a/3x3
I0806 20:29:19.214052   221 net.cpp:94] Creating Layer inception_5a/3x3
I0806 20:29:19.214099   221 net.cpp:435] inception_5a/3x3 <- inception_5a/3x3_reduce
I0806 20:29:19.214113   221 net.cpp:409] inception_5a/3x3 -> inception_5a/3x3
I0806 20:29:19.228497   221 net.cpp:144] Setting up inception_5a/3x3
I0806 20:29:19.228515   221 net.cpp:151] Top shape: 64 320 7 7 (1003520)
I0806 20:29:19.228524   221 net.cpp:159] Memory required for data: 3460041224
I0806 20:29:19.228536   221 layer_factory.hpp:77] Creating layer inception_5a/relu_3x3
I0806 20:29:19.228555   221 net.cpp:94] Creating Layer inception_5a/relu_3x3
I0806 20:29:19.228565   221 net.cpp:435] inception_5a/relu_3x3 <- inception_5a/3x3
I0806 20:29:19.228576   221 net.cpp:396] inception_5a/relu_3x3 -> inception_5a/3x3 (in-place)
I0806 20:29:19.228590   221 net.cpp:144] Setting up inception_5a/relu_3x3
I0806 20:29:19.228603   221 net.cpp:151] Top shape: 64 320 7 7 (1003520)
I0806 20:29:19.228610   221 net.cpp:159] Memory required for data: 3464055304
I0806 20:29:19.228619   221 layer_factory.hpp:77] Creating layer inception_5a/5x5_reduce
I0806 20:29:19.228631   221 net.cpp:94] Creating Layer inception_5a/5x5_reduce
I0806 20:29:19.228641   221 net.cpp:435] inception_5a/5x5_reduce <- pool4/3x3_s2_pool4/3x3_s2_0_split_2
I0806 20:29:19.228655   221 net.cpp:409] inception_5a/5x5_reduce -> inception_5a/5x5_reduce
I0806 20:29:19.229118   221 net.cpp:144] Setting up inception_5a/5x5_reduce
I0806 20:29:19.229132   221 net.cpp:151] Top shape: 64 32 7 7 (100352)
I0806 20:29:19.229140   221 net.cpp:159] Memory required for data: 3464456712
I0806 20:29:19.229151   221 layer_factory.hpp:77] Creating layer inception_5a/relu_5x5_reduce
I0806 20:29:19.229162   221 net.cpp:94] Creating Layer inception_5a/relu_5x5_reduce
I0806 20:29:19.229171   221 net.cpp:435] inception_5a/relu_5x5_reduce <- inception_5a/5x5_reduce
I0806 20:29:19.229185   221 net.cpp:396] inception_5a/relu_5x5_reduce -> inception_5a/5x5_reduce (in-place)
I0806 20:29:19.229198   221 net.cpp:144] Setting up inception_5a/relu_5x5_reduce
I0806 20:29:19.229207   221 net.cpp:151] Top shape: 64 32 7 7 (100352)
I0806 20:29:19.229215   221 net.cpp:159] Memory required for data: 3464858120
I0806 20:29:19.229223   221 layer_factory.hpp:77] Creating layer inception_5a/5x5
I0806 20:29:19.229239   221 net.cpp:94] Creating Layer inception_5a/5x5
I0806 20:29:19.229249   221 net.cpp:435] inception_5a/5x5 <- inception_5a/5x5_reduce
I0806 20:29:19.229264   221 net.cpp:409] inception_5a/5x5 -> inception_5a/5x5
I0806 20:29:19.230100   221 net.cpp:144] Setting up inception_5a/5x5
I0806 20:29:19.230114   221 net.cpp:151] Top shape: 64 128 7 7 (401408)
I0806 20:29:19.230123   221 net.cpp:159] Memory required for data: 3466463752
I0806 20:29:19.230134   221 layer_factory.hpp:77] Creating layer inception_5a/relu_5x5
I0806 20:29:19.230146   221 net.cpp:94] Creating Layer inception_5a/relu_5x5
I0806 20:29:19.230156   221 net.cpp:435] inception_5a/relu_5x5 <- inception_5a/5x5
I0806 20:29:19.230166   221 net.cpp:396] inception_5a/relu_5x5 -> inception_5a/5x5 (in-place)
I0806 20:29:19.230178   221 net.cpp:144] Setting up inception_5a/relu_5x5
I0806 20:29:19.230188   221 net.cpp:151] Top shape: 64 128 7 7 (401408)
I0806 20:29:19.230196   221 net.cpp:159] Memory required for data: 3468069384
I0806 20:29:19.230204   221 layer_factory.hpp:77] Creating layer inception_5a/pool
I0806 20:29:19.230214   221 net.cpp:94] Creating Layer inception_5a/pool
I0806 20:29:19.230223   221 net.cpp:435] inception_5a/pool <- pool4/3x3_s2_pool4/3x3_s2_0_split_3
I0806 20:29:19.230253   221 net.cpp:409] inception_5a/pool -> inception_5a/pool
I0806 20:29:19.230340   221 net.cpp:144] Setting up inception_5a/pool
I0806 20:29:19.230351   221 net.cpp:151] Top shape: 64 832 7 7 (2609152)
I0806 20:29:19.230360   221 net.cpp:159] Memory required for data: 3478505992
I0806 20:29:19.230367   221 layer_factory.hpp:77] Creating layer inception_5a/pool_proj
I0806 20:29:19.230399   221 net.cpp:94] Creating Layer inception_5a/pool_proj
I0806 20:29:19.230407   221 net.cpp:435] inception_5a/pool_proj <- inception_5a/pool
I0806 20:29:19.230422   221 net.cpp:409] inception_5a/pool_proj -> inception_5a/pool_proj
I0806 20:29:19.231973   221 net.cpp:144] Setting up inception_5a/pool_proj
I0806 20:29:19.231994   221 net.cpp:151] Top shape: 64 128 7 7 (401408)
I0806 20:29:19.232003   221 net.cpp:159] Memory required for data: 3480111624
I0806 20:29:19.232017   221 layer_factory.hpp:77] Creating layer inception_5a/relu_pool_proj
I0806 20:29:19.232043   221 net.cpp:94] Creating Layer inception_5a/relu_pool_proj
I0806 20:29:19.232053   221 net.cpp:435] inception_5a/relu_pool_proj <- inception_5a/pool_proj
I0806 20:29:19.232064   221 net.cpp:396] inception_5a/relu_pool_proj -> inception_5a/pool_proj (in-place)
I0806 20:29:19.232077   221 net.cpp:144] Setting up inception_5a/relu_pool_proj
I0806 20:29:19.232087   221 net.cpp:151] Top shape: 64 128 7 7 (401408)
I0806 20:29:19.232102   221 net.cpp:159] Memory required for data: 3481717256
I0806 20:29:19.232111   221 layer_factory.hpp:77] Creating layer inception_5a/output
I0806 20:29:19.232125   221 net.cpp:94] Creating Layer inception_5a/output
I0806 20:29:19.232134   221 net.cpp:435] inception_5a/output <- inception_5a/1x1
I0806 20:29:19.232143   221 net.cpp:435] inception_5a/output <- inception_5a/3x3
I0806 20:29:19.232153   221 net.cpp:435] inception_5a/output <- inception_5a/5x5
I0806 20:29:19.232162   221 net.cpp:435] inception_5a/output <- inception_5a/pool_proj
I0806 20:29:19.232173   221 net.cpp:409] inception_5a/output -> inception_5a/output
I0806 20:29:19.232213   221 net.cpp:144] Setting up inception_5a/output
I0806 20:29:19.232225   221 net.cpp:151] Top shape: 64 832 7 7 (2609152)
I0806 20:29:19.232234   221 net.cpp:159] Memory required for data: 3492153864
I0806 20:29:19.232254   221 layer_factory.hpp:77] Creating layer inception_5a/output_inception_5a/output_0_split
I0806 20:29:19.232270   221 net.cpp:94] Creating Layer inception_5a/output_inception_5a/output_0_split
I0806 20:29:19.232292   221 net.cpp:435] inception_5a/output_inception_5a/output_0_split <- inception_5a/output
I0806 20:29:19.232311   221 net.cpp:409] inception_5a/output_inception_5a/output_0_split -> inception_5a/output_inception_5a/output_0_split_0
I0806 20:29:19.232328   221 net.cpp:409] inception_5a/output_inception_5a/output_0_split -> inception_5a/output_inception_5a/output_0_split_1
I0806 20:29:19.232344   221 net.cpp:409] inception_5a/output_inception_5a/output_0_split -> inception_5a/output_inception_5a/output_0_split_2
I0806 20:29:19.232357   221 net.cpp:409] inception_5a/output_inception_5a/output_0_split -> inception_5a/output_inception_5a/output_0_split_3
I0806 20:29:19.232430   221 net.cpp:144] Setting up inception_5a/output_inception_5a/output_0_split
I0806 20:29:19.232445   221 net.cpp:151] Top shape: 64 832 7 7 (2609152)
I0806 20:29:19.232455   221 net.cpp:151] Top shape: 64 832 7 7 (2609152)
I0806 20:29:19.232463   221 net.cpp:151] Top shape: 64 832 7 7 (2609152)
I0806 20:29:19.232472   221 net.cpp:151] Top shape: 64 832 7 7 (2609152)
I0806 20:29:19.232481   221 net.cpp:159] Memory required for data: 3533900296
I0806 20:29:19.232488   221 layer_factory.hpp:77] Creating layer inception_5b/1x1
I0806 20:29:19.232506   221 net.cpp:94] Creating Layer inception_5b/1x1
I0806 20:29:19.232515   221 net.cpp:435] inception_5b/1x1 <- inception_5a/output_inception_5a/output_0_split_0
I0806 20:29:19.232542   221 net.cpp:409] inception_5b/1x1 -> inception_5b/1x1
I0806 20:29:19.235196   221 net.cpp:144] Setting up inception_5b/1x1
I0806 20:29:19.235227   221 net.cpp:151] Top shape: 64 384 7 7 (1204224)
I0806 20:29:19.235236   221 net.cpp:159] Memory required for data: 3538717192
I0806 20:29:19.235249   221 layer_factory.hpp:77] Creating layer inception_5b/relu_1x1
I0806 20:29:19.235260   221 net.cpp:94] Creating Layer inception_5b/relu_1x1
I0806 20:29:19.235270   221 net.cpp:435] inception_5b/relu_1x1 <- inception_5b/1x1
I0806 20:29:19.235285   221 net.cpp:396] inception_5b/relu_1x1 -> inception_5b/1x1 (in-place)
I0806 20:29:19.235297   221 net.cpp:144] Setting up inception_5b/relu_1x1
I0806 20:29:19.235307   221 net.cpp:151] Top shape: 64 384 7 7 (1204224)
I0806 20:29:19.235316   221 net.cpp:159] Memory required for data: 3543534088
I0806 20:29:19.235324   221 layer_factory.hpp:77] Creating layer inception_5b/3x3_reduce
I0806 20:29:19.235342   221 net.cpp:94] Creating Layer inception_5b/3x3_reduce
I0806 20:29:19.235350   221 net.cpp:435] inception_5b/3x3_reduce <- inception_5a/output_inception_5a/output_0_split_1
I0806 20:29:19.235364   221 net.cpp:409] inception_5b/3x3_reduce -> inception_5b/3x3_reduce
I0806 20:29:19.237251   221 net.cpp:144] Setting up inception_5b/3x3_reduce
I0806 20:29:19.237267   221 net.cpp:151] Top shape: 64 192 7 7 (602112)
I0806 20:29:19.237277   221 net.cpp:159] Memory required for data: 3545942536
I0806 20:29:19.237288   221 layer_factory.hpp:77] Creating layer inception_5b/relu_3x3_reduce
I0806 20:29:19.237299   221 net.cpp:94] Creating Layer inception_5b/relu_3x3_reduce
I0806 20:29:19.237309   221 net.cpp:435] inception_5b/relu_3x3_reduce <- inception_5b/3x3_reduce
I0806 20:29:19.237323   221 net.cpp:396] inception_5b/relu_3x3_reduce -> inception_5b/3x3_reduce (in-place)
I0806 20:29:19.237336   221 net.cpp:144] Setting up inception_5b/relu_3x3_reduce
I0806 20:29:19.237346   221 net.cpp:151] Top shape: 64 192 7 7 (602112)
I0806 20:29:19.237355   221 net.cpp:159] Memory required for data: 3548350984
I0806 20:29:19.237363   221 layer_factory.hpp:77] Creating layer inception_5b/3x3
I0806 20:29:19.237380   221 net.cpp:94] Creating Layer inception_5b/3x3
I0806 20:29:19.237388   221 net.cpp:435] inception_5b/3x3 <- inception_5b/3x3_reduce
I0806 20:29:19.237399   221 net.cpp:409] inception_5b/3x3 -> inception_5b/3x3
I0806 20:29:19.242458   221 net.cpp:144] Setting up inception_5b/3x3
I0806 20:29:19.242477   221 net.cpp:151] Top shape: 64 384 7 7 (1204224)
I0806 20:29:19.242486   221 net.cpp:159] Memory required for data: 3553167880
I0806 20:29:19.242513   221 layer_factory.hpp:77] Creating layer inception_5b/relu_3x3
I0806 20:29:19.242527   221 net.cpp:94] Creating Layer inception_5b/relu_3x3
I0806 20:29:19.242537   221 net.cpp:435] inception_5b/relu_3x3 <- inception_5b/3x3
I0806 20:29:19.242547   221 net.cpp:396] inception_5b/relu_3x3 -> inception_5b/3x3 (in-place)
I0806 20:29:19.242561   221 net.cpp:144] Setting up inception_5b/relu_3x3
I0806 20:29:19.242570   221 net.cpp:151] Top shape: 64 384 7 7 (1204224)
I0806 20:29:19.242578   221 net.cpp:159] Memory required for data: 3557984776
I0806 20:29:19.242586   221 layer_factory.hpp:77] Creating layer inception_5b/5x5_reduce
I0806 20:29:19.242602   221 net.cpp:94] Creating Layer inception_5b/5x5_reduce
I0806 20:29:19.242611   221 net.cpp:435] inception_5b/5x5_reduce <- inception_5a/output_inception_5a/output_0_split_2
I0806 20:29:19.242625   221 net.cpp:409] inception_5b/5x5_reduce -> inception_5b/5x5_reduce
I0806 20:29:19.243782   221 net.cpp:144] Setting up inception_5b/5x5_reduce
I0806 20:29:19.243830   221 net.cpp:151] Top shape: 64 48 7 7 (150528)
I0806 20:29:19.243839   221 net.cpp:159] Memory required for data: 3558586888
I0806 20:29:19.243866   221 layer_factory.hpp:77] Creating layer inception_5b/relu_5x5_reduce
I0806 20:29:19.243877   221 net.cpp:94] Creating Layer inception_5b/relu_5x5_reduce
I0806 20:29:19.243886   221 net.cpp:435] inception_5b/relu_5x5_reduce <- inception_5b/5x5_reduce
I0806 20:29:19.243901   221 net.cpp:396] inception_5b/relu_5x5_reduce -> inception_5b/5x5_reduce (in-place)
I0806 20:29:19.243913   221 net.cpp:144] Setting up inception_5b/relu_5x5_reduce
I0806 20:29:19.243952   221 net.cpp:151] Top shape: 64 48 7 7 (150528)
I0806 20:29:19.243962   221 net.cpp:159] Memory required for data: 3559189000
I0806 20:29:19.243969   221 layer_factory.hpp:77] Creating layer inception_5b/5x5
I0806 20:29:19.243986   221 net.cpp:94] Creating Layer inception_5b/5x5
I0806 20:29:19.243995   221 net.cpp:435] inception_5b/5x5 <- inception_5b/5x5_reduce
I0806 20:29:19.244009   221 net.cpp:409] inception_5b/5x5 -> inception_5b/5x5
I0806 20:29:19.245147   221 net.cpp:144] Setting up inception_5b/5x5
I0806 20:29:19.245162   221 net.cpp:151] Top shape: 64 128 7 7 (401408)
I0806 20:29:19.245170   221 net.cpp:159] Memory required for data: 3560794632
I0806 20:29:19.245182   221 layer_factory.hpp:77] Creating layer inception_5b/relu_5x5
I0806 20:29:19.245195   221 net.cpp:94] Creating Layer inception_5b/relu_5x5
I0806 20:29:19.245205   221 net.cpp:435] inception_5b/relu_5x5 <- inception_5b/5x5
I0806 20:29:19.245215   221 net.cpp:396] inception_5b/relu_5x5 -> inception_5b/5x5 (in-place)
I0806 20:29:19.245227   221 net.cpp:144] Setting up inception_5b/relu_5x5
I0806 20:29:19.245237   221 net.cpp:151] Top shape: 64 128 7 7 (401408)
I0806 20:29:19.245245   221 net.cpp:159] Memory required for data: 3562400264
I0806 20:29:19.245254   221 layer_factory.hpp:77] Creating layer inception_5b/pool
I0806 20:29:19.245267   221 net.cpp:94] Creating Layer inception_5b/pool
I0806 20:29:19.245276   221 net.cpp:435] inception_5b/pool <- inception_5a/output_inception_5a/output_0_split_3
I0806 20:29:19.245287   221 net.cpp:409] inception_5b/pool -> inception_5b/pool
I0806 20:29:19.245342   221 net.cpp:144] Setting up inception_5b/pool
I0806 20:29:19.245352   221 net.cpp:151] Top shape: 64 832 7 7 (2609152)
I0806 20:29:19.245360   221 net.cpp:159] Memory required for data: 3572836872
I0806 20:29:19.245369   221 layer_factory.hpp:77] Creating layer inception_5b/pool_proj
I0806 20:29:19.245388   221 net.cpp:94] Creating Layer inception_5b/pool_proj
I0806 20:29:19.245398   221 net.cpp:435] inception_5b/pool_proj <- inception_5b/pool
I0806 20:29:19.245412   221 net.cpp:409] inception_5b/pool_proj -> inception_5b/pool_proj
I0806 20:29:19.246901   221 net.cpp:144] Setting up inception_5b/pool_proj
I0806 20:29:19.246918   221 net.cpp:151] Top shape: 64 128 7 7 (401408)
I0806 20:29:19.246927   221 net.cpp:159] Memory required for data: 3574442504
I0806 20:29:19.246938   221 layer_factory.hpp:77] Creating layer inception_5b/relu_pool_proj
I0806 20:29:19.246953   221 net.cpp:94] Creating Layer inception_5b/relu_pool_proj
I0806 20:29:19.246963   221 net.cpp:435] inception_5b/relu_pool_proj <- inception_5b/pool_proj
I0806 20:29:19.246973   221 net.cpp:396] inception_5b/relu_pool_proj -> inception_5b/pool_proj (in-place)
I0806 20:29:19.246986   221 net.cpp:144] Setting up inception_5b/relu_pool_proj
I0806 20:29:19.246996   221 net.cpp:151] Top shape: 64 128 7 7 (401408)
I0806 20:29:19.247004   221 net.cpp:159] Memory required for data: 3576048136
I0806 20:29:19.247012   221 layer_factory.hpp:77] Creating layer inception_5b/output
I0806 20:29:19.247026   221 net.cpp:94] Creating Layer inception_5b/output
I0806 20:29:19.247042   221 net.cpp:435] inception_5b/output <- inception_5b/1x1
I0806 20:29:19.247053   221 net.cpp:435] inception_5b/output <- inception_5b/3x3
I0806 20:29:19.247062   221 net.cpp:435] inception_5b/output <- inception_5b/5x5
I0806 20:29:19.247072   221 net.cpp:435] inception_5b/output <- inception_5b/pool_proj
I0806 20:29:19.247082   221 net.cpp:409] inception_5b/output -> inception_5b/output
I0806 20:29:19.247122   221 net.cpp:144] Setting up inception_5b/output
I0806 20:29:19.247133   221 net.cpp:151] Top shape: 64 1024 7 7 (3211264)
I0806 20:29:19.247141   221 net.cpp:159] Memory required for data: 3588893192
I0806 20:29:19.247149   221 layer_factory.hpp:77] Creating layer pool5/7x7_s1
I0806 20:29:19.247160   221 net.cpp:94] Creating Layer pool5/7x7_s1
I0806 20:29:19.247169   221 net.cpp:435] pool5/7x7_s1 <- inception_5b/output
I0806 20:29:19.247182   221 net.cpp:409] pool5/7x7_s1 -> pool5/7x7_s1
I0806 20:29:19.247233   221 net.cpp:144] Setting up pool5/7x7_s1
I0806 20:29:19.247246   221 net.cpp:151] Top shape: 64 1024 1 1 (65536)
I0806 20:29:19.247253   221 net.cpp:159] Memory required for data: 3589155336
I0806 20:29:19.247262   221 layer_factory.hpp:77] Creating layer pool5/drop_7x7_s1
I0806 20:29:19.247272   221 net.cpp:94] Creating Layer pool5/drop_7x7_s1
I0806 20:29:19.247282   221 net.cpp:435] pool5/drop_7x7_s1 <- pool5/7x7_s1
I0806 20:29:19.247295   221 net.cpp:396] pool5/drop_7x7_s1 -> pool5/7x7_s1 (in-place)
I0806 20:29:19.247325   221 net.cpp:144] Setting up pool5/drop_7x7_s1
I0806 20:29:19.247336   221 net.cpp:151] Top shape: 64 1024 1 1 (65536)
I0806 20:29:19.247344   221 net.cpp:159] Memory required for data: 3589417480
I0806 20:29:19.247354   221 layer_factory.hpp:77] Creating layer loss3/classifier
I0806 20:29:19.247370   221 net.cpp:94] Creating Layer loss3/classifier
I0806 20:29:19.247378   221 net.cpp:435] loss3/classifier <- pool5/7x7_s1
I0806 20:29:19.247417   221 net.cpp:409] loss3/classifier -> loss3/classifier
I0806 20:29:19.247566   221 net.cpp:144] Setting up loss3/classifier
I0806 20:29:19.247578   221 net.cpp:151] Top shape: 64 3 (192)
I0806 20:29:19.247586   221 net.cpp:159] Memory required for data: 3589418248
I0806 20:29:19.247598   221 layer_factory.hpp:77] Creating layer loss3/loss
I0806 20:29:19.247625   221 net.cpp:94] Creating Layer loss3/loss
I0806 20:29:19.247633   221 net.cpp:435] loss3/loss <- loss3/classifier
I0806 20:29:19.247643   221 net.cpp:435] loss3/loss <- label_train-data_1_split_2
I0806 20:29:19.247653   221 net.cpp:409] loss3/loss -> loss
…
I0806 20:29:19.251209   221 solver.cpp:181] Creating test net (#0) specified by net file: train_val.prototxt
I0806 20:29:19.251363   221 net.cpp:323] The NetState phase (1) differed from the phase (0) specified by a rule in layer train-data
I0806 20:29:19.252164   221 net.cpp:52] Initializing net from parameters:
state {
phase: TEST
}
layer {
name: "val-data"
type: "Data"
top: "data"
top: "label"
include {
phase: TEST
}
transform_param {
mirror: false
crop_size: 224
mean_file: "/opt/DIGITS/digits/jobs/20180806-200841-9b3a/mean.binaryproto"
}
data_param {
source: "/opt/DIGITS/digits/jobs/20180806-200841-9b3a/val_db"
batch_size: 64
backend: LMDB
}
}
layer {
name: "conv1/7x7_s2"
type: "Convolution"
bottom: "data"
top: "conv1/7x7_s2"
param {
lr_mult: 1
decay_mult: 1
}
param {
lr_mult: 2
decay_mult: 0
}
convolution_param {
num_output: 64
pad: 3
kernel_size: 7
stride: 2
weight_filler {
type: "xavier"
std: 0.1
}
bias_filler {
type: "constant"
value: 0.2
}
}
}
layer {
name: "conv1/relu_7x7"
type: "ReLU"
bottom: "conv1/7x7_s2"
top: "conv1/7x7_s2"
}
layer {
name: "pool1/3x3_s2"
type: "Pooling"
bottom: "conv1/7x7_s2"
top: "pool1/3x3_s2"
pooling_param {
pool: MAX
kernel_size: 3
stride: 2
}
}
layer {
name: "pool1/norm1"
type: "LRN"
bottom: "pool1/3x3_s2"
top: "pool1/norm1"
lrn_param {
local_size: 5
alpha: 0.0001
beta: 0.75
}
}
layer {
name: "conv2/3x3_reduce"
type: "Convolution"
bottom: "pool1/norm1"
top: "conv2/3x3_reduce"
param {
lr_mult: 1
decay_mult: 1
}
param {
lr_mult: 2
decay_mult: 0
}
convolution_param {
num_output: 64
kernel_size: 1
weight_filler {
type: "xavier"
std: 0.1
}
bias_filler {
type: "constant"
value: 0.2
}
}
}
layer {
name: "conv2/relu_3x3_reduce"
type: "ReLU"
bottom: "conv2/3x3_reduce"
top: "conv2/3x3_reduce"
}
layer {
name: "conv2/3x3"
type: "Convolution"
bottom: "conv2/3x3_reduce"
top: "conv2/3x3"
param {
lr_mult: 1
decay_mult: 1
}
param {
lr_mult: 2
decay_mult: 0
}
convolution_param {
num_output: 192
pad: 1
kernel_size: 3
weight_filler {
type: "xavier"
std: 0.03
}
bias_filler {
type: "constant"
value: 0.2
}
}
}
layer {
name: "conv2/relu_3x3"
type: "ReLU"
bottom: "conv2/3x3"
top: "conv2/3x3"
}
layer {
name: "conv2/norm2"
type: "LRN"
bottom: "conv2/3x3"
top: "conv2/norm2"
lrn_param {
local_size: 5
alpha: 0.0001
beta: 0.75
}
}
layer {
name: "pool2/3x3_s2"
type: "Pooling"
bottom: "conv2/norm2"
top: "pool2/3x3_s2"
pooling_param {
pool: MAX
kernel_size: 3
stride: 2
}
}
layer {
name: "inception_3a/1x1"
type: "Convolution"
bottom: "pool2/3x3_s2"
top: "inception_3a/1x1"
param {
lr_mult: 1
decay_mult: 1
}
param {
lr_mult: 2
decay_mult: 0
}
convolution_param {
num_output: 64
kernel_size: 1
weight_filler {
type: "xavier"
std: 0.03
}
bias_filler {
type: "constant"
value: 0.2
}
}
}
layer {
name: "inception_3a/relu_1x1"
type: "ReLU"
bottom: "inception_3a/1x1"
top: "inception_3a/1x1"
}
layer {
name: "inception_3a/3x3_reduce"
type: "Convolution"
bottom: "pool2/3x3_s2"
top: "inception_3a/3x3_reduce"
param {
lr_mult: 1
decay_mult: 1
}
param {
lr_mult: 2
decay_mult: 0
}
convolution_param {
num_output: 96
kernel_size: 1
weight_filler {
type: "xavier"
std: 0.09
}
bias_filler {
type: "constant"
value: 0.2
}
}
}
layer {
name: "inception_3a/relu_3x3_reduce"
type: "ReLU"
bottom: "inception_3a/3x3_reduce"
top: "inception_3a/3x3_reduce"
}
layer {
name: "inception_3a/3x3"
type: "Convolution"
bottom: "inception_3a/3x3_reduce"
top: "inception_3a/3x3"
param {
lr_mult: 1
decay_mult: 1
}
param {
lr_mult: 2
decay_mult: 0
}
convolution_param {
num_output: 128
pad: 1
kernel_size: 3
weight_filler {
type: "xavier"
std: 0.03
}
bias_filler {
type: "constant"
value: 0.2
}
}
}
layer {
name: "inception_3a/relu_3x3"
type: "ReLU"
bottom: "inception_3a/3x3"
top: "inception_3a/3x3"
}
layer {
name: "inception_3a/5x5_reduce"
type: "Convolution"
bottom: "pool2/3x3_s2"
top: "inception_3a/5x5_reduce"
param {
lr_mult: 1
decay_mult: 1
}
param {
lr_mult: 2
decay_mult: 0
}
convolution_param {
num_output: 16
kernel_size: 1
weight_filler {
type: "xavier"
std: 0.2
}
bias_filler {
type: "constant"
value: 0.2
}
}
}
layer {
name: "inception_3a/relu_5x5_reduce"
type: "ReLU"
bottom: "inception_3a/5x5_reduce"
top: "inception_3a/5x5_reduce"
}
layer {
name: "inception_3a/5x5"
type: "Convolution"
bottom: "inception_3a/5x5_reduce"
top: "inception_3a/5x5"
param {
lr_mult: 1
decay_mult: 1
}
param {
lr_mult: 2
decay_mult: 0
}
convolution_param {
num_output: 32
pad: 2
kernel_size: 5
weight_filler {
type: "xavier"
std: 0.03
}
bias_filler {
type: "constant"
value: 0.2
}
}
}
layer {
name: "inception_3a/relu_5x5"
type: "ReLU"
bottom: "inception_3a/5x5"
top: "inception_3a/5x5"
}
layer {
name: "inception_3a/pool"
type: "Pooling"
bottom: "pool2/3x3_s2"
top: "inception_3a/pool"
pooling_param {
pool: MAX
kernel_size: 3
stride: 1
pad: 1
}
}
layer {
name: "inception_3a/pool_proj"
type: "Convolution"
bottom: "inception_3a/pool"
top: "inception_3a/pool_proj"
param {
lr_mult: 1
decay_mult: 1
}
param {
lr_mult: 2
decay_mult: 0
}
convolution_param {
num_output: 32
kernel_size: 1
weight_filler {
type: "xavier"
std: 0.1
}
bias_filler {
type: "constant"
value: 0.2
}
}
}
layer {
name: "inception_3a/relu_pool_proj"
type: "ReLU"
bottom: "inception_3a/pool_proj"
top: "inception_3a/pool_proj"
}
layer {
name: "inception_3a/output"
type: "Concat"
bottom: "inception_3a/1x1"
bottom: "inception_3a/3x3"
bottom: "inception_3a/5x5"
bottom: "inception_3a/pool_proj"
top: "inception_3a/output"
}
layer {
name: "inception_3b/1x1"
type: "Convolution"
bottom: "inception_3a/output"
top: "inception_3b/1x1"
param {
lr_mult: 1
decay_mult: 1
}
param {
lr_mult: 2
decay_mult: 0
}
convolution_param {
num_output: 128
kernel_size: 1
weight_filler {
type: "xavier"
std: 0.03
}
bias_filler {
type: "constant"
value: 0.2
}
}
}
layer {
name: "inception_3b/relu_1x1"
type: "ReLU"
bottom: "inception_3b/1x1"
top: "inception_3b/1x1"
}
layer {
name: "inception_3b/3x3_reduce"
type: "Convolution"
bottom: "inception_3a/output"
top: "inception_3b/3x3_reduce"
param {
lr_mult: 1
decay_mult: 1
}
param {
lr_mult: 2
decay_mult: 0
}
convolution_param {
num_output: 128
kernel_size: 1
weight_filler {
type: "xavier"
std: 0.09
}
bias_filler {
type: "constant"
value: 0.2
}
}
}
layer {
name: "inception_3b/relu_3x3_reduce"
type: "ReLU"
bottom: "inception_3b/3x3_reduce"
top: "inception_3b/3x3_reduce"
}
layer {
name: "inception_3b/3x3"
type: "Convolution"
bottom: "inception_3b/3x3_reduce"
top: "inception_3b/3x3"
param {
lr_mult: 1
decay_mult: 1
}
param {
lr_mult: 2
decay_mult: 0
}
convolution_param {
num_output: 192
pad: 1
kernel_size: 3
weight_filler {
type: "xavier"
std: 0.03
}
bias_filler {
type: "constant"
value: 0.2
}
}
}
layer {
name: "inception_3b/relu_3x3"
type: "ReLU"
bottom: "inception_3b/3x3"
top: "inception_3b/3x3"
}
layer {
name: "inception_3b/5x5_reduce"
type: "Convolution"
bottom: "inception_3a/output"
top: "inception_3b/5x5_reduce"
param {
lr_mult: 1
decay_mult: 1
}
param {
lr_mult: 2
decay_mult: 0
}
convolution_param {
num_output: 32
kernel_size: 1
weight_filler {
type: "xavier"
std: 0.2
}
bias_filler {
type: "constant"
value: 0.2
}
}
}
layer {
name: "inception_3b/relu_5x5_reduce"
type: "ReLU"
bottom: "inception_3b/5x5_reduce"
top: "inception_3b/5x5_reduce"
}
layer {
name: "inception_3b/5x5"
type: "Convolution"
bottom: "inception_3b/5x5_reduce"
top: "inception_3b/5x5"
param {
lr_mult: 1
decay_mult: 1
}
param {
lr_mult: 2
decay_mult: 0
}
convolution_param {
num_output: 96
pad: 2
kernel_size: 5
weight_filler {
type: "xavier"
std: 0.03
}
bias_filler {
type: "constant"
value: 0.2
}
}
}
layer {
name: "inception_3b/relu_5x5"
type: "ReLU"
bottom: "inception_3b/5x5"
top: "inception_3b/5x5"
}
layer {
name: "inception_3b/pool"
type: "Pooling"
bottom: "inception_3a/output"
top: "inception_3b/pool"
pooling_param {
pool: MAX
kernel_size: 3
stride: 1
pad: 1
}
}
layer {
name: "inception_3b/pool_proj"
type: "Convolution"
bottom: "inception_3b/pool"
top: "inception_3b/pool_proj"
param {
lr_mult: 1
decay_mult: 1
}
param {
lr_mult: 2
decay_mult: 0
}
convolution_param {
num_output: 64
kernel_size: 1
weight_filler {
type: "xavier"
std: 0.1
}
bias_filler {
type: "constant"
value: 0.2
}
}
}
layer {
name: "inception_3b/relu_pool_proj"
type: "ReLU"
bottom: "inception_3b/pool_proj"
top: "inception_3b/pool_proj"
}
layer {
name: "inception_3b/output"
type: "Concat"
bottom: "inception_3b/1x1"
bottom: "inception_3b/3x3"
bottom: "inception_3b/5x5"
bottom: "inception_3b/pool_proj"
top: "inception_3b/output"
}
layer {
name: "pool3/3x3_s2"
type: "Pooling"
bottom: "inception_3b/output"
top: "pool3/3x3_s2"
pooling_param {
pool: MAX
kernel_size: 3
stride: 2
}
}
layer {
name: "inception_4a/1x1"
type: "Convolution"
bottom: "pool3/3x3_s2"
top: "inception_4a/1x1"
param {
lr_mult: 1
decay_mult: 1
}
param {
lr_mult: 2
decay_mult: 0
}
convolution_param {
num_output: 192
kernel_size: 1
weight_filler {
type: "xavier"
std: 0.03
}
bias_filler {
type: "constant"
value: 0.2
}
}
}
layer {
name: "inception_4a/relu_1x1"
type: "ReLU"
bottom: "inception_4a/1x1"
top: "inception_4a/1x1"
}
layer {
name: "inception_4a/3x3_reduce"
type: "Convolution"
bottom: "pool3/3x3_s2"
top: "inception_4a/3x3_reduce"
param {
lr_mult: 1
decay_mult: 1
}
param {
lr_mult: 2
decay_mult: 0
}
convolution_param {
num_output: 96
kernel_size: 1
weight_filler {
type: "xavier"
std: 0.09
}
bias_filler {
type: "constant"
value: 0.2
}
}
}
layer {
name: "inception_4a/relu_3x3_reduce"
type: "ReLU"
bottom: "inception_4a/3x3_reduce"
top: "inception_4a/3x3_reduce"
}
layer {
name: "inception_4a/3x3"
type: "Convolution"
bottom: "inception_4a/3x3_reduce"
top: "inception_4a/3x3"
param {
lr_mult: 1
decay_mult: 1
}
param {
lr_mult: 2
decay_mult: 0
}
convolution_param {
num_output: 208
pad: 1
kernel_size: 3
weight_filler {
type: "xavier"
std: 0.03
}
bias_filler {
type: "constant"
value: 0.2
}
}
}
layer {
name: "inception_4a/relu_3x3"
type: "ReLU"
bottom: "inception_4a/3x3"
top: "inception_4a/3x3"
}
layer {
name: "inception_4a/5x5_reduce"
type: "Convolution"
bottom: "pool3/3x3_s2"
top: "inception_4a/5x5_reduce"
param {
lr_mult: 1
decay_mult: 1
}
param {
lr_mult: 2
decay_mult: 0
}
convolution_param {
num_output: 16
kernel_size: 1
weight_filler {
type: "xavier"
std: 0.2
}
bias_filler {
type: "constant"
value: 0.2
}
}
}
layer {
name: "inception_4a/relu_5x5_reduce"
type: "ReLU"
bottom: "inception_4a/5x5_reduce"
top: "inception_4a/5x5_reduce"
}
layer {
name: "inception_4a/5x5"
type: "Convolution"
bottom: "inception_4a/5x5_reduce"
top: "inception_4a/5x5"
param {
lr_mult: 1
decay_mult: 1
}
param {
lr_mult: 2
decay_mult: 0
}
convolution_param {
num_output: 48
pad: 2
kernel_size: 5
weight_filler {
type: "xavier"
std: 0.03
}
bias_filler {
type: "constant"
value: 0.2
}
}
}
layer {
name: "inception_4a/relu_5x5"
type: "ReLU"
bottom: "inception_4a/5x5"
top: "inception_4a/5x5"
}
layer {
name: "inception_4a/pool"
type: "Pooling"
bottom: "pool3/3x3_s2"
top: "inception_4a/pool"
pooling_param {
pool: MAX
kernel_size: 3
stride: 1
pad: 1
}
}
layer {
name: "inception_4a/pool_proj"
type: "Convolution"
bottom: "inception_4a/pool"
top: "inception_4a/pool_proj"
param {
lr_mult: 1
decay_mult: 1
}
param {
lr_mult: 2
decay_mult: 0
}
convolution_param {
num_output: 64
kernel_size: 1
weight_filler {
type: "xavier"
std: 0.1
}
bias_filler {
type: "constant"
value: 0.2
}
}
}
layer {
name: "inception_4a/relu_pool_proj"
type: "ReLU"
bottom: "inception_4a/pool_proj"
top: "inception_4a/pool_proj"
}
layer {
name: "inception_4a/output"
type: "Concat"
bottom: "inception_4a/1x1"
bottom: "inception_4a/3x3"
bottom: "inception_4a/5x5"
bottom: "inception_4a/pool_proj"
top: "inception_4a/output"
}
layer {
name: "loss1/ave_pool"
type: "Pooling"
bottom: "inception_4a/output"
top: "loss1/ave_pool"
pooling_param {
pool: AVE
kernel_size: 5
stride: 3
}
}
layer {
name: "loss1/conv"
type: "Convolution"
bottom: "loss1/ave_pool"
top: "loss1/conv"
param {
lr_mult: 1
decay_mult: 1
}
param {
lr_mult: 2
decay_mult: 0
}
convolution_param {
num_output: 128
kernel_size: 1
weight_filler {
type: "xavier"
std: 0.08
}
bias_filler {
type: "constant"
value: 0.2
}
}
}
layer {
name: "loss1/relu_conv"
type: "ReLU"
bottom: "loss1/conv"
top: "loss1/conv"
}
layer {
name: "loss1/fc"
type: "InnerProduct"
bottom: "loss1/conv"
top: "loss1/fc"
param {
lr_mult: 1
decay_mult: 1
}
param {
lr_mult: 2
decay_mult: 0
}
inner_product_param {
num_output: 1024
weight_filler {
type: "xavier"
std: 0.02
}
bias_filler {
type: "constant"
value: 0.2
}
}
}
layer {
name: "loss1/relu_fc"
type: "ReLU"
bottom: "loss1/fc"
top: "loss1/fc"
}
layer {
name: "loss1/drop_fc"
type: "Dropout"
bottom: "loss1/fc"
top: "loss1/fc"
dropout_param {
dropout_ratio: 0.7
}
}
layer {
name: "loss1/classifier"
type: "InnerProduct"
bottom: "loss1/fc"
top: "loss1/classifier"
param {
lr_mult: 1
decay_mult: 1
}
param {
lr_mult: 2
decay_mult: 0
}
inner_product_param {
num_output: 3
weight_filler {
type: "xavier"
std: 0.0009765625
}
bias_filler {
type: "constant"
value: 0
}
}
}
layer {
name: "loss1/loss"
type: "SoftmaxWithLoss"
bottom: "loss1/classifier"
bottom: "label"
top: "loss1/loss"
loss_weight: 0.3
}
layer {
name: "loss1/top-1"
type: "Accuracy"
bottom: "loss1/classifier"
bottom: "label"
top: "loss1/accuracy"
include {
phase: TEST
}
}
layer {
name: "inception_4b/1x1"
type: "Convolution"
bottom: "inception_4a/output"
top: "inception_4b/1x1"
param {
lr_mult: 1
decay_mult: 1
}
param {
lr_mult: 2
decay_mult: 0
}
convolution_param {
num_output: 160
kernel_size: 1
weight_filler {
type: "xavier"
std: 0.03
}
bias_filler {
type: "constant"
value: 0.2
}
}
}
layer {
name: "inception_4b/relu_1x1"
type: "ReLU"
bottom: "inception_4b/1x1"
top: "inception_4b/1x1"
}
layer {
name: "inception_4b/3x3_reduce"
type: "Convolution"
bottom: "inception_4a/output"
top: "inception_4b/3x3_reduce"
param {
lr_mult: 1
decay_mult: 1
}
param {
lr_mult: 2
decay_mult: 0
}
convolution_param {
num_output: 112
kernel_size: 1
weight_filler {
type: "xavier"
std: 0.09
}
bias_filler {
type: "constant"
value: 0.2
}
}
}
layer {
name: "inception_4b/relu_3x3_reduce"
type: "ReLU"
bottom: "inception_4b/3x3_reduce"
top: "inception_4b/3x3_reduce"
}
layer {
name: "inception_4b/3x3"
type: "Convolution"
bottom: "inception_4b/3x3_reduce"
top: "inception_4b/3x3"
param {
lr_mult: 1
decay_mult: 1
}
param {
lr_mult: 2
decay_mult: 0
}
convolution_param {
num_output: 224
pad: 1
kernel_size: 3
weight_filler {
type: "xavier"
std: 0.03
}
bias_filler {
type: "constant"
value: 0.2
}
}
}
layer {
name: "inception_4b/relu_3x3"
type: "ReLU"
bottom: "inception_4b/3x3"
top: "inception_4b/3x3"
}
layer {
name: "inception_4b/5x5_reduce"
type: "Convolution"
bottom: "inception_4a/output"
top: "inception_4b/5x5_reduce"
param {
lr_mult: 1
decay_mult: 1
}
param {
lr_mult: 2
decay_mult: 0
}
convolution_param {
num_output: 24
kernel_size: 1
weight_filler {
type: "xavier"
std: 0.2
}
bias_filler {
type: "constant"
value: 0.2
}
}
}
layer {
name: "inception_4b/relu_5x5_reduce"
type: "ReLU"
bottom: "inception_4b/5x5_reduce"
top: "inception_4b/5x5_reduce"
}
layer {
name: "inception_4b/5x5"
type: "Convolution"
bottom: "inception_4b/5x5_reduce"
top: "inception_4b/5x5"
param {
lr_mult: 1
decay_mult: 1
}
param {
lr_mult: 2
decay_mult: 0
}
convolution_param {
num_output: 64
pad: 2
kernel_size: 5
weight_filler {
type: "xavier"
std: 0.03
}
bias_filler {
type: "constant"
value: 0.2
}
}
}
layer {
name: "inception_4b/relu_5x5"
type: "ReLU"
bottom: "inception_4b/5x5"
top: "inception_4b/5x5"
}
layer {
name: "inception_4b/pool"
type: "Pooling"
bottom: "inception_4a/output"
top: "inception_4b/pool"
pooling_param {
pool: MAX
kernel_size: 3
stride: 1
pad: 1
}
}
layer {
name: "inception_4b/pool_proj"
type: "Convolution"
bottom: "inception_4b/pool"
top: "inception_4b/pool_proj"
param {
lr_mult: 1
decay_mult: 1
}
param {
lr_mult: 2
decay_mult: 0
}
convolution_param {
num_output: 64
kernel_size: 1
weight_filler {
type: "xavier"
std: 0.1
}
bias_filler {
type: "constant"
value: 0.2
}
}
}
layer {
name: "inception_4b/relu_pool_proj"
type: "ReLU"
bottom: "inception_4b/pool_proj"
top: "inception_4b/pool_proj"
}
layer {
name: "inception_4b/output"
type: "Concat"
bottom: "inception_4b/1x1"
bottom: "inception_4b/3x3"
bottom: "inception_4b/5x5"
bottom: "inception_4b/pool_proj"
top: "inception_4b/output"
}
layer {
name: "inception_4c/1x1"
type: "Convolution"
bottom: "inception_4b/output"
top: "inception_4c/1x1"
param {
lr_mult: 1
decay_mult: 1
}
param {
lr_mult: 2
decay_mult: 0
}
convolution_param {
num_output: 128
kernel_size: 1
weight_filler {
type: "xavier"
std: 0.03
}
bias_filler {
type: "constant"
value: 0.2
}
}
}
layer {
name: "inception_4c/relu_1x1"
type: "ReLU"
bottom: "inception_4c/1x1"
top: "inception_4c/1x1"
}
layer {
name: "inception_4c/3x3_reduce"
type: "Convolution"
bottom: "inception_4b/output"
top: "inception_4c/3x3_reduce"
param {
lr_mult: 1
decay_mult: 1
}
param {
lr_mult: 2
decay_mult: 0
}
convolution_param {
num_output: 128
kernel_size: 1
weight_filler {
type: "xavier"
std: 0.09
}
bias_filler {
type: "constant"
value: 0.2
}
}
}
layer {
name: "inception_4c/relu_3x3_reduce"
type: "ReLU"
bottom: "inception_4c/3x3_reduce"
top: "inception_4c/3x3_reduce"
}
layer {
name: "inception_4c/3x3"
type: "Convolution"
bottom: "inception_4c/3x3_reduce"
top: "inception_4c/3x3"
param {
lr_mult: 1
decay_mult: 1
}
param {
lr_mult: 2
decay_mult: 0
}
convolution_param {
num_output: 256
pad: 1
kernel_size: 3
weight_filler {
type: "xavier"
std: 0.03
}
bias_filler {
type: "constant"
value: 0.2
}
}
}
layer {
name: "inception_4c/relu_3x3"
type: "ReLU"
bottom: "inception_4c/3x3"
top: "inception_4c/3x3"
}
layer {
name: "inception_4c/5x5_reduce"
type: "Convolution"
bottom: "inception_4b/output"
top: "inception_4c/5x5_reduce"
param {
lr_mult: 1
decay_mult: 1
}
param {
lr_mult: 2
decay_mult: 0
}
convolution_param {
num_output: 24
kernel_size: 1
weight_filler {
type: "xavier"
std: 0.2
}
bias_filler {
type: "constant"
value: 0.2
}
}
}
layer {
name: "inception_4c/relu_5x5_reduce"
type: "ReLU"
bottom: "inception_4c/5x5_reduce"
top: "inception_4c/5x5_reduce"
}
layer {
name: "inception_4c/5x5"
type: "Convolution"
bottom: "inception_4c/5x5_reduce"
top: "inception_4c/5x5"
param {
lr_mult: 1
decay_mult: 1
}
param {
lr_mult: 2
decay_mult: 0
}
convolution_param {
num_output: 64
pad: 2
kernel_size: 5
weight_filler {
type: "xavier"
std: 0.03
}
bias_filler {
type: "constant"
value: 0.2
}
}
}
layer {
name: "inception_4c/relu_5x5"
type: "ReLU"
bottom: "inception_4c/5x5"
top: "inception_4c/5x5"
}
layer {
name: "inception_4c/pool"
type: "Pooling"
bottom: "inception_4b/output"
top: "inception_4c/pool"
pooling_param {
pool: MAX
kernel_size: 3
stride: 1
pad: 1
}
}
layer {
name: "inception_4c/pool_proj"
type: "Convolution"
bottom: "inception_4c/pool"
top: "inception_4c/pool_proj"
param {
lr_mult: 1
decay_mult: 1
}
param {
lr_mult: 2
decay_mult: 0
}
convolution_param {
num_output: 64
kernel_size: 1
weight_filler {
type: "xavier"
std: 0.1
}
bias_filler {
type: "constant"
value: 0.2
}
}
}
layer {
name: "inception_4c/relu_pool_proj"
type: "ReLU"
bottom: "inception_4c/pool_proj"
top: "inception_4c/pool_proj"
}
layer {
name: "inception_4c/output"
type: "Concat"
bottom: "inception_4c/1x1"
bottom: "inception_4c/3x3"
bottom: "inception_4c/5x5"
bottom: "inception_4c/pool_proj"
top: "inception_4c/output"
}
layer {
name: "inception_4d/1x1"
type: "Convolution"
bottom: "inception_4c/output"
top: "inception_4d/1x1"
param {
lr_mult: 1
decay_mult: 1
}
param {
lr_mult: 2
decay_mult: 0
}
convolution_param {
num_output: 112
kernel_size: 1
weight_filler {
type: "xavier"
std: 0.03
}
bias_filler {
type: "constant"
value: 0.2
}
}
}
…
I0806 20:29:19.447489   221 layer_factory.hpp:77] Creating layer inception_4c/relu_5x5
I0806 20:29:19.447499   221 net.cpp:94] Creating Layer inception_4c/relu_5x5
I0806 20:29:19.447510   221 net.cpp:435] inception_4c/relu_5x5 <- inception_4c/5x5
I0806 20:29:19.447520   221 net.cpp:396] inception_4c/relu_5x5 -> inception_4c/5x5 (in-place)
I0806 20:29:19.447533   221 net.cpp:144] Setting up inception_4c/relu_5x5
I0806 20:29:19.447542   221 net.cpp:151] Top shape: 64 64 14 14 (802816)
I0806 20:29:19.447551   221 net.cpp:159] Memory required for data: 2802552840
I0806 20:29:19.447559   221 layer_factory.hpp:77] Creating layer inception_4c/pool
I0806 20:29:19.447571   221 net.cpp:94] Creating Layer inception_4c/pool
I0806 20:29:19.447579   221 net.cpp:435] inception_4c/pool <- inception_4b/output_inception_4b/output_0_split_3
I0806 20:29:19.447590   221 net.cpp:409] inception_4c/pool -> inception_4c/pool
I0806 20:29:19.447645   221 net.cpp:144] Setting up inception_4c/pool
I0806 20:29:19.447657   221 net.cpp:151] Top shape: 64 512 14 14 (6422528)
I0806 20:29:19.447665   221 net.cpp:159] Memory required for data: 2828242952
I0806 20:29:19.447674   221 layer_factory.hpp:77] Creating layer inception_4c/pool_proj
I0806 20:29:19.447688   221 net.cpp:94] Creating Layer inception_4c/pool_proj
I0806 20:29:19.447697   221 net.cpp:435] inception_4c/pool_proj <- inception_4c/pool
I0806 20:29:19.447710   221 net.cpp:409] inception_4c/pool_proj -> inception_4c/pool_proj
I0806 20:29:19.448159   221 net.cpp:144] Setting up inception_4c/pool_proj
I0806 20:29:19.448174   221 net.cpp:151] Top shape: 64 64 14 14 (802816)
I0806 20:29:19.448182   221 net.cpp:159] Memory required for data: 2831454216
I0806 20:29:19.448194   221 layer_factory.hpp:77] Creating layer inception_4c/relu_pool_proj
I0806 20:29:19.448205   221 net.cpp:94] Creating Layer inception_4c/relu_pool_proj
I0806 20:29:19.448215   221 net.cpp:435] inception_4c/relu_pool_proj <- inception_4c/pool_proj
I0806 20:29:19.448225   221 net.cpp:396] inception_4c/relu_pool_proj -> inception_4c/pool_proj (in-place)
I0806 20:29:19.448238   221 net.cpp:144] Setting up inception_4c/relu_pool_proj
I0806 20:29:19.448248   221 net.cpp:151] Top shape: 64 64 14 14 (802816)
I0806 20:29:19.448256   221 net.cpp:159] Memory required for data: 2834665480
I0806 20:29:19.448264   221 layer_factory.hpp:77] Creating layer inception_4c/output
I0806 20:29:19.448276   221 net.cpp:94] Creating Layer inception_4c/output
I0806 20:29:19.448283   221 net.cpp:435] inception_4c/output <- inception_4c/1x1
I0806 20:29:19.448293   221 net.cpp:435] inception_4c/output <- inception_4c/3x3
I0806 20:29:19.448302   221 net.cpp:435] inception_4c/output <- inception_4c/5x5
I0806 20:29:19.448312   221 net.cpp:435] inception_4c/output <- inception_4c/pool_proj
I0806 20:29:19.448324   221 net.cpp:409] inception_4c/output -> inception_4c/output
I0806 20:29:19.448364   221 net.cpp:144] Setting up inception_4c/output
I0806 20:29:19.448375   221 net.cpp:151] Top shape: 64 512 14 14 (6422528)
I0806 20:29:19.448384   221 net.cpp:159] Memory required for data: 2860355592
I0806 20:29:19.448392   221 layer_factory.hpp:77] Creating layer inception_4c/output_inception_4c/output_0_split
I0806 20:29:19.448405   221 net.cpp:94] Creating Layer inception_4c/output_inception_4c/output_0_split
I0806 20:29:19.448413   221 net.cpp:435] inception_4c/output_inception_4c/output_0_split <- inception_4c/output
I0806 20:29:19.448424   221 net.cpp:409] inception_4c/output_inception_4c/output_0_split -> inception_4c/output_inception_4c/output_0_split_0
I0806 20:29:19.448437   221 net.cpp:409] inception_4c/output_inception_4c/output_0_split -> inception_4c/output_inception_4c/output_0_split_1
I0806 20:29:19.448449   221 net.cpp:409] inception_4c/output_inception_4c/output_0_split -> inception_4c/output_inception_4c/output_0_split_2
I0806 20:29:19.448460   221 net.cpp:409] inception_4c/output_inception_4c/output_0_split -> inception_4c/output_inception_4c/output_0_split_3
I0806 20:29:19.448545   221 net.cpp:144] Setting up inception_4c/output_inception_4c/output_0_split
I0806 20:29:19.448559   221 net.cpp:151] Top shape: 64 512 14 14 (6422528)
I0806 20:29:19.448568   221 net.cpp:151] Top shape: 64 512 14 14 (6422528)
I0806 20:29:19.448577   221 net.cpp:151] Top shape: 64 512 14 14 (6422528)
I0806 20:29:19.448586   221 net.cpp:151] Top shape: 64 512 14 14 (6422528)
I0806 20:29:19.448595   221 net.cpp:159] Memory required for data: 2963116040
I0806 20:29:19.448602   221 layer_factory.hpp:77] Creating layer inception_4d/1x1
I0806 20:29:19.448616   221 net.cpp:94] Creating Layer inception_4d/1x1
I0806 20:29:19.448624   221 net.cpp:435] inception_4d/1x1 <- inception_4c/output_inception_4c/output_0_split_0
I0806 20:29:19.448637   221 net.cpp:409] inception_4d/1x1 -> inception_4d/1x1
I0806 20:29:19.449254   221 net.cpp:144] Setting up inception_4d/1x1
I0806 20:29:19.449270   221 net.cpp:151] Top shape: 64 112 14 14 (1404928)
I0806 20:29:19.449280   221 net.cpp:159] Memory required for data: 2968735752
I0806 20:29:19.449290   221 layer_factory.hpp:77] Creating layer inception_4d/relu_1x1
I0806 20:29:19.449302   221 net.cpp:94] Creating Layer inception_4d/relu_1x1
I0806 20:29:19.449312   221 net.cpp:435] inception_4d/relu_1x1 <- inception_4d/1x1
I0806 20:29:19.449323   221 net.cpp:396] inception_4d/relu_1x1 -> inception_4d/1x1 (in-place)
I0806 20:29:19.449337   221 net.cpp:144] Setting up inception_4d/relu_1x1
I0806 20:29:19.449347   221 net.cpp:151] Top shape: 64 112 14 14 (1404928)
I0806 20:29:19.449354   221 net.cpp:159] Memory required for data: 2974355464
I0806 20:29:19.449362   221 layer_factory.hpp:77] Creating layer inception_4d/3x3_reduce
I0806 20:29:19.449376   221 net.cpp:94] Creating Layer inception_4d/3x3_reduce
I0806 20:29:19.449385   221 net.cpp:435] inception_4d/3x3_reduce <- inception_4c/output_inception_4c/output_0_split_1
I0806 20:29:19.449398   221 net.cpp:409] inception_4d/3x3_reduce -> inception_4d/3x3_reduce
I0806 20:29:19.450105   221 net.cpp:144] Setting up inception_4d/3x3_reduce
I0806 20:29:19.450119   221 net.cpp:151] Top shape: 64 144 14 14 (1806336)
I0806 20:29:19.450129   221 net.cpp:159] Memory required for data: 2981580808
I0806 20:29:19.450139   221 layer_factory.hpp:77] Creating layer inception_4d/relu_3x3_reduce
I0806 20:29:19.450150   221 net.cpp:94] Creating Layer inception_4d/relu_3x3_reduce
I0806 20:29:19.450160   221 net.cpp:435] inception_4d/relu_3x3_reduce <- inception_4d/3x3_reduce
I0806 20:29:19.450171   221 net.cpp:396] inception_4d/relu_3x3_reduce -> inception_4d/3x3_reduce (in-place)
I0806 20:29:19.450183   221 net.cpp:144] Setting up inception_4d/relu_3x3_reduce
I0806 20:29:19.450193   221 net.cpp:151] Top shape: 64 144 14 14 (1806336)
I0806 20:29:19.450201   221 net.cpp:159] Memory required for data: 2988806152
I0806 20:29:19.450211   221 layer_factory.hpp:77] Creating layer inception_4d/3x3
I0806 20:29:19.450224   221 net.cpp:94] Creating Layer inception_4d/3x3
I0806 20:29:19.450233   221 net.cpp:435] inception_4d/3x3 <- inception_4d/3x3_reduce
I0806 20:29:19.450245   221 net.cpp:409] inception_4d/3x3 -> inception_4d/3x3
I0806 20:29:19.453335   221 net.cpp:144] Setting up inception_4d/3x3
I0806 20:29:19.453353   221 net.cpp:151] Top shape: 64 288 14 14 (3612672)
I0806 20:29:19.453361   221 net.cpp:159] Memory required for data: 3003256840
I0806 20:29:19.453373   221 layer_factory.hpp:77] Creating layer inception_4d/relu_3x3
I0806 20:29:19.453385   221 net.cpp:94] Creating Layer inception_4d/relu_3x3
I0806 20:29:19.453395   221 net.cpp:435] inception_4d/relu_3x3 <- inception_4d/3x3
I0806 20:29:19.453407   221 net.cpp:396] inception_4d/relu_3x3 -> inception_4d/3x3 (in-place)
I0806 20:29:19.453436   221 net.cpp:144] Setting up inception_4d/relu_3x3
I0806 20:29:19.453445   221 net.cpp:151] Top shape: 64 288 14 14 (3612672)
I0806 20:29:19.453454   221 net.cpp:159] Memory required for data: 3017707528
I0806 20:29:19.453461   221 layer_factory.hpp:77] Creating layer inception_4d/5x5_reduce
I0806 20:29:19.453490   221 net.cpp:94] Creating Layer inception_4d/5x5_reduce
I0806 20:29:19.453516   221 net.cpp:435] inception_4d/5x5_reduce <- inception_4c/output_inception_4c/output_0_split_2
I0806 20:29:19.453528   221 net.cpp:409] inception_4d/5x5_reduce -> inception_4d/5x5_reduce
I0806 20:29:19.453917   221 net.cpp:144] Setting up inception_4d/5x5_reduce
I0806 20:29:19.453933   221 net.cpp:151] Top shape: 64 32 14 14 (401408)
I0806 20:29:19.453940   221 net.cpp:159] Memory required for data: 3019313160
I0806 20:29:19.453953   221 layer_factory.hpp:77] Creating layer inception_4d/relu_5x5_reduce
I0806 20:29:19.453963   221 net.cpp:94] Creating Layer inception_4d/relu_5x5_reduce
I0806 20:29:19.453972   221 net.cpp:435] inception_4d/relu_5x5_reduce <- inception_4d/5x5_reduce
I0806 20:29:19.453984   221 net.cpp:396] inception_4d/relu_5x5_reduce -> inception_4d/5x5_reduce (in-place)
I0806 20:29:19.453996   221 net.cpp:144] Setting up inception_4d/relu_5x5_reduce
I0806 20:29:19.454005   221 net.cpp:151] Top shape: 64 32 14 14 (401408)
I0806 20:29:19.454015   221 net.cpp:159] Memory required for data: 3020918792
I0806 20:29:19.454022   221 layer_factory.hpp:77] Creating layer inception_4d/5x5
I0806 20:29:19.454036   221 net.cpp:94] Creating Layer inception_4d/5x5
I0806 20:29:19.454046   221 net.cpp:435] inception_4d/5x5 <- inception_4d/5x5_reduce
I0806 20:29:19.454057   221 net.cpp:409] inception_4d/5x5 -> inception_4d/5x5
I0806 20:29:19.454593   221 net.cpp:144] Setting up inception_4d/5x5
I0806 20:29:19.454607   221 net.cpp:151] Top shape: 64 64 14 14 (802816)
I0806 20:29:19.454615   221 net.cpp:159] Memory required for data: 3024130056
I0806 20:29:19.454627   221 layer_factory.hpp:77] Creating layer inception_4d/relu_5x5
I0806 20:29:19.454638   221 net.cpp:94] Creating Layer inception_4d/relu_5x5
I0806 20:29:19.454648   221 net.cpp:435] inception_4d/relu_5x5 <- inception_4d/5x5
I0806 20:29:19.454658   221 net.cpp:396] inception_4d/relu_5x5 -> inception_4d/5x5 (in-place)
I0806 20:29:19.454670   221 net.cpp:144] Setting up inception_4d/relu_5x5
I0806 20:29:19.454680   221 net.cpp:151] Top shape: 64 64 14 14 (802816)
I0806 20:29:19.454689   221 net.cpp:159] Memory required for data: 3027341320
I0806 20:29:19.454696   221 layer_factory.hpp:77] Creating layer inception_4d/pool
I0806 20:29:19.454707   221 net.cpp:94] Creating Layer inception_4d/pool
I0806 20:29:19.454716   221 net.cpp:435] inception_4d/pool <- inception_4c/output_inception_4c/output_0_split_3
I0806 20:29:19.454727   221 net.cpp:409] inception_4d/pool -> inception_4d/pool
I0806 20:29:19.454794   221 net.cpp:144] Setting up inception_4d/pool
I0806 20:29:19.454807   221 net.cpp:151] Top shape: 64 512 14 14 (6422528)
I0806 20:29:19.454831   221 net.cpp:159] Memory required for data: 3053031432
I0806 20:29:19.454839   221 layer_factory.hpp:77] Creating layer inception_4d/pool_proj
I0806 20:29:19.454854   221 net.cpp:94] Creating Layer inception_4d/pool_proj
I0806 20:29:19.454862   221 net.cpp:435] inception_4d/pool_proj <- inception_4d/pool
I0806 20:29:19.454874   221 net.cpp:409] inception_4d/pool_proj -> inception_4d/pool_proj
I0806 20:29:19.455332   221 net.cpp:144] Setting up inception_4d/pool_proj
I0806 20:29:19.455346   221 net.cpp:151] Top shape: 64 64 14 14 (802816)
I0806 20:29:19.455354   221 net.cpp:159] Memory required for data: 3056242696
I0806 20:29:19.455366   221 layer_factory.hpp:77] Creating layer inception_4d/relu_pool_proj
I0806 20:29:19.455380   221 net.cpp:94] Creating Layer inception_4d/relu_pool_proj
I0806 20:29:19.455406   221 net.cpp:435] inception_4d/relu_pool_proj <- inception_4d/pool_proj
I0806 20:29:19.455418   221 net.cpp:396] inception_4d/relu_pool_proj -> inception_4d/pool_proj (in-place)
I0806 20:29:19.455431   221 net.cpp:144] Setting up inception_4d/relu_pool_proj
I0806 20:29:19.455441   221 net.cpp:151] Top shape: 64 64 14 14 (802816)
I0806 20:29:19.455449   221 net.cpp:159] Memory required for data: 3059453960
I0806 20:29:19.455457   221 layer_factory.hpp:77] Creating layer inception_4d/output
I0806 20:29:19.455482   221 net.cpp:94] Creating Layer inception_4d/output
I0806 20:29:19.455492   221 net.cpp:435] inception_4d/output <- inception_4d/1x1
I0806 20:29:19.455502   221 net.cpp:435] inception_4d/output <- inception_4d/3x3
I0806 20:29:19.455510   221 net.cpp:435] inception_4d/output <- inception_4d/5x5
I0806 20:29:19.455520   221 net.cpp:435] inception_4d/output <- inception_4d/pool_proj
I0806 20:29:19.455545   221 net.cpp:409] inception_4d/output -> inception_4d/output
I0806 20:29:19.455587   221 net.cpp:144] Setting up inception_4d/output
I0806 20:29:19.455600   221 net.cpp:151] Top shape: 64 528 14 14 (6623232)
I0806 20:29:19.455607   221 net.cpp:159] Memory required for data: 3085946888
I0806 20:29:19.455615   221 layer_factory.hpp:77] Creating layer inception_4d/output_inception_4d/output_0_split
I0806 20:29:19.455626   221 net.cpp:94] Creating Layer inception_4d/output_inception_4d/output_0_split
I0806 20:29:19.455636   221 net.cpp:435] inception_4d/output_inception_4d/output_0_split <- inception_4d/output
I0806 20:29:19.455647   221 net.cpp:409] inception_4d/output_inception_4d/output_0_split -> inception_4d/output_inception_4d/output_0_split_0
I0806 20:29:19.455662   221 net.cpp:409] inception_4d/output_inception_4d/output_0_split -> inception_4d/output_inception_4d/output_0_split_1
I0806 20:29:19.455673   221 net.cpp:409] inception_4d/output_inception_4d/output_0_split -> inception_4d/output_inception_4d/output_0_split_2
I0806 20:29:19.455684   221 net.cpp:409] inception_4d/output_inception_4d/output_0_split -> inception_4d/output_inception_4d/output_0_split_3
I0806 20:29:19.455710   221 net.cpp:409] inception_4d/output_inception_4d/output_0_split -> inception_4d/output_inception_4d/output_0_split_4
I0806 20:29:19.455796   221 net.cpp:144] Setting up inception_4d/output_inception_4d/output_0_split
I0806 20:29:19.455808   221 net.cpp:151] Top shape: 64 528 14 14 (6623232)
I0806 20:29:19.455817   221 net.cpp:151] Top shape: 64 528 14 14 (6623232)
I0806 20:29:19.455826   221 net.cpp:151] Top shape: 64 528 14 14 (6623232)
I0806 20:29:19.455835   221 net.cpp:151] Top shape: 64 528 14 14 (6623232)
I0806 20:29:19.455844   221 net.cpp:151] Top shape: 64 528 14 14 (6623232)
I0806 20:29:19.455852   221 net.cpp:159] Memory required for data: 3218411528
I0806 20:29:19.455860   221 layer_factory.hpp:77] Creating layer loss2/ave_pool
I0806 20:29:19.455871   221 net.cpp:94] Creating Layer loss2/ave_pool
I0806 20:29:19.455880   221 net.cpp:435] loss2/ave_pool <- inception_4d/output_inception_4d/output_0_split_0
I0806 20:29:19.455895   221 net.cpp:409] loss2/ave_pool -> loss2/ave_pool
I0806 20:29:19.455937   221 net.cpp:144] Setting up loss2/ave_pool
I0806 20:29:19.455950   221 net.cpp:151] Top shape: 64 528 4 4 (540672)
I0806 20:29:19.455957   221 net.cpp:159] Memory required for data: 3220574216
I0806 20:29:19.455966   221 layer_factory.hpp:77] Creating layer loss2/conv
I0806 20:29:19.455982   221 net.cpp:94] Creating Layer loss2/conv
I0806 20:29:19.455992   221 net.cpp:435] loss2/conv <- loss2/ave_pool
I0806 20:29:19.456003   221 net.cpp:409] loss2/conv -> loss2/conv
I0806 20:29:19.457283   221 net.cpp:144] Setting up loss2/conv
I0806 20:29:19.457301   221 net.cpp:151] Top shape: 64 128 4 4 (131072)
I0806 20:29:19.457309   221 net.cpp:159] Memory required for data: 3221098504
I0806 20:29:19.457321   221 layer_factory.hpp:77] Creating layer loss2/relu_conv
I0806 20:29:19.457335   221 net.cpp:94] Creating Layer loss2/relu_conv
I0806 20:29:19.457345   221 net.cpp:435] loss2/relu_conv <- loss2/conv
I0806 20:29:19.457355   221 net.cpp:396] loss2/relu_conv -> loss2/conv (in-place)
I0806 20:29:19.457368   221 net.cpp:144] Setting up loss2/relu_conv
I0806 20:29:19.457377   221 net.cpp:151] Top shape: 64 128 4 4 (131072)
I0806 20:29:19.457386   221 net.cpp:159] Memory required for data: 3221622792
I0806 20:29:19.457393   221 layer_factory.hpp:77] Creating layer loss2/fc
I0806 20:29:19.457407   221 net.cpp:94] Creating Layer loss2/fc
I0806 20:29:19.457417   221 net.cpp:435] loss2/fc <- loss2/conv
I0806 20:29:19.457427   221 net.cpp:409] loss2/fc -> loss2/fc
I0806 20:29:19.472666   221 net.cpp:144] Setting up loss2/fc
I0806 20:29:19.472687   221 net.cpp:151] Top shape: 64 1024 (65536)
I0806 20:29:19.472695   221 net.cpp:159] Memory required for data: 3221884936
I0806 20:29:19.472707   221 layer_factory.hpp:77] Creating layer loss2/relu_fc
I0806 20:29:19.472718   221 net.cpp:94] Creating Layer loss2/relu_fc
I0806 20:29:19.472728   221 net.cpp:435] loss2/relu_fc <- loss2/fc
I0806 20:29:19.472743   221 net.cpp:396] loss2/relu_fc -> loss2/fc (in-place)
I0806 20:29:19.472756   221 net.cpp:144] Setting up loss2/relu_fc
I0806 20:29:19.472766   221 net.cpp:151] Top shape: 64 1024 (65536)
I0806 20:29:19.472774   221 net.cpp:159] Memory required for data: 3222147080
I0806 20:29:19.472784   221 layer_factory.hpp:77] Creating layer loss2/drop_fc
I0806 20:29:19.472795   221 net.cpp:94] Creating Layer loss2/drop_fc
I0806 20:29:19.472803   221 net.cpp:435] loss2/drop_fc <- loss2/fc
I0806 20:29:19.472813   221 net.cpp:396] loss2/drop_fc -> loss2/fc (in-place)
I0806 20:29:19.472853   221 net.cpp:144] Setting up loss2/drop_fc
I0806 20:29:19.472867   221 net.cpp:151] Top shape: 64 1024 (65536)
I0806 20:29:19.472875   221 net.cpp:159] Memory required for data: 3222409224
I0806 20:29:19.472883   221 layer_factory.hpp:77] Creating layer loss2/classifier
I0806 20:29:19.472895   221 net.cpp:94] Creating Layer loss2/classifier
I0806 20:29:19.472904   221 net.cpp:435] loss2/classifier <- loss2/fc
I0806 20:29:19.472918   221 net.cpp:409] loss2/classifier -> loss2/classifier
I0806 20:29:19.473076   221 net.cpp:144] Setting up loss2/classifier
I0806 20:29:19.473089   221 net.cpp:151] Top shape: 64 3 (192)
I0806 20:29:19.473098   221 net.cpp:159] Memory required for data: 3222409992
I0806 20:29:19.473109   221 layer_factory.hpp:77] Creating layer loss2/classifier_loss2/classifier_0_split
I0806 20:29:19.473124   221 net.cpp:94] Creating Layer loss2/classifier_loss2/classifier_0_split
I0806 20:29:19.473132   221 net.cpp:435] loss2/classifier_loss2/classifier_0_split <- loss2/classifier
I0806 20:29:19.473146   221 net.cpp:409] loss2/classifier_loss2/classifier_0_split -> loss2/classifier_loss2/classifier_0_split_0
I0806 20:29:19.473160   221 net.cpp:409] loss2/classifier_loss2/classifier_0_split -> loss2/classifier_loss2/classifier_0_split_1
I0806 20:29:19.473222   221 net.cpp:144] Setting up loss2/classifier_loss2/classifier_0_split
I0806 20:29:19.473233   221 net.cpp:151] Top shape: 64 3 (192)
I0806 20:29:19.473242   221 net.cpp:151] Top shape: 64 3 (192)
I0806 20:29:19.473250   221 net.cpp:159] Memory required for data: 3222411528
I0806 20:29:19.473258   221 layer_factory.hpp:77] Creating layer loss2/loss
I0806 20:29:19.473269   221 net.cpp:94] Creating Layer loss2/loss
I0806 20:29:19.473279   221 net.cpp:435] loss2/loss <- loss2/classifier_loss2/classifier_0_split_0
I0806 20:29:19.473289   221 net.cpp:435] loss2/loss <- label_val-data_1_split_2
…
I0806 20:29:19.473531   221 net.cpp:144] Setting up loss2/top-1
I0806 20:29:19.473539   221 net.cpp:151] Top shape: (1)
I0806 20:29:19.473547   221 net.cpp:159] Memory required for data: 3222411536
I0806 20:29:19.473556   221 layer_factory.hpp:77] Creating layer inception_4e/1x1
I0806 20:29:19.473572   221 net.cpp:94] Creating Layer inception_4e/1x1
I0806 20:29:19.473597   221 net.cpp:435] inception_4e/1x1 <- inception_4d/output_inception_4d/output_0_split_1
I0806 20:29:19.473609   221 net.cpp:409] inception_4e/1x1 -> inception_4e/1x1
I0806 20:29:19.474617   221 net.cpp:144] Setting up inception_4e/1x1
I0806 20:29:19.474630   221 net.cpp:151] Top shape: 64 256 14 14 (3211264)
I0806 20:29:19.474638   221 net.cpp:159] Memory required for data: 3235256592
I0806 20:29:19.474649   221 layer_factory.hpp:77] Creating layer inception_4e/relu_1x1
I0806 20:29:19.474659   221 net.cpp:94] Creating Layer inception_4e/relu_1x1
I0806 20:29:19.474668   221 net.cpp:435] inception_4e/relu_1x1 <- inception_4e/1x1
I0806 20:29:19.474681   221 net.cpp:396] inception_4e/relu_1x1 -> inception_4e/1x1 (in-place)
I0806 20:29:19.474694   221 net.cpp:144] Setting up inception_4e/relu_1x1
I0806 20:29:19.474704   221 net.cpp:151] Top shape: 64 256 14 14 (3211264)
I0806 20:29:19.474710   221 net.cpp:159] Memory required for data: 3248101648
I0806 20:29:19.474719   221 layer_factory.hpp:77] Creating layer inception_4e/3x3_reduce
I0806 20:29:19.474733   221 net.cpp:94] Creating Layer inception_4e/3x3_reduce
I0806 20:29:19.474742   221 net.cpp:435] inception_4e/3x3_reduce <- inception_4d/output_inception_4d/output_0_split_2
I0806 20:29:19.474756   221 net.cpp:409] inception_4e/3x3_reduce -> inception_4e/3x3_reduce
I0806 20:29:19.476263   221 net.cpp:144] Setting up inception_4e/3x3_reduce
I0806 20:29:19.476281   221 net.cpp:151] Top shape: 64 160 14 14 (2007040)
I0806 20:29:19.476290   221 net.cpp:159] Memory required for data: 3256129808
I0806 20:29:19.476302   221 layer_factory.hpp:77] Creating layer inception_4e/relu_3x3_reduce
I0806 20:29:19.476317   221 net.cpp:94] Creating Layer inception_4e/relu_3x3_reduce
I0806 20:29:19.476327   221 net.cpp:435] inception_4e/relu_3x3_reduce <- inception_4e/3x3_reduce
I0806 20:29:19.476338   221 net.cpp:396] inception_4e/relu_3x3_reduce -> inception_4e/3x3_reduce (in-place)
I0806 20:29:19.476352   221 net.cpp:144] Setting up inception_4e/relu_3x3_reduce
I0806 20:29:19.476361   221 net.cpp:151] Top shape: 64 160 14 14 (2007040)
I0806 20:29:19.476369   221 net.cpp:159] Memory required for data: 3264157968
I0806 20:29:19.476378   221 layer_factory.hpp:77] Creating layer inception_4e/3x3
I0806 20:29:19.476425   221 net.cpp:94] Creating Layer inception_4e/3x3
I0806 20:29:19.476435   221 net.cpp:435] inception_4e/3x3 <- inception_4e/3x3_reduce
I0806 20:29:19.476446   221 net.cpp:409] inception_4e/3x3 -> inception_4e/3x3
I0806 20:29:19.481000   221 net.cpp:144] Setting up inception_4e/3x3
I0806 20:29:19.481019   221 net.cpp:151] Top shape: 64 320 14 14 (4014080)
I0806 20:29:19.481027   221 net.cpp:159] Memory required for data: 3280214288
I0806 20:29:19.481040   221 layer_factory.hpp:77] Creating layer inception_4e/relu_3x3
I0806 20:29:19.481052   221 net.cpp:94] Creating Layer inception_4e/relu_3x3
I0806 20:29:19.481070   221 net.cpp:435] inception_4e/relu_3x3 <- inception_4e/3x3
I0806 20:29:19.481081   221 net.cpp:396] inception_4e/relu_3x3 -> inception_4e/3x3 (in-place)
I0806 20:29:19.481096   221 net.cpp:144] Setting up inception_4e/relu_3x3
I0806 20:29:19.481106   221 net.cpp:151] Top shape: 64 320 14 14 (4014080)
I0806 20:29:19.481114   221 net.cpp:159] Memory required for data: 3296270608
I0806 20:29:19.481122   221 layer_factory.hpp:77] Creating layer inception_4e/5x5_reduce
I0806 20:29:19.481138   221 net.cpp:94] Creating Layer inception_4e/5x5_reduce
I0806 20:29:19.481148   221 net.cpp:435] inception_4e/5x5_reduce <- inception_4d/output_inception_4d/output_0_split_3
I0806 20:29:19.481163   221 net.cpp:409] inception_4e/5x5_reduce -> inception_4e/5x5_reduce
I0806 20:29:19.481514   221 net.cpp:144] Setting up inception_4e/5x5_reduce
I0806 20:29:19.481528   221 net.cpp:151] Top shape: 64 32 14 14 (401408)
I0806 20:29:19.481536   221 net.cpp:159] Memory required for data: 3297876240
I0806 20:29:19.481547   221 layer_factory.hpp:77] Creating layer inception_4e/relu_5x5_reduce
I0806 20:29:19.481559   221 net.cpp:94] Creating Layer inception_4e/relu_5x5_reduce
I0806 20:29:19.481582   221 net.cpp:435] inception_4e/relu_5x5_reduce <- inception_4e/5x5_reduce
I0806 20:29:19.481595   221 net.cpp:396] inception_4e/relu_5x5_reduce -> inception_4e/5x5_reduce (in-place)
I0806 20:29:19.481607   221 net.cpp:144] Setting up inception_4e/relu_5x5_reduce
I0806 20:29:19.481616   221 net.cpp:151] Top shape: 64 32 14 14 (401408)
I0806 20:29:19.481624   221 net.cpp:159] Memory required for data: 3299481872
I0806 20:29:19.481633   221 layer_factory.hpp:77] Creating layer inception_4e/5x5
I0806 20:29:19.481649   221 net.cpp:94] Creating Layer inception_4e/5x5
I0806 20:29:19.481658   221 net.cpp:435] inception_4e/5x5 <- inception_4e/5x5_reduce
I0806 20:29:19.481673   221 net.cpp:409] inception_4e/5x5 -> inception_4e/5x5
I0806 20:29:19.482475   221 net.cpp:144] Setting up inception_4e/5x5
I0806 20:29:19.482491   221 net.cpp:151] Top shape: 64 128 14 14 (1605632)
I0806 20:29:19.482498   221 net.cpp:159] Memory required for data: 3305904400
I0806 20:29:19.482509   221 layer_factory.hpp:77] Creating layer inception_4e/relu_5x5
I0806 20:29:19.482520   221 net.cpp:94] Creating Layer inception_4e/relu_5x5
I0806 20:29:19.482529   221 net.cpp:435] inception_4e/relu_5x5 <- inception_4e/5x5
I0806 20:29:19.482540   221 net.cpp:396] inception_4e/relu_5x5 -> inception_4e/5x5 (in-place)
I0806 20:29:19.482553   221 net.cpp:144] Setting up inception_4e/relu_5x5
I0806 20:29:19.482563   221 net.cpp:151] Top shape: 64 128 14 14 (1605632)
I0806 20:29:19.482570   221 net.cpp:159] Memory required for data: 3312326928
I0806 20:29:19.482578   221 layer_factory.hpp:77] Creating layer inception_4e/pool
I0806 20:29:19.482592   221 net.cpp:94] Creating Layer inception_4e/pool
I0806 20:29:19.482601   221 net.cpp:435] inception_4e/pool <- inception_4d/output_inception_4d/output_0_split_4
I0806 20:29:19.482612   221 net.cpp:409] inception_4e/pool -> inception_4e/pool
I0806 20:29:19.482662   221 net.cpp:144] Setting up inception_4e/pool
I0806 20:29:19.482674   221 net.cpp:151] Top shape: 64 528 14 14 (6623232)
I0806 20:29:19.482682   221 net.cpp:159] Memory required for data: 3338819856
I0806 20:29:19.482691   221 layer_factory.hpp:77] Creating layer inception_4e/pool_proj
I0806 20:29:19.482707   221 net.cpp:94] Creating Layer inception_4e/pool_proj
I0806 20:29:19.482717   221 net.cpp:435] inception_4e/pool_proj <- inception_4e/pool
I0806 20:29:19.482731   221 net.cpp:409] inception_4e/pool_proj -> inception_4e/pool_proj
I0806 20:29:19.483367   221 net.cpp:144] Setting up inception_4e/pool_proj
I0806 20:29:19.483382   221 net.cpp:151] Top shape: 64 128 14 14 (1605632)
I0806 20:29:19.483412   221 net.cpp:159] Memory required for data: 3345242384
I0806 20:29:19.483425   221 layer_factory.hpp:77] Creating layer inception_4e/relu_pool_proj
I0806 20:29:19.483438   221 net.cpp:94] Creating Layer inception_4e/relu_pool_proj
I0806 20:29:19.483448   221 net.cpp:435] inception_4e/relu_pool_proj <- inception_4e/pool_proj
I0806 20:29:19.483459   221 net.cpp:396] inception_4e/relu_pool_proj -> inception_4e/pool_proj (in-place)
I0806 20:29:19.483471   221 net.cpp:144] Setting up inception_4e/relu_pool_proj
I0806 20:29:19.483485   221 net.cpp:151] Top shape: 64 128 14 14 (1605632)
I0806 20:29:19.483494   221 net.cpp:159] Memory required for data: 3351664912
I0806 20:29:19.483501   221 layer_factory.hpp:77] Creating layer inception_4e/output
I0806 20:29:19.483512   221 net.cpp:94] Creating Layer inception_4e/output
I0806 20:29:19.483521   221 net.cpp:435] inception_4e/output <- inception_4e/1x1
I0806 20:29:19.483531   221 net.cpp:435] inception_4e/output <- inception_4e/3x3
I0806 20:29:19.483541   221 net.cpp:435] inception_4e/output <- inception_4e/5x5
I0806 20:29:19.483551   221 net.cpp:435] inception_4e/output <- inception_4e/pool_proj
I0806 20:29:19.483561   221 net.cpp:409] inception_4e/output -> inception_4e/output
I0806 20:29:19.483599   221 net.cpp:144] Setting up inception_4e/output
I0806 20:29:19.483610   221 net.cpp:151] Top shape: 64 832 14 14 (10436608)
I0806 20:29:19.483619   221 net.cpp:159] Memory required for data: 3393411344
I0806 20:29:19.483640   221 layer_factory.hpp:77] Creating layer pool4/3x3_s2
I0806 20:29:19.483654   221 net.cpp:94] Creating Layer pool4/3x3_s2
I0806 20:29:19.483664   221 net.cpp:435] pool4/3x3_s2 <- inception_4e/output
I0806 20:29:19.483676   221 net.cpp:409] pool4/3x3_s2 -> pool4/3x3_s2
I0806 20:29:19.483726   221 net.cpp:144] Setting up pool4/3x3_s2
I0806 20:29:19.483738   221 net.cpp:151] Top shape: 64 832 7 7 (2609152)
I0806 20:29:19.483747   221 net.cpp:159] Memory required for data: 3403847952
I0806 20:29:19.483754   221 layer_factory.hpp:77] Creating layer pool4/3x3_s2_pool4/3x3_s2_0_split
I0806 20:29:19.483767   221 net.cpp:94] Creating Layer pool4/3x3_s2_pool4/3x3_s2_0_split
I0806 20:29:19.483775   221 net.cpp:435] pool4/3x3_s2_pool4/3x3_s2_0_split <- pool4/3x3_s2
I0806 20:29:19.483789   221 net.cpp:409] pool4/3x3_s2_pool4/3x3_s2_0_split -> pool4/3x3_s2_pool4/3x3_s2_0_split_0
I0806 20:29:19.483801   221 net.cpp:409] pool4/3x3_s2_pool4/3x3_s2_0_split -> pool4/3x3_s2_pool4/3x3_s2_0_split_1
I0806 20:29:19.483814   221 net.cpp:409] pool4/3x3_s2_pool4/3x3_s2_0_split -> pool4/3x3_s2_pool4/3x3_s2_0_split_2
I0806 20:29:19.483827   221 net.cpp:409] pool4/3x3_s2_pool4/3x3_s2_0_split -> pool4/3x3_s2_pool4/3x3_s2_0_split_3
I0806 20:29:19.483896   221 net.cpp:144] Setting up pool4/3x3_s2_pool4/3x3_s2_0_split
I0806 20:29:19.483907   221 net.cpp:151] Top shape: 64 832 7 7 (2609152)
I0806 20:29:19.483916   221 net.cpp:151] Top shape: 64 832 7 7 (2609152)
I0806 20:29:19.483925   221 net.cpp:151] Top shape: 64 832 7 7 (2609152)
I0806 20:29:19.483934   221 net.cpp:151] Top shape: 64 832 7 7 (2609152)
I0806 20:29:19.483942   221 net.cpp:159] Memory required for data: 3445594384
I0806 20:29:19.483952   221 layer_factory.hpp:77] Creating layer inception_5a/1x1
I0806 20:29:19.483968   221 net.cpp:94] Creating Layer inception_5a/1x1
I0806 20:29:19.483978   221 net.cpp:435] inception_5a/1x1 <- pool4/3x3_s2_pool4/3x3_s2_0_split_0
I0806 20:29:19.483996   221 net.cpp:409] inception_5a/1x1 -> inception_5a/1x1
I0806 20:29:19.486156   221 net.cpp:144] Setting up inception_5a/1x1
I0806 20:29:19.486174   221 net.cpp:151] Top shape: 64 256 7 7 (802816)
I0806 20:29:19.486183   221 net.cpp:159] Memory required for data: 3448805648
I0806 20:29:19.486196   221 layer_factory.hpp:77] Creating layer inception_5a/relu_1x1
I0806 20:29:19.486207   221 net.cpp:94] Creating Layer inception_5a/relu_1x1
I0806 20:29:19.486217   221 net.cpp:435] inception_5a/relu_1x1 <- inception_5a/1x1
I0806 20:29:19.486232   221 net.cpp:396] inception_5a/relu_1x1 -> inception_5a/1x1 (in-place)
I0806 20:29:19.486245   221 net.cpp:144] Setting up inception_5a/relu_1x1
I0806 20:29:19.486270   221 net.cpp:151] Top shape: 64 256 7 7 (802816)
I0806 20:29:19.486280   221 net.cpp:159] Memory required for data: 3452016912
I0806 20:29:19.486289   221 layer_factory.hpp:77] Creating layer inception_5a/3x3_reduce
I0806 20:29:19.486304   221 net.cpp:94] Creating Layer inception_5a/3x3_reduce
I0806 20:29:19.486313   221 net.cpp:435] inception_5a/3x3_reduce <- pool4/3x3_s2_pool4/3x3_s2_0_split_1
I0806 20:29:19.486325   221 net.cpp:409] inception_5a/3x3_reduce -> inception_5a/3x3_reduce
I0806 20:29:19.487998   221 net.cpp:144] Setting up inception_5a/3x3_reduce
I0806 20:29:19.488019   221 net.cpp:151] Top shape: 64 160 7 7 (501760)
I0806 20:29:19.488029   221 net.cpp:159] Memory required for data: 3454023952
I0806 20:29:19.488040   221 layer_factory.hpp:77] Creating layer inception_5a/relu_3x3_reduce
I0806 20:29:19.488052   221 net.cpp:94] Creating Layer inception_5a/relu_3x3_reduce
I0806 20:29:19.488068   221 net.cpp:435] inception_5a/relu_3x3_reduce <- inception_5a/3x3_reduce
I0806 20:29:19.488080   221 net.cpp:396] inception_5a/relu_3x3_reduce -> inception_5a/3x3_reduce (in-place)
I0806 20:29:19.488095   221 net.cpp:144] Setting up inception_5a/relu_3x3_reduce
I0806 20:29:19.488104   221 net.cpp:151] Top shape: 64 160 7 7 (501760)
I0806 20:29:19.488112   221 net.cpp:159] Memory required for data: 3456030992
I0806 20:29:19.488121   221 layer_factory.hpp:77] Creating layer inception_5a/3x3
I0806 20:29:19.488152   221 net.cpp:94] Creating Layer inception_5a/3x3
I0806 20:29:19.488162   221 net.cpp:435] inception_5a/3x3 <- inception_5a/3x3_reduce
I0806 20:29:19.488176   221 net.cpp:409] inception_5a/3x3 -> inception_5a/3x3
I0806 20:29:19.492005   221 net.cpp:144] Setting up inception_5a/3x3
I0806 20:29:19.492024   221 net.cpp:151] Top shape: 64 320 7 7 (1003520)
I0806 20:29:19.492033   221 net.cpp:159] Memory required for data: 3460045072
I0806 20:29:19.492045   221 layer_factory.hpp:77] Creating layer inception_5a/relu_3x3
I0806 20:29:19.492058   221 net.cpp:94] Creating Layer inception_5a/relu_3x3
I0806 20:29:19.492074   221 net.cpp:435] inception_5a/relu_3x3 <- inception_5a/3x3
I0806 20:29:19.492089   221 net.cpp:396] inception_5a/relu_3x3 -> inception_5a/3x3 (in-place)
I0806 20:29:19.492103   221 net.cpp:144] Setting up inception_5a/relu_3x3
I0806 20:29:19.492113   221 net.cpp:151] Top shape: 64 320 7 7 (1003520)
I0806 20:29:19.492121   221 net.cpp:159] Memory required for data: 3464059152
I0806 20:29:19.492130   221 layer_factory.hpp:77] Creating layer inception_5a/5x5_reduce
I0806 20:29:19.492146   221 net.cpp:94] Creating Layer inception_5a/5x5_reduce
I0806 20:29:19.492154   221 net.cpp:435] inception_5a/5x5_reduce <- pool4/3x3_s2_pool4/3x3_s2_0_split_2
I0806 20:29:19.492169   221 net.cpp:409] inception_5a/5x5_reduce -> inception_5a/5x5_reduce
I0806 20:29:19.493276   221 net.cpp:144] Setting up inception_5a/5x5_reduce
I0806 20:29:19.493294   221 net.cpp:151] Top shape: 64 32 7 7 (100352)
I0806 20:29:19.493301   221 net.cpp:159] Memory required for data: 3464460560
I0806 20:29:19.493314   221 layer_factory.hpp:77] Creating layer inception_5a/relu_5x5_reduce
I0806 20:29:19.493327   221 net.cpp:94] Creating Layer inception_5a/relu_5x5_reduce
I0806 20:29:19.493337   221 net.cpp:435] inception_5a/relu_5x5_reduce <- inception_5a/5x5_reduce
I0806 20:29:19.493348   221 net.cpp:396] inception_5a/relu_5x5_reduce -> inception_5a/5x5_reduce (in-place)
I0806 20:29:19.493361   221 net.cpp:144] Setting up inception_5a/relu_5x5_reduce
I0806 20:29:19.493373   221 net.cpp:151] Top shape: 64 32 7 7 (100352)
I0806 20:29:19.493381   221 net.cpp:159] Memory required for data: 3464861968
I0806 20:29:19.493389   221 layer_factory.hpp:77] Creating layer inception_5a/5x5
I0806 20:29:19.493402   221 net.cpp:94] Creating Layer inception_5a/5x5
I0806 20:29:19.493412   221 net.cpp:435] inception_5a/5x5 <- inception_5a/5x5_reduce
I0806 20:29:19.493425   221 net.cpp:409] inception_5a/5x5 -> inception_5a/5x5
I0806 20:29:19.494238   221 net.cpp:144] Setting up inception_5a/5x5
I0806 20:29:19.494253   221 net.cpp:151] Top shape: 64 128 7 7 (401408)
I0806 20:29:19.494261   221 net.cpp:159] Memory required for data: 3466467600
I0806 20:29:19.494272   221 layer_factory.hpp:77] Creating layer inception_5a/relu_5x5
I0806 20:29:19.494283   221 net.cpp:94] Creating Layer inception_5a/relu_5x5
I0806 20:29:19.494293   221 net.cpp:435] inception_5a/relu_5x5 <- inception_5a/5x5
I0806 20:29:19.494307   221 net.cpp:396] inception_5a/relu_5x5 -> inception_5a/5x5 (in-place)
I0806 20:29:19.494319   221 net.cpp:144] Setting up inception_5a/relu_5x5
I0806 20:29:19.494328   221 net.cpp:151] Top shape: 64 128 7 7 (401408)
I0806 20:29:19.494336   221 net.cpp:159] Memory required for data: 3468073232
I0806 20:29:19.494345   221 layer_factory.hpp:77] Creating layer inception_5a/pool
I0806 20:29:19.494355   221 net.cpp:94] Creating Layer inception_5a/pool
I0806 20:29:19.494365   221 net.cpp:435] inception_5a/pool <- pool4/3x3_s2_pool4/3x3_s2_0_split_3
I0806 20:29:19.494375   221 net.cpp:409] inception_5a/pool -> inception_5a/pool
I0806 20:29:19.494457   221 net.cpp:144] Setting up inception_5a/pool
I0806 20:29:19.494470   221 net.cpp:151] Top shape: 64 832 7 7 (2609152)
I0806 20:29:19.494478   221 net.cpp:159] Memory required for data: 3478509840
I0806 20:29:19.494487   221 layer_factory.hpp:77] Creating layer inception_5a/pool_proj
I0806 20:29:19.494499   221 net.cpp:94] Creating Layer inception_5a/pool_proj
I0806 20:29:19.494508   221 net.cpp:435] inception_5a/pool_proj <- inception_5a/pool
I0806 20:29:19.494535   221 net.cpp:409] inception_5a/pool_proj -> inception_5a/pool_proj
I0806 20:29:19.496111   221 net.cpp:144] Setting up inception_5a/pool_proj
I0806 20:29:19.496129   221 net.cpp:151] Top shape: 64 128 7 7 (401408)
I0806 20:29:19.496139   221 net.cpp:159] Memory required for data: 3480115472
I0806 20:29:19.496150   221 layer_factory.hpp:77] Creating layer inception_5a/relu_pool_proj
I0806 20:29:19.496161   221 net.cpp:94] Creating Layer inception_5a/relu_pool_proj
I0806 20:29:19.496171   221 net.cpp:435] inception_5a/relu_pool_proj <- inception_5a/pool_proj
I0806 20:29:19.496186   221 net.cpp:396] inception_5a/relu_pool_proj -> inception_5a/pool_proj (in-place)
I0806 20:29:19.496199   221 net.cpp:144] Setting up inception_5a/relu_pool_proj
I0806 20:29:19.496209   221 net.cpp:151] Top shape: 64 128 7 7 (401408)
I0806 20:29:19.496217   221 net.cpp:159] Memory required for data: 3481721104
I0806 20:29:19.496225   221 layer_factory.hpp:77] Creating layer inception_5a/output
I0806 20:29:19.496237   221 net.cpp:94] Creating Layer inception_5a/output
I0806 20:29:19.496244   221 net.cpp:435] inception_5a/output <- inception_5a/1x1
I0806 20:29:19.496254   221 net.cpp:435] inception_5a/output <- inception_5a/3x3
I0806 20:29:19.496264   221 net.cpp:435] inception_5a/output <- inception_5a/5x5
I0806 20:29:19.496273   221 net.cpp:435] inception_5a/output <- inception_5a/pool_proj
I0806 20:29:19.496287   221 net.cpp:409] inception_5a/output -> inception_5a/output
I0806 20:29:19.496325   221 net.cpp:144] Setting up inception_5a/output
I0806 20:29:19.496337   221 net.cpp:151] Top shape: 64 832 7 7 (2609152)
I0806 20:29:19.496345   221 net.cpp:159] Memory required for data: 3492157712
I0806 20:29:19.496353   221 layer_factory.hpp:77] Creating layer inception_5a/output_inception_5a/output_0_split
I0806 20:29:19.496364   221 net.cpp:94] Creating Layer inception_5a/output_inception_5a/output_0_split
I0806 20:29:19.496373   221 net.cpp:435] inception_5a/output_inception_5a/output_0_split <- inception_5a/output
I0806 20:29:19.496387   221 net.cpp:409] inception_5a/output_inception_5a/output_0_split -> inception_5a/output_inception_5a/output_0_split_0
I0806 20:29:19.496400   221 net.cpp:409] inception_5a/output_inception_5a/output_0_split -> inception_5a/output_inception_5a/output_0_split_1
I0806 20:29:19.496412   221 net.cpp:409] inception_5a/output_inception_5a/output_0_split -> inception_5a/output_inception_5a/output_0_split_2
I0806 20:29:19.496425   221 net.cpp:409] inception_5a/output_inception_5a/output_0_split -> inception_5a/output_inception_5a/output_0_split_3
I0806 20:29:19.496503   221 net.cpp:144] Setting up inception_5a/output_inception_5a/output_0_split
I0806 20:29:19.496515   221 net.cpp:151] Top shape: 64 832 7 7 (2609152)
I0806 20:29:19.496523   221 net.cpp:151] Top shape: 64 832 7 7 (2609152)
I0806 20:29:19.496532   221 net.cpp:151] Top shape: 64 832 7 7 (2609152)
I0806 20:29:19.496541   221 net.cpp:151] Top shape: 64 832 7 7 (2609152)
I0806 20:29:19.496551   221 net.cpp:159] Memory required for data: 3533904144
I0806 20:29:19.496558   221 layer_factory.hpp:77] Creating layer inception_5b/1x1
I0806 20:29:19.496574   221 net.cpp:94] Creating Layer inception_5b/1x1
I0806 20:29:19.496584   221 net.cpp:435] inception_5b/1x1 <- inception_5a/output_inception_5a/output_0_split_0
I0806 20:29:19.496598   221 net.cpp:409] inception_5b/1x1 -> inception_5b/1x1
I0806 20:29:19.499325   221 net.cpp:144] Setting up inception_5b/1x1
I0806 20:29:19.499341   221 net.cpp:151] Top shape: 64 384 7 7 (1204224)
I0806 20:29:19.499351   221 net.cpp:159] Memory required for data: 3538721040
I0806 20:29:19.499377   221 layer_factory.hpp:77] Creating layer inception_5b/relu_1x1
I0806 20:29:19.499404   221 net.cpp:94] Creating Layer inception_5b/relu_1x1
I0806 20:29:19.499415   221 net.cpp:435] inception_5b/relu_1x1 <- inception_5b/1x1
I0806 20:29:19.499430   221 net.cpp:396] inception_5b/relu_1x1 -> inception_5b/1x1 (in-place)
I0806 20:29:19.499444   221 net.cpp:144] Setting up inception_5b/relu_1x1
I0806 20:29:19.499485   221 net.cpp:151] Top shape: 64 384 7 7 (1204224)
I0806 20:29:19.499507   221 net.cpp:159] Memory required for data: 3543537936
I0806 20:29:19.499516   221 layer_factory.hpp:77] Creating layer inception_5b/3x3_reduce
I0806 20:29:19.499533   221 net.cpp:94] Creating Layer inception_5b/3x3_reduce
I0806 20:29:19.499542   221 net.cpp:435] inception_5b/3x3_reduce <- inception_5a/output_inception_5a/output_0_split_1
I0806 20:29:19.499557   221 net.cpp:409] inception_5b/3x3_reduce -> inception_5b/3x3_reduce
I0806 20:29:19.501374   221 net.cpp:144] Setting up inception_5b/3x3_reduce
I0806 20:29:19.501391   221 net.cpp:151] Top shape: 64 192 7 7 (602112)
I0806 20:29:19.501415   221 net.cpp:159] Memory required for data: 3545946384
I0806 20:29:19.501427   221 layer_factory.hpp:77] Creating layer inception_5b/relu_3x3_reduce
I0806 20:29:19.501442   221 net.cpp:94] Creating Layer inception_5b/relu_3x3_reduce
I0806 20:29:19.501452   221 net.cpp:435] inception_5b/relu_3x3_reduce <- inception_5b/3x3_reduce
I0806 20:29:19.501463   221 net.cpp:396] inception_5b/relu_3x3_reduce -> inception_5b/3x3_reduce (in-place)
I0806 20:29:19.501477   221 net.cpp:144] Setting up inception_5b/relu_3x3_reduce
I0806 20:29:19.501487   221 net.cpp:151] Top shape: 64 192 7 7 (602112)
I0806 20:29:19.501495   221 net.cpp:159] Memory required for data: 3548354832
I0806 20:29:19.501503   221 layer_factory.hpp:77] Creating layer inception_5b/3x3
I0806 20:29:19.501520   221 net.cpp:94] Creating Layer inception_5b/3x3
I0806 20:29:19.501529   221 net.cpp:435] inception_5b/3x3 <- inception_5b/3x3_reduce
I0806 20:29:19.501543   221 net.cpp:409] inception_5b/3x3 -> inception_5b/3x3
I0806 20:29:19.506680   221 net.cpp:144] Setting up inception_5b/3x3
I0806 20:29:19.506701   221 net.cpp:151] Top shape: 64 384 7 7 (1204224)
I0806 20:29:19.506711   221 net.cpp:159] Memory required for data: 3553171728
I0806 20:29:19.506722   221 layer_factory.hpp:77] Creating layer inception_5b/relu_3x3
I0806 20:29:19.506733   221 net.cpp:94] Creating Layer inception_5b/relu_3x3
I0806 20:29:19.506743   221 net.cpp:435] inception_5b/relu_3x3 <- inception_5b/3x3
I0806 20:29:19.506753   221 net.cpp:396] inception_5b/relu_3x3 -> inception_5b/3x3 (in-place)
I0806 20:29:19.506767   221 net.cpp:144] Setting up inception_5b/relu_3x3
I0806 20:29:19.506777   221 net.cpp:151] Top shape: 64 384 7 7 (1204224)
I0806 20:29:19.506784   221 net.cpp:159] Memory required for data: 3557988624
I0806 20:29:19.506793   221 layer_factory.hpp:77] Creating layer inception_5b/5x5_reduce
I0806 20:29:19.506808   221 net.cpp:94] Creating Layer inception_5b/5x5_reduce
I0806 20:29:19.506819   221 net.cpp:435] inception_5b/5x5_reduce <- inception_5a/output_inception_5a/output_0_split_2
I0806 20:29:19.506831   221 net.cpp:409] inception_5b/5x5_reduce -> inception_5b/5x5_reduce
I0806 20:29:19.507355   221 net.cpp:144] Setting up inception_5b/5x5_reduce
I0806 20:29:19.507369   221 net.cpp:151] Top shape: 64 48 7 7 (150528)
I0806 20:29:19.507377   221 net.cpp:159] Memory required for data: 3558590736
I0806 20:29:19.507403   221 layer_factory.hpp:77] Creating layer inception_5b/relu_5x5_reduce
I0806 20:29:19.507416   221 net.cpp:94] Creating Layer inception_5b/relu_5x5_reduce
I0806 20:29:19.507426   221 net.cpp:435] inception_5b/relu_5x5_reduce <- inception_5b/5x5_reduce
I0806 20:29:19.507454   221 net.cpp:396] inception_5b/relu_5x5_reduce -> inception_5b/5x5_reduce (in-place)
I0806 20:29:19.507468   221 net.cpp:144] Setting up inception_5b/relu_5x5_reduce
I0806 20:29:19.507478   221 net.cpp:151] Top shape: 64 48 7 7 (150528)
I0806 20:29:19.507486   221 net.cpp:159] Memory required for data: 3559192848
I0806 20:29:19.507494   221 layer_factory.hpp:77] Creating layer inception_5b/5x5
I0806 20:29:19.507510   221 net.cpp:94] Creating Layer inception_5b/5x5
I0806 20:29:19.507519   221 net.cpp:435] inception_5b/5x5 <- inception_5b/5x5_reduce
I0806 20:29:19.507534   221 net.cpp:409] inception_5b/5x5 -> inception_5b/5x5
I0806 20:29:19.508605   221 net.cpp:144] Setting up inception_5b/5x5
I0806 20:29:19.508620   221 net.cpp:151] Top shape: 64 128 7 7 (401408)
I0806 20:29:19.508646   221 net.cpp:159] Memory required for data: 3560798480
I0806 20:29:19.508657   221 layer_factory.hpp:77] Creating layer inception_5b/relu_5x5
I0806 20:29:19.508669   221 net.cpp:94] Creating Layer inception_5b/relu_5x5
I0806 20:29:19.508678   221 net.cpp:435] inception_5b/relu_5x5 <- inception_5b/5x5
I0806 20:29:19.508692   221 net.cpp:396] inception_5b/relu_5x5 -> inception_5b/5x5 (in-place)
I0806 20:29:19.508705   221 net.cpp:144] Setting up inception_5b/relu_5x5
I0806 20:29:19.508714   221 net.cpp:151] Top shape: 64 128 7 7 (401408)
I0806 20:29:19.508723   221 net.cpp:159] Memory required for data: 3562404112
I0806 20:29:19.508731   221 layer_factory.hpp:77] Creating layer inception_5b/pool
I0806 20:29:19.508741   221 net.cpp:94] Creating Layer inception_5b/pool
I0806 20:29:19.508755   221 net.cpp:435] inception_5b/pool <- inception_5a/output_inception_5a/output_0_split_3
I0806 20:29:19.508766   221 net.cpp:409] inception_5b/pool -> inception_5b/pool
I0806 20:29:19.508822   221 net.cpp:144] Setting up inception_5b/pool
I0806 20:29:19.508833   221 net.cpp:151] Top shape: 64 832 7 7 (2609152)
I0806 20:29:19.508841   221 net.cpp:159] Memory required for data: 3572840720
I0806 20:29:19.508850   221 layer_factory.hpp:77] Creating layer inception_5b/pool_proj
I0806 20:29:19.508865   221 net.cpp:94] Creating Layer inception_5b/pool_proj
I0806 20:29:19.508875   221 net.cpp:435] inception_5b/pool_proj <- inception_5b/pool
I0806 20:29:19.508889   221 net.cpp:409] inception_5b/pool_proj -> inception_5b/pool_proj
I0806 20:29:19.511772   221 net.cpp:144] Setting up inception_5b/pool_proj
I0806 20:29:19.511790   221 net.cpp:151] Top shape: 64 128 7 7 (401408)
I0806 20:29:19.511799   221 net.cpp:159] Memory required for data: 3574446352
I0806 20:29:19.511811   221 layer_factory.hpp:77] Creating layer inception_5b/relu_pool_proj
I0806 20:29:19.511826   221 net.cpp:94] Creating Layer inception_5b/relu_pool_proj
I0806 20:29:19.511837   221 net.cpp:435] inception_5b/relu_pool_proj <- inception_5b/pool_proj
I0806 20:29:19.511847   221 net.cpp:396] inception_5b/relu_pool_proj -> inception_5b/pool_proj (in-place)
I0806 20:29:19.511860   221 net.cpp:144] Setting up inception_5b/relu_pool_proj
I0806 20:29:19.511873   221 net.cpp:151] Top shape: 64 128 7 7 (401408)
I0806 20:29:19.511881   221 net.cpp:159] Memory required for data: 3576051984
I0806 20:29:19.511890   221 layer_factory.hpp:77] Creating layer inception_5b/output
I0806 20:29:19.511900   221 net.cpp:94] Creating Layer inception_5b/output
I0806 20:29:19.511909   221 net.cpp:435] inception_5b/output <- inception_5b/1x1
I0806 20:29:19.511919   221 net.cpp:435] inception_5b/output <- inception_5b/3x3
I0806 20:29:19.511929   221 net.cpp:435] inception_5b/output <- inception_5b/5x5
I0806 20:29:19.511939   221 net.cpp:435] inception_5b/output <- inception_5b/pool_proj
I0806 20:29:19.511950   221 net.cpp:409] inception_5b/output -> inception_5b/output
I0806 20:29:19.511987   221 net.cpp:144] Setting up inception_5b/output
I0806 20:29:19.511999   221 net.cpp:151] Top shape: 64 1024 7 7 (3211264)
I0806 20:29:19.512007   221 net.cpp:159] Memory required for data: 3588897040
I0806 20:29:19.512015   221 layer_factory.hpp:77] Creating layer pool5/7x7_s1
I0806 20:29:19.512027   221 net.cpp:94] Creating Layer pool5/7x7_s1
I0806 20:29:19.512035   221 net.cpp:435] pool5/7x7_s1 <- inception_5b/output
I0806 20:29:19.512049   221 net.cpp:409] pool5/7x7_s1 -> pool5/7x7_s1
I0806 20:29:19.512095   221 net.cpp:144] Setting up pool5/7x7_s1
I0806 20:29:19.512107   221 net.cpp:151] Top shape: 64 1024 1 1 (65536)
I0806 20:29:19.512115   221 net.cpp:159] Memory required for data: 3589159184
I0806 20:29:19.512123   221 layer_factory.hpp:77] Creating layer pool5/drop_7x7_s1
I0806 20:29:19.512135   221 net.cpp:94] Creating Layer pool5/drop_7x7_s1
I0806 20:29:19.512143   221 net.cpp:435] pool5/drop_7x7_s1 <- pool5/7x7_s1
I0806 20:29:19.512156   221 net.cpp:396] pool5/drop_7x7_s1 -> pool5/7x7_s1 (in-place)
I0806 20:29:19.512200   221 net.cpp:144] Setting up pool5/drop_7x7_s1
I0806 20:29:19.512225   221 net.cpp:151] Top shape: 64 1024 1 1 (65536)
I0806 20:29:19.512233   221 net.cpp:159] Memory required for data: 3589421328
I0806 20:29:19.512241   221 layer_factory.hpp:77] Creating layer loss3/classifier
I0806 20:29:19.512259   221 net.cpp:94] Creating Layer loss3/classifier
I0806 20:29:19.512269   221 net.cpp:435] loss3/classifier <- pool5/7x7_s1
I0806 20:29:19.512282   221 net.cpp:409] loss3/classifier -> loss3/classifier
I0806 20:29:19.512428   221 net.cpp:144] Setting up loss3/classifier
I0806 20:29:19.512440   221 net.cpp:151] Top shape: 64 3 (192)
I0806 20:29:19.512447   221 net.cpp:159] Memory required for data: 3589422096
I0806 20:29:19.512459   221 layer_factory.hpp:77] Creating layer loss3/classifier_loss3/classifier_0_split
I0806 20:29:19.512470   221 net.cpp:94] Creating Layer loss3/classifier_loss3/classifier_0_split
I0806 20:29:19.512478   221 net.cpp:435] loss3/classifier_loss3/classifier_0_split <- loss3/classifier
I0806 20:29:19.512491   221 net.cpp:409] loss3/classifier_loss3/classifier_0_split -> loss3/classifier_loss3/classifier_0_split_0
I0806 20:29:19.512503   221 net.cpp:409] loss3/classifier_loss3/classifier_0_split -> loss3/classifier_loss3/classifier_0_split_1
I0806 20:29:19.512547   221 net.cpp:144] Setting up loss3/classifier_loss3/classifier_0_split
I0806 20:29:19.512558   221 net.cpp:151] Top shape: 64 3 (192)
I0806 20:29:19.512567   221 net.cpp:151] Top shape: 64 3 (192)
I0806 20:29:19.512574   221 net.cpp:159] Memory required for data: 3589423632
I0806 20:29:19.512583   221 layer_factory.hpp:77] Creating layer loss3/loss
I0806 20:29:19.512593   221 net.cpp:94] Creating Layer loss3/loss
I0806 20:29:19.512601   221 net.cpp:435] loss3/loss <- loss3/classifier_loss3/classifier_0_split_0
I0806 20:29:19.512611   221 net.cpp:435] loss3/loss <- label_val-data_1_split_4
…
