…
I0810 21:05:19.475555   463 net.cpp:52] Initializing net from parameters:
state {
phase: TRAIN
}
layer {
name: "train_data"
type: "Data"
top: "data"
include {
phase: TRAIN
}
transform_param {
mean_file: "/opt/DIGITS/digits/jobs/20180810-202617-c692/train_db/mean.binaryproto"
}
data_param {
source: "/opt/DIGITS/digits/jobs/20180810-202617-c692/train_db/features"
batch_size: 10
backend: LMDB
}
}
layer {
name: "train_label"
type: "Data"
top: "label"
include {
phase: TRAIN
}
data_param {
source: "/opt/DIGITS/digits/jobs/20180810-202617-c692/train_db/labels"
batch_size: 10
backend: LMDB
}
}
layer {
name: "train_transform"
type: "DetectNetTransformation"
bottom: "data"
bottom: "label"
top: "transformed_data"
top: "transformed_label"
include {
phase: TRAIN
}
transform_param {
mean_value: 127
}
detectnet_groundtruth_param {
stride: 16
scale_cvg: 0.4
gridbox_type: GRIDBOX_MIN
min_cvg_len: 20
coverage_type: RECTANGULAR
image_size_x: 640
image_size_y: 640
obj_norm: true
crop_bboxes: false
object_class {
src: 1
dst: 0
}
}
detectnet_augmentation_param {
crop_prob: 1
shift_x: 32
shift_y: 32
scale_prob: 0.4
scale_min: 0.8
scale_max: 1.2
flip_prob: 0.5
rotation_prob: 0
max_rotate_degree: 5
hue_rotation_prob: 0.8
hue_rotation: 30
desaturation_prob: 0.8
desaturation_max: 0.8
}
}
layer {
name: "slice-label"
type: "Slice"
bottom: "transformed_label"
top: "foreground-label"
top: "bbox-label"
top: "size-label"
top: "obj-label"
top: "coverage-label"
slice_param {
slice_dim: 1
slice_point: 1
slice_point: 5
slice_point: 7
slice_point: 8
}
}
layer {
name: "coverage-block"
type: "Concat"
bottom: "foreground-label"
bottom: "foreground-label"
bottom: "foreground-label"
bottom: "foreground-label"
top: "coverage-block"
concat_param {
concat_dim: 1
}
}
layer {
name: "size-block"
type: "Concat"
bottom: "size-label"
bottom: "size-label"
top: "size-block"
concat_param {
concat_dim: 1
}
}
layer {
name: "obj-block"
type: "Concat"
bottom: "obj-label"
bottom: "obj-label"
bottom: "obj-label"
bottom: "obj-label"
top: "obj-block"
concat_param {
concat_dim: 1
}
}
layer {
name: "bb-label-norm"
type: "Eltwise"
bottom: "bbox-label"
bottom: "size-block"
top: "bbox-label-norm"
eltwise_param {
operation: PROD
}
}
layer {
name: "bb-obj-norm"
type: "Eltwise"
bottom: "bbox-label-norm"
bottom: "obj-block"
top: "bbox-obj-label-norm"
eltwise_param {
operation: PROD
}
}
layer {
name: "conv1/7x7_s2"
type: "Convolution"
bottom: "transformed_data"
top: "conv1/7x7_s2"
param {
lr_mult: 1
decay_mult: 1
}
param {
lr_mult: 2
decay_mult: 0
}
convolution_param {
num_output: 64
pad: 3
kernel_size: 7
stride: 2
weight_filler {
type: "xavier"
std: 0.1
}
bias_filler {
type: "constant"
value: 0.2
}
}
}
layer {
name: "conv1/relu_7x7"
type: "ReLU"
bottom: "conv1/7x7_s2"
top: "conv1/7x7_s2"
}
layer {
name: "pool1/3x3_s2"
type: "Pooling"
bottom: "conv1/7x7_s2"
top: "pool1/3x3_s2"
pooling_param {
pool: MAX
kernel_size: 3
stride: 2
}
}
layer {
name: "pool1/norm1"
type: "LRN"
bottom: "pool1/3x3_s2"
top: "pool1/norm1"
lrn_param {
local_size: 5
alpha: 0.0001
beta: 0.75
}
}
layer {
name: "conv2/3x3_reduce"
type: "Convolution"
bottom: "pool1/norm1"
top: "conv2/3x3_reduce"
param {
lr_mult: 1
decay_mult: 1
}
param {
lr_mult: 2
decay_mult: 0
}
convolution_param {
num_output: 64
kernel_size: 1
weight_filler {
type: "xavier"
std: 0.1
}
bias_filler {
type: "constant"
value: 0.2
}
}
}
layer {
name: "conv2/relu_3x3_reduce"
type: "ReLU"
bottom: "conv2/3x3_reduce"
top: "conv2/3x3_reduce"
}
layer {
name: "conv2/3x3"
type: "Convolution"
bottom: "conv2/3x3_reduce"
top: "conv2/3x3"
param {
lr_mult: 1
decay_mult: 1
}
param {
lr_mult: 2
decay_mult: 0
}
convolution_param {
num_output: 192
pad: 1
kernel_size: 3
weight_filler {
type: "xavier"
std: 0.03
}
bias_filler {
type: "constant"
value: 0.2
}
}
}
layer {
name: "conv2/relu_3x3"
type: "ReLU"
bottom: "conv2/3x3"
top: "conv2/3x3"
}
layer {
name: "conv2/norm2"
type: "LRN"
bottom: "conv2/3x3"
top: "conv2/norm2"
lrn_param {
local_size: 5
alpha: 0.0001
beta: 0.75
}
}
layer {
name: "pool2/3x3_s2"
type: "Pooling"
bottom: "conv2/norm2"
top: "pool2/3x3_s2"
pooling_param {
pool: MAX
kernel_size: 3
stride: 2
}
}
layer {
name: "inception_3a/1x1"
type: "Convolution"
bottom: "pool2/3x3_s2"
top: "inception_3a/1x1"
param {
lr_mult: 1
decay_mult: 1
}
param {
lr_mult: 2
decay_mult: 0
}
convolution_param {
num_output: 64
kernel_size: 1
weight_filler {
type: "xavier"
std: 0.03
}
bias_filler {
type: "constant"
value: 0.2
}
}
}
layer {
name: "inception_3a/relu_1x1"
type: "ReLU"
bottom: "inception_3a/1x1"
top: "inception_3a/1x1"
}
layer {
name: "inception_3a/3x3_reduce"
type: "Convolution"
bottom: "pool2/3x3_s2"
top: "inception_3a/3x3_reduce"
param {
lr_mult: 1
decay_mult: 1
}
param {
lr_mult: 2
decay_mult: 0
}
convolution_param {
num_output: 96
kernel_size: 1
weight_filler {
type: "xavier"
std: 0.09
}
bias_filler {
type: "constant"
value: 0.2
}
}
}
layer {
name: "inception_3a/relu_3x3_reduce"
type: "ReLU"
bottom: "inception_3a/3x3_reduce"
top: "inception_3a/3x3_reduce"
}
layer {
name: "inception_3a/3x3"
type: "Convolution"
bottom: "inception_3a/3x3_reduce"
top: "inception_3a/3x3"
param {
lr_mult: 1
decay_mult: 1
}
param {
lr_mult: 2
decay_mult: 0
}
convolution_param {
num_output: 128
pad: 1
kernel_size: 3
weight_filler {
type: "xavier"
std: 0.03
}
bias_filler {
type: "constant"
value: 0.2
}
}
}
layer {
name: "inception_3a/relu_3x3"
type: "ReLU"
bottom: "inception_3a/3x3"
top: "inception_3a/3x3"
}
layer {
name: "inception_3a/5x5_reduce"
type: "Convolution"
bottom: "pool2/3x3_s2"
top: "inception_3a/5x5_reduce"
param {
lr_mult: 1
decay_mult: 1
}
param {
lr_mult: 2
decay_mult: 0
}
convolution_param {
num_output: 16
kernel_size: 1
weight_filler {
type: "xavier"
std: 0.2
}
bias_filler {
type: "constant"
value: 0.2
}
}
}
layer {
name: "inception_3a/relu_5x5_reduce"
type: "ReLU"
bottom: "inception_3a/5x5_reduce"
top: "inception_3a/5x5_reduce"
}
layer {
name: "inception_3a/5x5"
type: "Convolution"
bottom: "inception_3a/5x5_reduce"
top: "inception_3a/5x5"
param {
lr_mult: 1
decay_mult: 1
}
param {
lr_mult: 2
decay_mult: 0
}
convolution_param {
num_output: 32
pad: 2
kernel_size: 5
weight_filler {
type: "xavier"
std: 0.03
}
bias_filler {
type: "constant"
value: 0.2
}
}
}
layer {
name: "inception_3a/relu_5x5"
type: "ReLU"
bottom: "inception_3a/5x5"
top: "inception_3a/5x5"
}
layer {
name: "inception_3a/pool"
type: "Pooling"
bottom: "pool2/3x3_s2"
top: "inception_3a/pool"
pooling_param {
pool: MAX
kernel_size: 3
stride: 1
pad: 1
}
}
layer {
name: "inception_3a/pool_proj"
type: "Convolution"
bottom: "inception_3a/pool"
top: "inception_3a/pool_proj"
param {
lr_mult: 1
decay_mult: 1
}
param {
lr_mult: 2
decay_mult: 0
}
convolution_param {
num_output: 32
kernel_size: 1
weight_filler {
type: "xavier"
std: 0.1
}
bias_filler {
type: "constant"
value: 0.2
}
}
}
layer {
name: "inception_3a/relu_pool_proj"
type: "ReLU"
bottom: "inception_3a/pool_proj"
top: "inception_3a/pool_proj"
}
layer {
name: "inception_3a/output"
type: "Concat"
bottom: "inception_3a/1x1"
bottom: "inception_3a/3x3"
bottom: "inception_3a/5x5"
bottom: "inception_3a/pool_proj"
top: "inception_3a/output"
}
layer {
name: "inception_3b/1x1"
type: "Convolution"
bottom: "inception_3a/output"
top: "inception_3b/1x1"
param {
lr_mult: 1
decay_mult: 1
}
param {
lr_mult: 2
decay_mult: 0
}
convolution_param {
num_output: 128
kernel_size: 1
weight_filler {
type: "xavier"
std: 0.03
}
bias_filler {
type: "constant"
value: 0.2
}
}
}
layer {
name: "inception_3b/relu_1x1"
type: "ReLU"
bottom: "inception_3b/1x1"
top: "inception_3b/1x1"
}
layer {
name: "inception_3b/3x3_reduce"
type: "Convolution"
bottom: "inception_3a/output"
top: "inception_3b/3x3_reduce"
param {
lr_mult: 1
decay_mult: 1
}
param {
lr_mult: 2
decay_mult: 0
}
convolution_param {
num_output: 128
kernel_size: 1
weight_filler {
type: "xavier"
std: 0.09
}
bias_filler {
type: "constant"
value: 0.2
}
}
}
layer {
name: "inception_3b/relu_3x3_reduce"
type: "ReLU"
bottom: "inception_3b/3x3_reduce"
top: "inception_3b/3x3_reduce"
}
layer {
name: "inception_3b/3x3"
type: "Convolution"
bottom: "inception_3b/3x3_reduce"
top: "inception_3b/3x3"
param {
lr_mult: 1
decay_mult: 1
}
param {
lr_mult: 2
decay_mult: 0
}
convolution_param {
num_output: 192
pad: 1
kernel_size: 3
weight_filler {
type: "xavier"
std: 0.03
}
bias_filler {
type: "constant"
value: 0.2
}
}
}
layer {
name: "inception_3b/relu_3x3"
type: "ReLU"
bottom: "inception_3b/3x3"
top: "inception_3b/3x3"
}
layer {
name: "inception_3b/5x5_reduce"
type: "Convolution"
bottom: "inception_3a/output"
top: "inception_3b/5x5_reduce"
param {
lr_mult: 1
decay_mult: 1
}
param {
lr_mult: 2
decay_mult: 0
}
convolution_param {
num_output: 32
kernel_size: 1
weight_filler {
type: "xavier"
std: 0.2
}
bias_filler {
type: "constant"
value: 0.2
}
}
}
layer {
name: "inception_3b/relu_5x5_reduce"
type: "ReLU"
bottom: "inception_3b/5x5_reduce"
top: "inception_3b/5x5_reduce"
}
layer {
name: "inception_3b/5x5"
type: "Convolution"
bottom: "inception_3b/5x5_reduce"
top: "inception_3b/5x5"
param {
lr_mult: 1
decay_mult: 1
}
param {
lr_mult: 2
decay_mult: 0
}
convolution_param {
num_output: 96
pad: 2
kernel_size: 5
weight_filler {
type: "xavier"
std: 0.03
}
bias_filler {
type: "constant"
value: 0.2
}
}
}
layer {
name: "inception_3b/relu_5x5"
type: "ReLU"
bottom: "inception_3b/5x5"
top: "inception_3b/5x5"
}
layer {
name: "inception_3b/pool"
type: "Pooling"
bottom: "inception_3a/output"
top: "inception_3b/pool"
pooling_param {
pool: MAX
kernel_size: 3
stride: 1
pad: 1
}
}
layer {
name: "inception_3b/pool_proj"
type: "Convolution"
bottom: "inception_3b/pool"
top: "inception_3b/pool_proj"
param {
lr_mult: 1
decay_mult: 1
}
param {
lr_mult: 2
decay_mult: 0
}
convolution_param {
num_output: 64
kernel_size: 1
weight_filler {
type: "xavier"
std: 0.1
}
bias_filler {
type: "constant"
value: 0.2
}
}
}
layer {
name: "inception_3b/relu_pool_proj"
type: "ReLU"
bottom: "inception_3b/pool_proj"
top: "inception_3b/pool_proj"
}
layer {
name: "inception_3b/output"
type: "Concat"
bottom: "inception_3b/1x1"
bottom: "inception_3b/3x3"
bottom: "inception_3b/5x5"
bottom: "inception_3b/pool_proj"
top: "inception_3b/output"
}
layer {
name: "pool3/3x3_s2"
type: "Pooling"
bottom: "inception_3b/output"
top: "pool3/3x3_s2"
pooling_param {
pool: MAX
kernel_size: 3
stride: 2
}
}
layer {
name: "inception_4a/1x1"
type: "Convolution"
bottom: "pool3/3x3_s2"
top: "inception_4a/1x1"
param {
lr_mult: 1
decay_mult: 1
}
param {
lr_mult: 2
decay_mult: 0
}
convolution_param {
num_output: 192
kernel_size: 1
weight_filler {
type: "xavier"
std: 0.03
}
bias_filler {
type: "constant"
value: 0.2
}
}
}
layer {
name: "inception_4a/relu_1x1"
type: "ReLU"
bottom: "inception_4a/1x1"
top: "inception_4a/1x1"
}
layer {
name: "inception_4a/3x3_reduce"
type: "Convolution"
bottom: "pool3/3x3_s2"
top: "inception_4a/3x3_reduce"
param {
lr_mult: 1
decay_mult: 1
}
param {
lr_mult: 2
decay_mult: 0
}
convolution_param {
num_output: 96
kernel_size: 1
weight_filler {
type: "xavier"
std: 0.09
}
bias_filler {
type: "constant"
value: 0.2
}
}
}
layer {
name: "inception_4a/relu_3x3_reduce"
type: "ReLU"
bottom: "inception_4a/3x3_reduce"
top: "inception_4a/3x3_reduce"
}
layer {
name: "inception_4a/3x3"
type: "Convolution"
bottom: "inception_4a/3x3_reduce"
top: "inception_4a/3x3"
param {
lr_mult: 1
decay_mult: 1
}
param {
lr_mult: 2
decay_mult: 0
}
convolution_param {
num_output: 208
pad: 1
kernel_size: 3
weight_filler {
type: "xavier"
std: 0.03
}
bias_filler {
type: "constant"
value: 0.2
}
}
}
layer {
name: "inception_4a/relu_3x3"
type: "ReLU"
bottom: "inception_4a/3x3"
top: "inception_4a/3x3"
}
layer {
name: "inception_4a/5x5_reduce"
type: "Convolution"
bottom: "pool3/3x3_s2"
top: "inception_4a/5x5_reduce"
param {
lr_mult: 1
decay_mult: 1
}
param {
lr_mult: 2
decay_mult: 0
}
convolution_param {
num_output: 16
kernel_size: 1
weight_filler {
type: "xavier"
std: 0.2
}
bias_filler {
type: "constant"
value: 0.2
}
}
}
layer {
name: "inception_4a/relu_5x5_reduce"
type: "ReLU"
bottom: "inception_4a/5x5_reduce"
top: "inception_4a/5x5_reduce"
}
layer {
name: "inception_4a/5x5"
type: "Convolution"
bottom: "inception_4a/5x5_reduce"
top: "inception_4a/5x5"
param {
lr_mult: 1
decay_mult: 1
}
param {
lr_mult: 2
decay_mult: 0
}
convolution_param {
num_output: 48
pad: 2
kernel_size: 5
weight_filler {
type: "xavier"
std: 0.03
}
bias_filler {
type: "constant"
value: 0.2
}
}
}
layer {
name: "inception_4a/relu_5x5"
type: "ReLU"
bottom: "inception_4a/5x5"
top: "inception_4a/5x5"
}
layer {
name: "inception_4a/pool"
type: "Pooling"
bottom: "pool3/3x3_s2"
top: "inception_4a/pool"
pooling_param {
pool: MAX
kernel_size: 3
stride: 1
pad: 1
}
}
layer {
name: "inception_4a/pool_proj"
type: "Convolution"
bottom: "inception_4a/pool"
top: "inception_4a/pool_proj"
param {
lr_mult: 1
decay_mult: 1
}
param {
lr_mult: 2
decay_mult: 0
}
convolution_param {
num_output: 64
kernel_size: 1
weight_filler {
type: "xavier"
std: 0.1
}
bias_filler {
type: "constant"
value: 0.2
}
}
}
layer {
name: "inception_4a/relu_pool_proj"
type: "ReLU"
bottom: "inception_4a/pool_proj"
top: "inception_4a/pool_proj"
}
layer {
name: "inception_4a/output"
type: "Concat"
bottom: "inception_4a/1x1"
bottom: "inception_4a/3x3"
bottom: "inception_4a/5x5"
bottom: "inception_4a/pool_proj"
top: "inception_4a/output"
}
layer {
name: "inception_4b/1x1"
type: "Convolution"
bottom: "inception_4a/output"
top: "inception_4b/1x1"
param {
lr_mult: 1
decay_mult: 1
}
param {
lr_mult: 2
decay_mult: 0
}
convolution_param {
num_output: 160
kernel_size: 1
weight_filler {
type: "xavier"
std: 0.03
}
bias_filler {
type: "constant"
value: 0.2
}
}
}
layer {
name: "inception_4b/relu_1x1"
type: "ReLU"
bottom: "inception_4b/1x1"
top: "inception_4b/1x1"
}
layer {
name: "inception_4b/3x3_reduce"
type: "Convolution"
bottom: "inception_4a/output"
top: "inception_4b/3x3_reduce"
param {
lr_mult: 1
decay_mult: 1
}
param {
lr_mult: 2
decay_mult: 0
}
convolution_param {
num_output: 112
kernel_size: 1
weight_filler {
type: "xavier"
std: 0.09
}
bias_filler {
type: "constant"
value: 0.2
}
}
}
layer {
name: "inception_4b/relu_3x3_reduce"
type: "ReLU"
bottom: "inception_4b/3x3_reduce"
top: "inception_4b/3x3_reduce"
}
layer {
name: "inception_4b/3x3"
type: "Convolution"
bottom: "inception_4b/3x3_reduce"
top: "inception_4b/3x3"
param {
lr_mult: 1
decay_mult: 1
}
param {
lr_mult: 2
decay_mult: 0
}
convolution_param {
num_output: 224
pad: 1
kernel_size: 3
weight_filler {
type: "xavier"
std: 0.03
}
bias_filler {
type: "constant"
value: 0.2
}
}
}
layer {
name: "inception_4b/relu_3x3"
type: "ReLU"
bottom: "inception_4b/3x3"
top: "inception_4b/3x3"
}
layer {
name: "inception_4b/5x5_reduce"
type: "Convolution"
bottom: "inception_4a/output"
top: "inception_4b/5x5_reduce"
param {
lr_mult: 1
decay_mult: 1
}
param {
lr_mult: 2
decay_mult: 0
}
convolution_param {
num_output: 24
kernel_size: 1
weight_filler {
type: "xavier"
std: 0.2
}
bias_filler {
type: "constant"
value: 0.2
}
}
}
layer {
name: "inception_4b/relu_5x5_reduce"
type: "ReLU"
bottom: "inception_4b/5x5_reduce"
top: "inception_4b/5x5_reduce"
}
layer {
name: "inception_4b/5x5"
type: "Convolution"
bottom: "inception_4b/5x5_reduce"
top: "inception_4b/5x5"
param {
lr_mult: 1
decay_mult: 1
}
param {
lr_mult: 2
decay_mult: 0
}
convolution_param {
num_output: 64
pad: 2
kernel_size: 5
weight_filler {
type: "xavier"
std: 0.03
}
bias_filler {
type: "constant"
value: 0.2
}
}
}
layer {
name: "inception_4b/relu_5x5"
type: "ReLU"
bottom: "inception_4b/5x5"
top: "inception_4b/5x5"
}
layer {
name: "inception_4b/pool"
type: "Pooling"
bottom: "inception_4a/output"
top: "inception_4b/pool"
pooling_param {
pool: MAX
kernel_size: 3
stride: 1
pad: 1
}
}
layer {
name: "inception_4b/pool_proj"
type: "Convolution"
bottom: "inception_4b/pool"
top: "inception_4b/pool_proj"
param {
lr_mult: 1
decay_mult: 1
}
param {
lr_mult: 2
decay_mult: 0
}
convolution_param {
num_output: 64
kernel_size: 1
weight_filler {
type: "xavier"
std: 0.1
}
bias_filler {
type: "constant"
value: 0.2
}
}
}
layer {
name: "inception_4b/relu_pool_proj"
type: "ReLU"
bottom: "inception_4b/pool_proj"
top: "inception_4b/pool_proj"
}
layer {
name: "inception_4b/output"
type: "Concat"
bottom: "inception_4b/1x1"
bottom: "inception_4b/3x3"
bottom: "inception_4b/5x5"
bottom: "inception_4b/pool_proj"
top: "inception_4b/output"
}
layer {
name: "inception_4c/1x1"
type: "Convolution"
bottom: "inception_4b/output"
top: "inception_4c/1x1"
param {
lr_mult: 1
decay_mult: 1
}
param {
lr_mult: 2
decay_mult: 0
}
convolution_param {
num_output: 128
kernel_size: 1
weight_filler {
type: "xavier"
std: 0.03
}
bias_filler {
type: "constant"
value: 0.2
}
}
}
layer {
name: "inception_4c/relu_1x1"
type: "ReLU"
bottom: "inception_4c/1x1"
top: "inception_4c/1x1"
}
layer {
name: "inception_4c/3x3_reduce"
type: "Convolution"
bottom: "inception_4b/output"
top: "inception_4c/3x3_reduce"
param {
lr_mult: 1
decay_mult: 1
}
param {
lr_mult: 2
decay_mult: 0
}
convolution_param {
num_output: 128
kernel_size: 1
weight_filler {
type: "xavier"
std: 0.09
}
bias_filler {
type: "constant"
value: 0.2
}
}
}
layer {
name: "inception_4c/relu_3x3_reduce"
type: "ReLU"
bottom: "inception_4c/3x3_reduce"
top: "inception_4c/3x3_reduce"
}
layer {
name: "inception_4c/3x3"
type: "Convolution"
bottom: "inception_4c/3x3_reduce"
top: "inception_4c/3x3"
param {
lr_mult: 1
decay_mult: 1
}
param {
lr_mult: 2
decay_mult: 0
}
convolution_param {
num_output: 256
pad: 1
kernel_size: 3
weight_filler {
type: "xavier"
std: 0.03
}
bias_filler {
type: "constant"
value: 0.2
}
}
}
layer {
name: "inception_4c/relu_3x3"
type: "ReLU"
bottom: "inception_4c/3x3"
top: "inception_4c/3x3"
}
layer {
name: "inception_4c/5x5_reduce"
type: "Convolution"
bottom: "inception_4b/output"
top: "inception_4c/5x5_reduce"
param {
lr_mult: 1
decay_mult: 1
}
param {
lr_mult: 2
decay_mult: 0
}
convolution_param {
num_output: 24
kernel_size: 1
weight_filler {
type: "xavier"
std: 0.2
}
bias_filler {
type: "constant"
value: 0.2
}
}
}
layer {
name: "inception_4c/relu_5x5_reduce"
type: "ReLU"
bottom: "inception_4c/5x5_reduce"
top: "inception_4c/5x5_reduce"
}
layer {
name: "inception_4c/5x5"
type: "Convolution"
bottom: "inception_4c/5x5_reduce"
top: "inception_4c/5x5"
param {
lr_mult: 1
decay_mult: 1
}
param {
lr_mult: 2
decay_mult: 0
}
convolution_param {
num_output: 64
pad: 2
kernel_size: 5
weight_filler {
type: "xavier"
std: 0.03
}
bias_filler {
type: "constant"
value: 0.2
}
}
}
layer {
name: "inception_4c/relu_5x5"
type: "ReLU"
bottom: "inception_4c/5x5"
top: "inception_4c/5x5"
}
layer {
name: "inception_4c/pool"
type: "Pooling"
bottom: "inception_4b/output"
top: "inception_4c/pool"
pooling_param {
pool: MAX
kernel_size: 3
stride: 1
pad: 1
}
}
layer {
name: "inception_4c/pool_proj"
type: "Convolution"
bottom: "inception_4c/pool"
top: "inception_4c/pool_proj"
param {
lr_mult: 1
decay_mult: 1
}
param {
lr_mult: 2
decay_mult: 0
}
convolution_param {
num_output: 64
kernel_size: 1
weight_filler {
type: "xavier"
std: 0.1
}
bias_filler {
type: "constant"
value: 0.2
}
}
}
layer {
name: "inception_4c/relu_pool_proj"
type: "ReLU"
bottom: "inception_4c/pool_proj"
top: "inception_4c/pool_proj"
}
layer {
name: "inception_4c/output"
type: "Concat"
bottom: "inception_4c/1x1"
bottom: "inception_4c/3x3"
bottom: "inception_4c/5x5"
bottom: "inception_4c/pool_proj"
top: "inception_4c/output"
}
layer {
name: "inception_4d/1x1"
type: "Convolution"
bottom: "inception_4c/output"
top: "inception_4d/1x1"
param {
lr_mult: 1
decay_mult: 1
}
param {
lr_mult: 2
decay_mult: 0
}
convolution_param {
num_output: 112
kernel_size: 1
weight_filler {
type: "xavier"
std: 0.1
}
bias_filler {
type: "constant"
value: 0.2
}
}
}
layer {
name: "inception_4d/relu_1x1"
type: "ReLU"
bottom: "inception_4d/1x1"
top: "inception_4d/1x1"
}
layer {
name: "inception_4d/3x3_reduce"
type: "Convolution"
bottom: "inception_4c/output"
top: "inception_4d/3x3_reduce"
param {
lr_mult: 1
decay_mult: 1
}
param {
lr_mult: 2
decay_mult: 0
}
convolution_param {
num_output: 144
kernel_size: 1
weight_filler {
type: "xavier"
std: 0.1
}
bias_filler {
type: "constant"
value: 0.2
}
}
}
layer {
name: "inception_4d/relu_3x3_reduce"
type: "ReLU"
bottom: "inception_4d/3x3_reduce"
top: "inception_4d/3x3_reduce"
}
layer {
name: "inception_4d/3x3"
type: "Convolution"
bottom: "inception_4d/3x3_reduce"
top: "inception_4d/3x3"
param {
lr_mult: 1
decay_mult: 1
}
param {
lr_mult: 2
decay_mult: 0
}
convolution_param {
num_output: 288
pad: 1
kernel_size: 3
weight_filler {
type: "xavier"
std: 0.1
}
bias_filler {
type: "constant"
value: 0.2
}
}
}
layer {
name: "inception_4d/relu_3x3"
type: "ReLU"
bottom: "inception_4d/3x3"
top: "inception_4d/3x3"
}
layer {
name: "inception_4d/5x5_reduce"
type: "Convolution"
bottom: "inception_4c/output"
top: "inception_4d/5x5_reduce"
param {
lr_mult: 1
decay_mult: 1
}
param {
lr_mult: 2
decay_mult: 0
}
convolution_param {
num_output: 32
kernel_size: 1
weight_filler {
type: "xavier"
std: 0.1
}
bias_filler {
type: "constant"
value: 0.2
}
}
}
layer {
name: "inception_4d/relu_5x5_reduce"
type: "ReLU"
bottom: "inception_4d/5x5_reduce"
top: "inception_4d/5x5_reduce"
}
layer {
name: "inception_4d/5x5"
type: "Convolution"
bottom: "inception_4d/5x5_reduce"
top: "inception_4d/5x5"
param {
lr_mult: 1
decay_mult: 1
}
param {
lr_mult: 2
decay_mult: 0
}
convolution_param {
num_output: 64
pad: 2
kernel_size: 5
weight_filler {
type: "xavier"
std: 0.1
}
bias_filler {
type: "constant"
value: 0.2
}
}
}
layer {
name: "inception_4d/relu_5x5"
type: "ReLU"
bottom: "inception_4d/5x5"
top: "inception_4d/5x5"
}
layer {
name: "inception_4d/pool"
type: "Pooling"
bottom: "inception_4c/output"
top: "inception_4d/pool"
pooling_param {
pool: MAX
kernel_size: 3
stride: 1
pad: 1
}
}
layer {
name: "inception_4d/pool_proj"
type: "Convolution"
bottom: "inception_4d/pool"
top: "inception_4d/pool_proj"
param {
lr_mult: 1
decay_mult: 1
}
param {
lr_mult: 2
decay_mult: 0
}
convolution_param {
num_output: 64
kernel_size: 1
weight_filler {
type: "xavier"
std: 0.1
}
bias_filler {
type: "constant"
value: 0.2
}
}
}
layer {
name: "inception_4d/relu_pool_proj"
type: "ReLU"
bottom: "inception_4d/pool_proj"
top: "inception_4d/pool_proj"
}
layer {
name: "inception_4d/output"
type: "Concat"
bottom: "inception_4d/1x1"
bottom: "inception_4d/3x3"
bottom: "inception_4d/5x5"
bottom: "inception_4d/pool_proj"
top: "inception_4d/output"
}
layer {
name: "inception_4e/1x1"
type: "Convolution"
bottom: "inception_4d/output"
top: "inception_4e/1x1"
param {
lr_mult: 1
decay_mult: 1
}
param {
lr_mult: 2
decay_mult: 0
}
convolution_param {
num_output: 256
kernel_size: 1
weight_filler {
type: "xavier"
std: 0.03
}
bias_filler {
type: "constant"
value: 0.2
}
}
}
layer {
name: "inception_4e/relu_1x1"
type: "ReLU"
bottom: "inception_4e/1x1"
top: "inception_4e/1x1"
}
layer {
name: "inception_4e/3x3_reduce"
type: "Convolution"
bottom: "inception_4d/output"
top: "inception_4e/3x3_reduce"
param {
lr_mult: 1
decay_mult: 1
}
param {
lr_mult: 2
decay_mult: 0
}
convolution_param {
num_output: 160
kernel_size: 1
weight_filler {
type: "xavier"
std: 0.09
}
bias_filler {
type: "constant"
value: 0.2
}
}
}
layer {
name: "inception_4e/relu_3x3_reduce"
type: "ReLU"
bottom: "inception_4e/3x3_reduce"
top: "inception_4e/3x3_reduce"
}
layer {
name: "inception_4e/3x3"
type: "Convolution"
bottom: "inception_4e/3x3_reduce"
top: "inception_4e/3x3"
param {
lr_mult: 1
decay_mult: 1
}
param {
lr_mult: 2
decay_mult: 0
}
convolution_param {
num_output: 320
pad: 1
kernel_size: 3
weight_filler {
type: "xavier"
std: 0.03
}
bias_filler {
type: "constant"
value: 0.2
}
}
}
layer {
name: "inception_4e/relu_3x3"
type: "ReLU"
bottom: "inception_4e/3x3"
top: "inception_4e/3x3"
}
layer {
name: "inception_4e/5x5_reduce"
type: "Convolution"
bottom: "inception_4d/output"
top: "inception_4e/5x5_reduce"
param {
lr_mult: 1
decay_mult: 1
}
param {
lr_mult: 2
decay_mult: 0
}
convolution_param {
num_output: 32
kernel_size: 1
weight_filler {
type: "xavier"
std: 0.2
}
bias_filler {
type: "constant"
value: 0.2
}
}
}
layer {
name: "inception_4e/relu_5x5_reduce"
type: "ReLU"
bottom: "inception_4e/5x5_reduce"
top: "inception_4e/5x5_reduce"
}
layer {
name: "inception_4e/5x5"
type: "Convolution"
bottom: "inception_4e/5x5_reduce"
top: "inception_4e/5x5"
param {
lr_mult: 1
decay_mult: 1
}
param {
lr_mult: 2
decay_mult: 0
}
convolution_param {
num_output: 128
pad: 2
kernel_size: 5
weight_filler {
type: "xavier"
std: 0.03
}
bias_filler {
type: "constant"
value: 0.2
}
}
}
layer {
name: "inception_4e/relu_5x5"
type: "ReLU"
bottom: "inception_4e/5x5"
top: "inception_4e/5x5"
}
layer {
name: "inception_4e/pool"
type: "Pooling"
bottom: "inception_4d/output"
top: "inception_4e/pool"
pooling_param {
pool: MAX
kernel_size: 3
stride: 1
pad: 1
}
}
layer {
name: "inception_4e/pool_proj"
type: "Convolution"
bottom: "inception_4e/pool"
top: "inception_4e/pool_proj"
param {
lr_mult: 1
decay_mult: 1
}
param {
lr_mult: 2
decay_mult: 0
}
convolution_param {
num_output: 128
kernel_size: 1
weight_filler {
type: "xavier"
std: 0.1
}
bias_filler {
type: "constant"
value: 0.2
}
}
}
layer {
name: "inception_4e/relu_pool_proj
I0810 21:05:19.476239   463 layer_factory.hpp:77] Creating layer train_data
I0810 21:05:19.476872   463 net.cpp:94] Creating Layer train_data
I0810 21:05:19.476929   463 net.cpp:409] train_data -> data
I0810 21:05:19.476974   463 data_transformer.cpp:25] Loading mean file from: /opt/DIGITS/digits/jobs/20180810-202617-c692/train_db/mean.binaryproto
I0810 21:05:19.477689   466 db_lmdb.cpp:35] Opened lmdb /opt/DIGITS/digits/jobs/20180810-202617-c692/train_db/features
I0810 21:05:19.560465   463 data_layer.cpp:78] ReshapePrefetch 10, 3, 679, 1124
I0810 21:05:19.560537   463 data_layer.cpp:83] output data size: 10,3,679,1124
I0810 21:05:19.761507   463 net.cpp:144] Setting up train_data
I0810 21:05:19.761546   463 net.cpp:151] Top shape: 10 3 679 1124 (22895880)
I0810 21:05:19.761554   463 net.cpp:159] Memory required for data: 91583520
I0810 21:05:19.761569   463 layer_factory.hpp:77] Creating layer train_label
I0810 21:05:19.762507   463 net.cpp:94] Creating Layer train_label
I0810 21:05:19.762564   463 net.cpp:409] train_label -> label
I0810 21:05:19.763800   472 db_lmdb.cpp:35] Opened lmdb /opt/DIGITS/digits/jobs/20180810-202617-c692/train_db/labels
I0810 21:05:19.764037   463 data_layer.cpp:78] ReshapePrefetch 10, 1, 4, 16
I0810 21:05:19.764113   463 data_layer.cpp:83] output data size: 10,1,4,16
I0810 21:05:19.765442   463 net.cpp:144] Setting up train_label
I0810 21:05:19.765465   463 net.cpp:151] Top shape: 10 1 4 16 (640)
I0810 21:05:19.765471   463 net.cpp:159] Memory required for data: 91586080
I0810 21:05:19.765480   463 layer_factory.hpp:77] Creating layer train_transform
I0810 21:05:19.765625   463 net.cpp:94] Creating Layer train_transform
I0810 21:05:19.765646   463 net.cpp:435] train_transform <- data
I0810 21:05:19.765663   463 net.cpp:435] train_transform <- label
I0810 21:05:19.765676   463 net.cpp:409] train_transform -> transformed_data
I0810 21:05:19.765702   463 net.cpp:409] train_transform -> transformed_label
I0810 21:05:19.766207   463 net.cpp:144] Setting up train_transform
I0810 21:05:19.766223   463 net.cpp:151] Top shape: 10 3 640 640 (12288000)
I0810 21:05:19.766232   463 net.cpp:151] Top shape: 10 9 40 40 (144000)
I0810 21:05:19.766237   463 net.cpp:159] Memory required for data: 141314080
I0810 21:05:19.766244   463 layer_factory.hpp:77] Creating layer slice-label
I0810 21:05:19.766273   463 net.cpp:94] Creating Layer slice-label
I0810 21:05:19.766280   463 net.cpp:435] slice-label <- transformed_label
I0810 21:05:19.766293   463 net.cpp:409] slice-label -> foreground-label
I0810 21:05:19.766309   463 net.cpp:409] slice-label -> bbox-label
I0810 21:05:19.766317   463 net.cpp:409] slice-label -> size-label
I0810 21:05:19.766326   463 net.cpp:409] slice-label -> obj-label
I0810 21:05:19.766335   463 net.cpp:409] slice-label -> coverage-label
I0810 21:05:19.766412   463 net.cpp:144] Setting up slice-label
I0810 21:05:19.766422   463 net.cpp:151] Top shape: 10 1 40 40 (16000)
I0810 21:05:19.766428   463 net.cpp:151] Top shape: 10 4 40 40 (64000)
I0810 21:05:19.766435   463 net.cpp:151] Top shape: 10 2 40 40 (32000)
I0810 21:05:19.766441   463 net.cpp:151] Top shape: 10 1 40 40 (16000)
I0810 21:05:19.766448   463 net.cpp:151] Top shape: 10 1 40 40 (16000)
I0810 21:05:19.766454   463 net.cpp:159] Memory required for data: 141890080
I0810 21:05:19.766460   463 layer_factory.hpp:77] Creating layer foreground-label_slice-label_0_split
I0810 21:05:19.766472   463 net.cpp:94] Creating Layer foreground-label_slice-label_0_split
I0810 21:05:19.766479   463 net.cpp:435] foreground-label_slice-label_0_split <- foreground-label
I0810 21:05:19.766487   463 net.cpp:409] foreground-label_slice-label_0_split -> foreground-label_slice-label_0_split_0
I0810 21:05:19.766497   463 net.cpp:409] foreground-label_slice-label_0_split -> foreground-label_slice-label_0_split_1
I0810 21:05:19.766508   463 net.cpp:409] foreground-label_slice-label_0_split -> foreground-label_slice-label_0_split_2
I0810 21:05:19.766517   463 net.cpp:409] foreground-label_slice-label_0_split -> foreground-label_slice-label_0_split_3
I0810 21:05:19.766571   463 net.cpp:144] Setting up foreground-label_slice-label_0_split
I0810 21:05:19.766580   463 net.cpp:151] Top shape: 10 1 40 40 (16000)
I0810 21:05:19.766587   463 net.cpp:151] Top shape: 10 1 40 40 (16000)
I0810 21:05:19.766594   463 net.cpp:151] Top shape: 10 1 40 40 (16000)
I0810 21:05:19.766602   463 net.cpp:151] Top shape: 10 1 40 40 (16000)
I0810 21:05:19.766607   463 net.cpp:159] Memory required for data: 142146080
I0810 21:05:19.766613   463 layer_factory.hpp:77] Creating layer size-label_slice-label_2_split
I0810 21:05:19.766621   463 net.cpp:94] Creating Layer size-label_slice-label_2_split
I0810 21:05:19.766628   463 net.cpp:435] size-label_slice-label_2_split <- size-label
I0810 21:05:19.766636   463 net.cpp:409] size-label_slice-label_2_split -> size-label_slice-label_2_split_0
I0810 21:05:19.766646   463 net.cpp:409] size-label_slice-label_2_split -> size-label_slice-label_2_split_1
I0810 21:05:19.766682   463 net.cpp:144] Setting up size-label_slice-label_2_split
I0810 21:05:19.766719   463 net.cpp:151] Top shape: 10 2 40 40 (32000)
I0810 21:05:19.766726   463 net.cpp:151] Top shape: 10 2 40 40 (32000)
I0810 21:05:19.766732   463 net.cpp:159] Memory required for data: 142402080
I0810 21:05:19.766738   463 layer_factory.hpp:77] Creating layer obj-label_slice-label_3_split
I0810 21:05:19.766748   463 net.cpp:94] Creating Layer obj-label_slice-label_3_split
I0810 21:05:19.766755   463 net.cpp:435] obj-label_slice-label_3_split <- obj-label
I0810 21:05:19.766765   463 net.cpp:409] obj-label_slice-label_3_split -> obj-label_slice-label_3_split_0
I0810 21:05:19.766777   463 net.cpp:409] obj-label_slice-label_3_split -> obj-label_slice-label_3_split_1
I0810 21:05:19.766788   463 net.cpp:409] obj-label_slice-label_3_split -> obj-label_slice-label_3_split_2
I0810 21:05:19.766798   463 net.cpp:409] obj-label_slice-label_3_split -> obj-label_slice-label_3_split_3
I0810 21:05:19.767248   463 net.cpp:144] Setting up obj-label_slice-label_3_split
I0810 21:05:19.767273   463 net.cpp:151] Top shape: 10 1 40 40 (16000)
I0810 21:05:19.767282   463 net.cpp:151] Top shape: 10 1 40 40 (16000)
I0810 21:05:19.767289   463 net.cpp:151] Top shape: 10 1 40 40 (16000)
I0810 21:05:19.767297   463 net.cpp:151] Top shape: 10 1 40 40 (16000)
I0810 21:05:19.767302   463 net.cpp:159] Memory required for data: 142658080
I0810 21:05:19.767309   463 layer_factory.hpp:77] Creating layer coverage-block
I0810 21:05:19.767328   463 net.cpp:94] Creating Layer coverage-block
I0810 21:05:19.767334   463 net.cpp:435] coverage-block <- foreground-label_slice-label_0_split_0
I0810 21:05:19.767343   463 net.cpp:435] coverage-block <- foreground-label_slice-label_0_split_1
I0810 21:05:19.767352   463 net.cpp:435] coverage-block <- foreground-label_slice-label_0_split_2
I0810 21:05:19.767359   463 net.cpp:435] coverage-block <- foreground-label_slice-label_0_split_3
I0810 21:05:19.767369   463 net.cpp:409] coverage-block -> coverage-block
I0810 21:05:19.767418   463 net.cpp:144] Setting up coverage-block
I0810 21:05:19.767428   463 net.cpp:151] Top shape: 10 4 40 40 (64000)
I0810 21:05:19.767436   463 net.cpp:159] Memory required for data: 142914080
I0810 21:05:19.767443   463 layer_factory.hpp:77] Creating layer size-block
I0810 21:05:19.767453   463 net.cpp:94] Creating Layer size-block
I0810 21:05:19.767460   463 net.cpp:435] size-block <- size-label_slice-label_2_split_0
I0810 21:05:19.767468   463 net.cpp:435] size-block <- size-label_slice-label_2_split_1
I0810 21:05:19.767477   463 net.cpp:409] size-block -> size-block
I0810 21:05:19.767506   463 net.cpp:144] Setting up size-block
I0810 21:05:19.767515   463 net.cpp:151] Top shape: 10 4 40 40 (64000)
I0810 21:05:19.767521   463 net.cpp:159] Memory required for data: 143170080
I0810 21:05:19.767530   463 layer_factory.hpp:77] Creating layer size-block_size-block_0_split
I0810 21:05:19.767554   463 net.cpp:94] Creating Layer size-block_size-block_0_split
I0810 21:05:19.767560   463 net.cpp:435] size-block_size-block_0_split <- size-block
I0810 21:05:19.767570   463 net.cpp:409] size-block_size-block_0_split -> size-block_size-block_0_split_0
I0810 21:05:19.767580   463 net.cpp:409] size-block_size-block_0_split -> size-block_size-block_0_split_1
I0810 21:05:19.767617   463 net.cpp:144] Setting up size-block_size-block_0_split
I0810 21:05:19.767627   463 net.cpp:151] Top shape: 10 4 40 40 (64000)
I0810 21:05:19.767633   463 net.cpp:151] Top shape: 10 4 40 40 (64000)
I0810 21:05:19.767639   463 net.cpp:159] Memory required for data: 143682080
I0810 21:05:19.767645   463 layer_factory.hpp:77] Creating layer obj-block
I0810 21:05:19.767678   463 net.cpp:94] Creating Layer obj-block
I0810 21:05:19.767685   463 net.cpp:435] obj-block <- obj-label_slice-label_3_split_0
I0810 21:05:19.767693   463 net.cpp:435] obj-block <- obj-label_slice-label_3_split_1
I0810 21:05:19.767700   463 net.cpp:435] obj-block <- obj-label_slice-label_3_split_2
I0810 21:05:19.767707   463 net.cpp:435] obj-block <- obj-label_slice-label_3_split_3
I0810 21:05:19.767715   463 net.cpp:409] obj-block -> obj-block
I0810 21:05:19.767758   463 net.cpp:144] Setting up obj-block
I0810 21:05:19.767771   463 net.cpp:151] Top shape: 10 4 40 40 (64000)
I0810 21:05:19.767778   463 net.cpp:159] Memory required for data: 143938080
I0810 21:05:19.767784   463 layer_factory.hpp:77] Creating layer obj-block_obj-block_0_split
I0810 21:05:19.767798   463 net.cpp:94] Creating Layer obj-block_obj-block_0_split
I0810 21:05:19.767807   463 net.cpp:435] obj-block_obj-block_0_split <- obj-block
I0810 21:05:19.767817   463 net.cpp:409] obj-block_obj-block_0_split -> obj-block_obj-block_0_split_0
I0810 21:05:19.767827   463 net.cpp:409] obj-block_obj-block_0_split -> obj-block_obj-block_0_split_1
I0810 21:05:19.767889   463 net.cpp:144] Setting up obj-block_obj-block_0_split
I0810 21:05:19.767899   463 net.cpp:151] Top shape: 10 4 40 40 (64000)
I0810 21:05:19.767905   463 net.cpp:151] Top shape: 10 4 40 40 (64000)
I0810 21:05:19.767910   463 net.cpp:159] Memory required for data: 144450080
I0810 21:05:19.767916   463 layer_factory.hpp:77] Creating layer bb-label-norm
I0810 21:05:19.767928   463 net.cpp:94] Creating Layer bb-label-norm
I0810 21:05:19.767935   463 net.cpp:435] bb-label-norm <- bbox-label
I0810 21:05:19.767943   463 net.cpp:435] bb-label-norm <- size-block_size-block_0_split_0
I0810 21:05:19.767952   463 net.cpp:409] bb-label-norm -> bbox-label-norm
I0810 21:05:19.767987   463 net.cpp:144] Setting up bb-label-norm
I0810 21:05:19.767997   463 net.cpp:151] Top shape: 10 4 40 40 (64000)
I0810 21:05:19.768002   463 net.cpp:159] Memory required for data: 144706080
I0810 21:05:19.768008   463 layer_factory.hpp:77] Creating layer bb-obj-norm
I0810 21:05:19.768024   463 net.cpp:94] Creating Layer bb-obj-norm
I0810 21:05:19.768031   463 net.cpp:435] bb-obj-norm <- bbox-label-norm
I0810 21:05:19.768039   463 net.cpp:435] bb-obj-norm <- obj-block_obj-block_0_split_0
I0810 21:05:19.768049   463 net.cpp:409] bb-obj-norm -> bbox-obj-label-norm
I0810 21:05:19.768074   463 net.cpp:144] Setting up bb-obj-norm
I0810 21:05:19.768084   463 net.cpp:151] Top shape: 10 4 40 40 (64000)
I0810 21:05:19.768090   463 net.cpp:159] Memory required for data: 144962080
I0810 21:05:19.768095   463 layer_factory.hpp:77] Creating layer conv1/7x7_s2
I0810 21:05:19.768119   463 net.cpp:94] Creating Layer conv1/7x7_s2
I0810 21:05:19.768126   463 net.cpp:435] conv1/7x7_s2 <- transformed_data
I0810 21:05:19.768136   463 net.cpp:409] conv1/7x7_s2 -> conv1/7x7_s2
I0810 21:05:19.769963   463 net.cpp:144] Setting up conv1/7x7_s2
I0810 21:05:19.769981   463 net.cpp:151] Top shape: 10 64 320 320 (65536000)
I0810 21:05:19.769989   463 net.cpp:159] Memory required for data: 407106080
I0810 21:05:19.770011   463 layer_factory.hpp:77] Creating layer conv1/relu_7x7
I0810 21:05:19.770023   463 net.cpp:94] Creating Layer conv1/relu_7x7
I0810 21:05:19.770030   463 net.cpp:435] conv1/relu_7x7 <- conv1/7x7_s2
I0810 21:05:19.770040   463 net.cpp:396] conv1/relu_7x7 -> conv1/7x7_s2 (in-place)
I0810 21:05:19.770058   463 net.cpp:144] Setting up conv1/relu_7x7
I0810 21:05:19.770067   463 net.cpp:151] Top shape: 10 64 320 320 (65536000)
I0810 21:05:19.770072   463 net.cpp:159] Memory required for data: 669250080
I0810 21:05:19.770079   463 layer_factory.hpp:77] Creating layer pool1/3x3_s2
I0810 21:05:19.770094   463 net.cpp:94] Creating Layer pool1/3x3_s2
I0810 21:05:19.770102   463 net.cpp:435] pool1/3x3_s2 <- conv1/7x7_s2
I0810 21:05:19.770109   463 net.cpp:409] pool1/3x3_s2 -> pool1/3x3_s2
I0810 21:05:19.770166   463 net.cpp:144] Setting up pool1/3x3_s2
I0810 21:05:19.770176   463 net.cpp:151] Top shape: 10 64 160 160 (16384000)
I0810 21:05:19.770182   463 net.cpp:159] Memory required for data: 734786080
I0810 21:05:19.770189   463 layer_factory.hpp:77] Creating layer pool1/norm1
I0810 21:05:19.770202   463 net.cpp:94] Creating Layer pool1/norm1
I0810 21:05:19.770208   463 net.cpp:435] pool1/norm1 <- pool1/3x3_s2
I0810 21:05:19.770217   463 net.cpp:409] pool1/norm1 -> pool1/norm1
I0810 21:05:19.770272   463 net.cpp:144] Setting up pool1/norm1
I0810 21:05:19.770282   463 net.cpp:151] Top shape: 10 64 160 160 (16384000)
I0810 21:05:19.770304   463 net.cpp:159] Memory required for data: 800322080
I0810 21:05:19.770311   463 layer_factory.hpp:77] Creating layer conv2/3x3_reduce
I0810 21:05:19.770325   463 net.cpp:94] Creating Layer conv2/3x3_reduce
I0810 21:05:19.770334   463 net.cpp:435] conv2/3x3_reduce <- pool1/norm1
I0810 21:05:19.770344   463 net.cpp:409] conv2/3x3_reduce -> conv2/3x3_reduce
I0810 21:05:19.771939   463 net.cpp:144] Setting up conv2/3x3_reduce
I0810 21:05:19.771956   463 net.cpp:151] Top shape: 10 64 160 160 (16384000)
I0810 21:05:19.771963   463 net.cpp:159] Memory required for data: 865858080
I0810 21:05:19.771977   463 layer_factory.hpp:77] Creating layer conv2/relu_3x3_reduce
I0810 21:05:19.771989   463 net.cpp:94] Creating Layer conv2/relu_3x3_reduce
I0810 21:05:19.771996   463 net.cpp:435] conv2/relu_3x3_reduce <- conv2/3x3_reduce
I0810 21:05:19.772006   463 net.cpp:396] conv2/relu_3x3_reduce -> conv2/3x3_reduce (in-place)
I0810 21:05:19.772018   463 net.cpp:144] Setting up conv2/relu_3x3_reduce
I0810 21:05:19.772025   463 net.cpp:151] Top shape: 10 64 160 160 (16384000)
I0810 21:05:19.772032   463 net.cpp:159] Memory required for data: 931394080
I0810 21:05:19.772037   463 layer_factory.hpp:77] Creating layer conv2/3x3
I0810 21:05:19.772052   463 net.cpp:94] Creating Layer conv2/3x3
I0810 21:05:19.772058   463 net.cpp:435] conv2/3x3 <- conv2/3x3_reduce
I0810 21:05:19.772068   463 net.cpp:409] conv2/3x3 -> conv2/3x3
I0810 21:05:19.772920   463 net.cpp:144] Setting up conv2/3x3
I0810 21:05:19.772935   463 net.cpp:151] Top shape: 10 192 160 160 (49152000)
I0810 21:05:19.772941   463 net.cpp:159] Memory required for data: 1128002080
I0810 21:05:19.772953   463 layer_factory.hpp:77] Creating layer conv2/relu_3x3
I0810 21:05:19.772964   463 net.cpp:94] Creating Layer conv2/relu_3x3
I0810 21:05:19.772970   463 net.cpp:435] conv2/relu_3x3 <- conv2/3x3
I0810 21:05:19.772979   463 net.cpp:396] conv2/relu_3x3 -> conv2/3x3 (in-place)
I0810 21:05:19.772989   463 net.cpp:144] Setting up conv2/relu_3x3
I0810 21:05:19.772997   463 net.cpp:151] Top shape: 10 192 160 160 (49152000)
I0810 21:05:19.773002   463 net.cpp:159] Memory required for data: 1324610080
I0810 21:05:19.773010   463 layer_factory.hpp:77] Creating layer conv2/norm2
I0810 21:05:19.773020   463 net.cpp:94] Creating Layer conv2/norm2
I0810 21:05:19.773025   463 net.cpp:435] conv2/norm2 <- conv2/3x3
I0810 21:05:19.773033   463 net.cpp:409] conv2/norm2 -> conv2/norm2
I0810 21:05:19.773075   463 net.cpp:144] Setting up conv2/norm2
I0810 21:05:19.773084   463 net.cpp:151] Top shape: 10 192 160 160 (49152000)
I0810 21:05:19.773090   463 net.cpp:159] Memory required for data: 1521218080
I0810 21:05:19.773097   463 layer_factory.hpp:77] Creating layer pool2/3x3_s2
I0810 21:05:19.773105   463 net.cpp:94] Creating Layer pool2/3x3_s2
I0810 21:05:19.773113   463 net.cpp:435] pool2/3x3_s2 <- conv2/norm2
I0810 21:05:19.773121   463 net.cpp:409] pool2/3x3_s2 -> pool2/3x3_s2
I0810 21:05:19.773160   463 net.cpp:144] Setting up pool2/3x3_s2
I0810 21:05:19.773169   463 net.cpp:151] Top shape: 10 192 80 80 (12288000)
I0810 21:05:19.773175   463 net.cpp:159] Memory required for data: 1570370080
I0810 21:05:19.773181   463 layer_factory.hpp:77] Creating layer pool2/3x3_s2_pool2/3x3_s2_0_split
I0810 21:05:19.773190   463 net.cpp:94] Creating Layer pool2/3x3_s2_pool2/3x3_s2_0_split
I0810 21:05:19.773197   463 net.cpp:435] pool2/3x3_s2_pool2/3x3_s2_0_split <- pool2/3x3_s2
I0810 21:05:19.773207   463 net.cpp:409] pool2/3x3_s2_pool2/3x3_s2_0_split -> pool2/3x3_s2_pool2/3x3_s2_0_split_0
I0810 21:05:19.773217   463 net.cpp:409] pool2/3x3_s2_pool2/3x3_s2_0_split -> pool2/3x3_s2_pool2/3x3_s2_0_split_1
I0810 21:05:19.773228   463 net.cpp:409] pool2/3x3_s2_pool2/3x3_s2_0_split -> pool2/3x3_s2_pool2/3x3_s2_0_split_2
I0810 21:05:19.773238   463 net.cpp:409] pool2/3x3_s2_pool2/3x3_s2_0_split -> pool2/3x3_s2_pool2/3x3_s2_0_split_3
I0810 21:05:19.773332   463 net.cpp:144] Setting up pool2/3x3_s2_pool2/3x3_s2_0_split
I0810 21:05:19.773344   463 net.cpp:151] Top shape: 10 192 80 80 (12288000)
I0810 21:05:19.773367   463 net.cpp:151] Top shape: 10 192 80 80 (12288000)
I0810 21:05:19.773375   463 net.cpp:151] Top shape: 10 192 80 80 (12288000)
I0810 21:05:19.773381   463 net.cpp:151] Top shape: 10 192 80 80 (12288000)
I0810 21:05:19.773388   463 net.cpp:159] Memory required for data: 1766978080
I0810 21:05:19.773394   463 layer_factory.hpp:77] Creating layer inception_3a/1x1
I0810 21:05:19.773408   463 net.cpp:94] Creating Layer inception_3a/1x1
I0810 21:05:19.773416   463 net.cpp:435] inception_3a/1x1 <- pool2/3x3_s2_pool2/3x3_s2_0_split_0
I0810 21:05:19.773427   463 net.cpp:409] inception_3a/1x1 -> inception_3a/1x1
I0810 21:05:19.776017   463 net.cpp:144] Setting up inception_3a/1x1
I0810 21:05:19.776036   463 net.cpp:151] Top shape: 10 64 80 80 (4096000)
I0810 21:05:19.776043   463 net.cpp:159] Memory required for data: 1783362080
I0810 21:05:19.776053   463 layer_factory.hpp:77] Creating layer inception_3a/relu_1x1
I0810 21:05:19.776065   463 net.cpp:94] Creating Layer inception_3a/relu_1x1
I0810 21:05:19.776072   463 net.cpp:435] inception_3a/relu_1x1 <- inception_3a/1x1
I0810 21:05:19.776082   463 net.cpp:396] inception_3a/relu_1x1 -> inception_3a/1x1 (in-place)
I0810 21:05:19.776093   463 net.cpp:144] Setting up inception_3a/relu_1x1
I0810 21:05:19.776100   463 net.cpp:151] Top shape: 10 64 80 80 (4096000)
I0810 21:05:19.776106   463 net.cpp:159] Memory required for data: 1799746080
I0810 21:05:19.776113   463 layer_factory.hpp:77] Creating layer inception_3a/3x3_reduce
I0810 21:05:19.776125   463 net.cpp:94] Creating Layer inception_3a/3x3_reduce
I0810 21:05:19.776131   463 net.cpp:435] inception_3a/3x3_reduce <- pool2/3x3_s2_pool2/3x3_s2_0_split_1
I0810 21:05:19.776142   463 net.cpp:409] inception_3a/3x3_reduce -> inception_3a/3x3_reduce
I0810 21:05:19.777556   463 net.cpp:144] Setting up inception_3a/3x3_reduce
I0810 21:05:19.777807   463 net.cpp:151] Top shape: 10 96 80 80 (6144000)
I0810 21:05:19.777818   463 net.cpp:159] Memory required for data: 1824322080
I0810 21:05:19.777833   463 layer_factory.hpp:77] Creating layer inception_3a/relu_3x3_reduce
I0810 21:05:19.777845   463 net.cpp:94] Creating Layer inception_3a/relu_3x3_reduce
I0810 21:05:19.777853   463 net.cpp:435] inception_3a/relu_3x3_reduce <- inception_3a/3x3_reduce
I0810 21:05:19.777863   463 net.cpp:396] inception_3a/relu_3x3_reduce -> inception_3a/3x3_reduce (in-place)
I0810 21:05:19.777874   463 net.cpp:144] Setting up inception_3a/relu_3x3_reduce
I0810 21:05:19.777882   463 net.cpp:151] Top shape: 10 96 80 80 (6144000)
I0810 21:05:19.777889   463 net.cpp:159] Memory required for data: 1848898080
I0810 21:05:19.777894   463 layer_factory.hpp:77] Creating layer inception_3a/3x3
I0810 21:05:19.777907   463 net.cpp:94] Creating Layer inception_3a/3x3
I0810 21:05:19.777915   463 net.cpp:435] inception_3a/3x3 <- inception_3a/3x3_reduce
I0810 21:05:19.777925   463 net.cpp:409] inception_3a/3x3 -> inception_3a/3x3
I0810 21:05:19.779541   463 net.cpp:144] Setting up inception_3a/3x3
I0810 21:05:19.779558   463 net.cpp:151] Top shape: 10 128 80 80 (8192000)
I0810 21:05:19.779566   463 net.cpp:159] Memory required for data: 1881666080
I0810 21:05:19.779575   463 layer_factory.hpp:77] Creating layer inception_3a/relu_3x3
I0810 21:05:19.779585   463 net.cpp:94] Creating Layer inception_3a/relu_3x3
I0810 21:05:19.779592   463 net.cpp:435] inception_3a/relu_3x3 <- inception_3a/3x3
I0810 21:05:19.779603   463 net.cpp:396] inception_3a/relu_3x3 -> inception_3a/3x3 (in-place)
I0810 21:05:19.779615   463 net.cpp:144] Setting up inception_3a/relu_3x3
I0810 21:05:19.779623   463 net.cpp:151] Top shape: 10 128 80 80 (8192000)
I0810 21:05:19.779628   463 net.cpp:159] Memory required for data: 1914434080
I0810 21:05:19.779634   463 layer_factory.hpp:77] Creating layer inception_3a/5x5_reduce
I0810 21:05:19.779649   463 net.cpp:94] Creating Layer inception_3a/5x5_reduce
I0810 21:05:19.779656   463 net.cpp:435] inception_3a/5x5_reduce <- pool2/3x3_s2_pool2/3x3_s2_0_split_2
I0810 21:05:19.779665   463 net.cpp:409] inception_3a/5x5_reduce -> inception_3a/5x5_reduce
I0810 21:05:19.779953   463 net.cpp:144] Setting up inception_3a/5x5_reduce
I0810 21:05:19.779964   463 net.cpp:151] Top shape: 10 16 80 80 (1024000)
I0810 21:05:19.779973   463 net.cpp:159] Memory required for data: 1918530080
I0810 21:05:19.779981   463 layer_factory.hpp:77] Creating layer inception_3a/relu_5x5_reduce
I0810 21:05:19.779999   463 net.cpp:94] Creating Layer inception_3a/relu_5x5_reduce
I0810 21:05:19.780006   463 net.cpp:435] inception_3a/relu_5x5_reduce <- inception_3a/5x5_reduce
I0810 21:05:19.780015   463 net.cpp:396] inception_3a/relu_5x5_reduce -> inception_3a/5x5_reduce (in-place)
I0810 21:05:19.780025   463 net.cpp:144] Setting up inception_3a/relu_5x5_reduce
I0810 21:05:19.780032   463 net.cpp:151] Top shape: 10 16 80 80 (1024000)
I0810 21:05:19.780038   463 net.cpp:159] Memory required for data: 1922626080
I0810 21:05:19.780045   463 layer_factory.hpp:77] Creating layer inception_3a/5x5
I0810 21:05:19.780055   463 net.cpp:94] Creating Layer inception_3a/5x5
I0810 21:05:19.780062   463 net.cpp:435] inception_3a/5x5 <- inception_3a/5x5_reduce
I0810 21:05:19.780073   463 net.cpp:409] inception_3a/5x5 -> inception_3a/5x5
I0810 21:05:19.782198   463 net.cpp:144] Setting up inception_3a/5x5
I0810 21:05:19.782222   463 net.cpp:151] Top shape: 10 32 80 80 (2048000)
I0810 21:05:19.782229   463 net.cpp:159] Memory required for data: 1930818080
I0810 21:05:19.782239   463 layer_factory.hpp:77] Creating layer inception_3a/relu_5x5
I0810 21:05:19.782253   463 net.cpp:94] Creating Layer inception_3a/relu_5x5
I0810 21:05:19.782259   463 net.cpp:435] inception_3a/relu_5x5 <- inception_3a/5x5
I0810 21:05:19.782269   463 net.cpp:396] inception_3a/relu_5x5 -> inception_3a/5x5 (in-place)
I0810 21:05:19.782282   463 net.cpp:144] Setting up inception_3a/relu_5x5
I0810 21:05:19.782290   463 net.cpp:151] Top shape: 10 32 80 80 (2048000)
I0810 21:05:19.782295   463 net.cpp:159] Memory required for data: 1939010080
I0810 21:05:19.782302   463 layer_factory.hpp:77] Creating layer inception_3a/pool
I0810 21:05:19.782312   463 net.cpp:94] Creating Layer inception_3a/pool
I0810 21:05:19.782320   463 net.cpp:435] inception_3a/pool <- pool2/3x3_s2_pool2/3x3_s2_0_split_3
I0810 21:05:19.782328   463 net.cpp:409] inception_3a/pool -> inception_3a/pool
I0810 21:05:19.782380   463 net.cpp:144] Setting up inception_3a/pool
I0810 21:05:19.782390   463 net.cpp:151] Top shape: 10 192 80 80 (12288000)
I0810 21:05:19.782397   463 net.cpp:159] Memory required for data: 1988162080
I0810 21:05:19.782402   463 layer_factory.hpp:77] Creating layer inception_3a/pool_proj
I0810 21:05:19.782415   463 net.cpp:94] Creating Layer inception_3a/pool_proj
I0810 21:05:19.782423   463 net.cpp:435] inception_3a/pool_proj <- inception_3a/pool
I0810 21:05:19.782433   463 net.cpp:409] inception_3a/pool_proj -> inception_3a/pool_proj
I0810 21:05:19.782719   463 net.cpp:144] Setting up inception_3a/pool_proj
I0810 21:05:19.782732   463 net.cpp:151] Top shape: 10 32 80 80 (2048000)
I0810 21:05:19.782738   463 net.cpp:159] Memory required for data: 1996354080
I0810 21:05:19.782754   463 layer_factory.hpp:77] Creating layer inception_3a/relu_pool_proj
I0810 21:05:19.782765   463 net.cpp:94] Creating Layer inception_3a/relu_pool_proj
I0810 21:05:19.782773   463 net.cpp:435] inception_3a/relu_pool_proj <- inception_3a/pool_proj
I0810 21:05:19.782781   463 net.cpp:396] inception_3a/relu_pool_proj -> inception_3a/pool_proj (in-place)
I0810 21:05:19.782793   463 net.cpp:144] Setting up inception_3a/relu_pool_proj
I0810 21:05:19.782799   463 net.cpp:151] Top shape: 10 32 80 80 (2048000)
I0810 21:05:19.782805   463 net.cpp:159] Memory required for data: 2004546080
I0810 21:05:19.782811   463 layer_factory.hpp:77] Creating layer inception_3a/output
I0810 21:05:19.782820   463 net.cpp:94] Creating Layer inception_3a/output
I0810 21:05:19.782827   463 net.cpp:435] inception_3a/output <- inception_3a/1x1
I0810 21:05:19.782835   463 net.cpp:435] inception_3a/output <- inception_3a/3x3
I0810 21:05:19.782842   463 net.cpp:435] inception_3a/output <- inception_3a/5x5
I0810 21:05:19.782876   463 net.cpp:435] inception_3a/output <- inception_3a/pool_proj
I0810 21:05:19.782887   463 net.cpp:409] inception_3a/output -> inception_3a/output
I0810 21:05:19.782923   463 net.cpp:144] Setting up inception_3a/output
I0810 21:05:19.782932   463 net.cpp:151] Top shape: 10 256 80 80 (16384000)
I0810 21:05:19.782938   463 net.cpp:159] Memory required for data: 2070082080
I0810 21:05:19.782944   463 layer_factory.hpp:77] Creating layer inception_3a/output_inception_3a/output_0_split
I0810 21:05:19.782954   463 net.cpp:94] Creating Layer inception_3a/output_inception_3a/output_0_split
I0810 21:05:19.782961   463 net.cpp:435] inception_3a/output_inception_3a/output_0_split <- inception_3a/output
I0810 21:05:19.782970   463 net.cpp:409] inception_3a/output_inception_3a/output_0_split -> inception_3a/output_inception_3a/output_0_split_0
I0810 21:05:19.782981   463 net.cpp:409] inception_3a/output_inception_3a/output_0_split -> inception_3a/output_inception_3a/output_0_split_1
I0810 21:05:19.782991   463 net.cpp:409] inception_3a/output_inception_3a/output_0_split -> inception_3a/output_inception_3a/output_0_split_2
I0810 21:05:19.783001   463 net.cpp:409] inception_3a/output_inception_3a/output_0_split -> inception_3a/output_inception_3a/output_0_split_3
I0810 21:05:19.783058   463 net.cpp:144] Setting up inception_3a/output_inception_3a/output_0_split
I0810 21:05:19.783068   463 net.cpp:151] Top shape: 10 256 80 80 (16384000)
I0810 21:05:19.783076   463 net.cpp:151] Top shape: 10 256 80 80 (16384000)
I0810 21:05:19.783082   463 net.cpp:151] Top shape: 10 256 80 80 (16384000)
I0810 21:05:19.783088   463 net.cpp:151] Top shape: 10 256 80 80 (16384000)
I0810 21:05:19.783094   463 net.cpp:159] Memory required for data: 2332226080
I0810 21:05:19.783100   463 layer_factory.hpp:77] Creating layer inception_3b/1x1
I0810 21:05:19.783113   463 net.cpp:94] Creating Layer inception_3b/1x1
I0810 21:05:19.783119   463 net.cpp:435] inception_3b/1x1 <- inception_3a/output_inception_3a/output_0_split_0
I0810 21:05:19.783130   463 net.cpp:409] inception_3b/1x1 -> inception_3b/1x1
I0810 21:05:19.783546   463 net.cpp:144] Setting up inception_3b/1x1
I0810 21:05:19.783560   463 net.cpp:151] Top shape: 10 128 80 80 (8192000)
I0810 21:05:19.783565   463 net.cpp:159] Memory required for data: 2364994080
I0810 21:05:19.783574   463 layer_factory.hpp:77] Creating layer inception_3b/relu_1x1
I0810 21:05:19.783583   463 net.cpp:94] Creating Layer inception_3b/relu_1x1
I0810 21:05:19.783589   463 net.cpp:435] inception_3b/relu_1x1 <- inception_3b/1x1
I0810 21:05:19.783599   463 net.cpp:396] inception_3b/relu_1x1 -> inception_3b/1x1 (in-place)
I0810 21:05:19.783610   463 net.cpp:144] Setting up inception_3b/relu_1x1
I0810 21:05:19.783617   463 net.cpp:151] Top shape: 10 128 80 80 (8192000)
I0810 21:05:19.783623   463 net.cpp:159] Memory required for data: 2397762080
I0810 21:05:19.783629   463 layer_factory.hpp:77] Creating layer inception_3b/3x3_reduce
I0810 21:05:19.783640   463 net.cpp:94] Creating Layer inception_3b/3x3_reduce
I0810 21:05:19.783655   463 net.cpp:435] inception_3b/3x3_reduce <- inception_3a/output_inception_3a/output_0_split_1
I0810 21:05:19.783668   463 net.cpp:409] inception_3b/3x3_reduce -> inception_3b/3x3_reduce
I0810 21:05:19.784078   463 net.cpp:144] Setting up inception_3b/3x3_reduce
I0810 21:05:19.784091   463 net.cpp:151] Top shape: 10 128 80 80 (8192000)
I0810 21:05:19.784097   463 net.cpp:159] Memory required for data: 2430530080
I0810 21:05:19.784106   463 layer_factory.hpp:77] Creating layer inception_3b/relu_3x3_reduce
I0810 21:05:19.784116   463 net.cpp:94] Creating Layer inception_3b/relu_3x3_reduce
I0810 21:05:19.784122   463 net.cpp:435] inception_3b/relu_3x3_reduce <- inception_3b/3x3_reduce
I0810 21:05:19.784132   463 net.cpp:396] inception_3b/relu_3x3_reduce -> inception_3b/3x3_reduce (in-place)
I0810 21:05:19.784142   463 net.cpp:144] Setting up inception_3b/relu_3x3_reduce
I0810 21:05:19.784150   463 net.cpp:151] Top shape: 10 128 80 80 (8192000)
I0810 21:05:19.784157   463 net.cpp:159] Memory required for data: 2463298080
I0810 21:05:19.784178   463 layer_factory.hpp:77] Creating layer inception_3b/3x3
I0810 21:05:19.784193   463 net.cpp:94] Creating Layer inception_3b/3x3
I0810 21:05:19.784199   463 net.cpp:435] inception_3b/3x3 <- inception_3b/3x3_reduce
I0810 21:05:19.784210   463 net.cpp:409] inception_3b/3x3 -> inception_3b/3x3
I0810 21:05:19.786494   463 net.cpp:144] Setting up inception_3b/3x3
I0810 21:05:19.786514   463 net.cpp:151] Top shape: 10 192 80 80 (12288000)
I0810 21:05:19.786520   463 net.cpp:159] Memory required for data: 2512450080
I0810 21:05:19.786530   463 layer_factory.hpp:77] Creating layer inception_3b/relu_3x3
I0810 21:05:19.786540   463 net.cpp:94] Creating Layer inception_3b/relu_3x3
I0810 21:05:19.786548   463 net.cpp:435] inception_3b/relu_3x3 <- inception_3b/3x3
I0810 21:05:19.786558   463 net.cpp:396] inception_3b/relu_3x3 -> inception_3b/3x3 (in-place)
I0810 21:05:19.786571   463 net.cpp:144] Setting up inception_3b/relu_3x3
I0810 21:05:19.786577   463 net.cpp:151] Top shape: 10 192 80 80 (12288000)
I0810 21:05:19.786583   463 net.cpp:159] Memory required for data: 2561602080
I0810 21:05:19.786589   463 layer_factory.hpp:77] Creating layer inception_3b/5x5_reduce
I0810 21:05:19.786602   463 net.cpp:94] Creating Layer inception_3b/5x5_reduce
I0810 21:05:19.786609   463 net.cpp:435] inception_3b/5x5_reduce <- inception_3a/output_inception_3a/output_0_split_2
I0810 21:05:19.786620   463 net.cpp:409] inception_3b/5x5_reduce -> inception_3b/5x5_reduce
I0810 21:05:19.786907   463 net.cpp:144] Setting up inception_3b/5x5_reduce
I0810 21:05:19.786919   463 net.cpp:151] Top shape: 10 32 80 80 (2048000)
I0810 21:05:19.786926   463 net.cpp:159] Memory required for data: 2569794080
I0810 21:05:19.786936   463 layer_factory.hpp:77] Creating layer inception_3b/relu_5x5_reduce
I0810 21:05:19.786944   463 net.cpp:94] Creating Layer inception_3b/relu_5x5_reduce
I0810 21:05:19.786952   463 net.cpp:435] inception_3b/relu_5x5_reduce <- inception_3b/5x5_reduce
I0810 21:05:19.786960   463 net.cpp:396] inception_3b/relu_5x5_reduce -> inception_3b/5x5_reduce (in-place)
I0810 21:05:19.786970   463 net.cpp:144] Setting up inception_3b/relu_5x5_reduce
I0810 21:05:19.786978   463 net.cpp:151] Top shape: 10 32 80 80 (2048000)
I0810 21:05:19.786983   463 net.cpp:159] Memory required for data: 2577986080
I0810 21:05:19.786990   463 layer_factory.hpp:77] Creating layer inception_3b/5x5
I0810 21:05:19.787001   463 net.cpp:94] Creating Layer inception_3b/5x5
I0810 21:05:19.787009   463 net.cpp:435] inception_3b/5x5 <- inception_3b/5x5_reduce
I0810 21:05:19.787019   463 net.cpp:409] inception_3b/5x5 -> inception_3b/5x5
I0810 21:05:19.787693   463 net.cpp:144] Setting up inception_3b/5x5
I0810 21:05:19.787705   463 net.cpp:151] Top shape: 10 96 80 80 (6144000)
I0810 21:05:19.787711   463 net.cpp:159] Memory required for data: 2602562080
I0810 21:05:19.787720   463 layer_factory.hpp:77] Creating layer inception_3b/relu_5x5
I0810 21:05:19.787730   463 net.cpp:94] Creating Layer inception_3b/relu_5x5
I0810 21:05:19.787737   463 net.cpp:435] inception_3b/relu_5x5 <- inception_3b/5x5
I0810 21:05:19.787746   463 net.cpp:396] inception_3b/relu_5x5 -> inception_3b/5x5 (in-place)
I0810 21:05:19.787756   463 net.cpp:144] Setting up inception_3b/relu_5x5
I0810 21:05:19.787763   463 net.cpp:151] Top shape: 10 96 80 80 (6144000)
I0810 21:05:19.787770   463 net.cpp:159] Memory required for data: 2627138080
I0810 21:05:19.787775   463 layer_factory.hpp:77] Creating layer inception_3b/pool
I0810 21:05:19.787786   463 net.cpp:94] Creating Layer inception_3b/pool
I0810 21:05:19.787792   463 net.cpp:435] inception_3b/pool <- inception_3a/output_inception_3a/output_0_split_3
I0810 21:05:19.787802   463 net.cpp:409] inception_3b/pool -> inception_3b/pool
I0810 21:05:19.787848   463 net.cpp:144] Setting up inception_3b/pool
I0810 21:05:19.787858   463 net.cpp:151] Top shape: 10 256 80 80 (16384000)
I0810 21:05:19.787863   463 net.cpp:159] Memory required for data: 2692674080
I0810 21:05:19.787869   463 layer_factory.hpp:77] Creating layer inception_3b/pool_proj
I0810 21:05:19.787901   463 net.cpp:94] Creating Layer inception_3b/pool_proj
I0810 21:05:19.787909   463 net.cpp:435] inception_3b/pool_proj <- inception_3b/pool
I0810 21:05:19.787920   463 net.cpp:409] inception_3b/pool_proj -> inception_3b/pool_proj
I0810 21:05:19.800020   463 net.cpp:144] Setting up inception_3b/pool_proj
I0810 21:05:19.800083   463 net.cpp:151] Top shape: 10 64 80 80 (4096000)
I0810 21:05:19.800091   463 net.cpp:159] Memory required for data: 2709058080
I0810 21:05:19.800107   463 layer_factory.hpp:77] Creating layer inception_3b/relu_pool_proj
I0810 21:05:19.800123   463 net.cpp:94] Creating Layer inception_3b/relu_pool_proj
I0810 21:05:19.800135   463 net.cpp:435] inception_3b/relu_pool_proj <- inception_3b/pool_proj
I0810 21:05:19.800148   463 net.cpp:396] inception_3b/relu_pool_proj -> inception_3b/pool_proj (in-place)
I0810 21:05:19.800168   463 net.cpp:144] Setting up inception_3b/relu_pool_proj
I0810 21:05:19.800175   463 net.cpp:151] Top shape: 10 64 80 80 (4096000)
I0810 21:05:19.800181   463 net.cpp:159] Memory required for data: 2725442080
I0810 21:05:19.800187   463 layer_factory.hpp:77] Creating layer inception_3b/output
I0810 21:05:19.800199   463 net.cpp:94] Creating Layer inception_3b/output
I0810 21:05:19.800205   463 net.cpp:435] inception_3b/output <- inception_3b/1x1
I0810 21:05:19.800213   463 net.cpp:435] inception_3b/output <- inception_3b/3x3
I0810 21:05:19.800221   463 net.cpp:435] inception_3b/output <- inception_3b/5x5
I0810 21:05:19.800228   463 net.cpp:435] inception_3b/output <- inception_3b/pool_proj
I0810 21:05:19.800237   463 net.cpp:409] inception_3b/output -> inception_3b/output
I0810 21:05:19.800277   463 net.cpp:144] Setting up inception_3b/output
I0810 21:05:19.800287   463 net.cpp:151] Top shape: 10 480 80 80 (30720000)
I0810 21:05:19.800292   463 net.cpp:159] Memory required for data: 2848322080
I0810 21:05:19.800298   463 layer_factory.hpp:77] Creating layer pool3/3x3_s2
I0810 21:05:19.800308   463 net.cpp:94] Creating Layer pool3/3x3_s2
I0810 21:05:19.800315   463 net.cpp:435] pool3/3x3_s2 <- inception_3b/output
I0810 21:05:19.800326   463 net.cpp:409] pool3/3x3_s2 -> pool3/3x3_s2
I0810 21:05:19.800382   463 net.cpp:144] Setting up pool3/3x3_s2
I0810 21:05:19.800393   463 net.cpp:151] Top shape: 10 480 40 40 (7680000)
I0810 21:05:19.800400   463 net.cpp:159] Memory required for data: 2879042080
I0810 21:05:19.800405   463 layer_factory.hpp:77] Creating layer pool3/3x3_s2_pool3/3x3_s2_0_split
I0810 21:05:19.800416   463 net.cpp:94] Creating Layer pool3/3x3_s2_pool3/3x3_s2_0_split
I0810 21:05:19.800422   463 net.cpp:435] pool3/3x3_s2_pool3/3x3_s2_0_split <- pool3/3x3_s2
I0810 21:05:19.800432   463 net.cpp:409] pool3/3x3_s2_pool3/3x3_s2_0_split -> pool3/3x3_s2_pool3/3x3_s2_0_split_0
I0810 21:05:19.800443   463 net.cpp:409] pool3/3x3_s2_pool3/3x3_s2_0_split -> pool3/3x3_s2_pool3/3x3_s2_0_split_1
I0810 21:05:19.800453   463 net.cpp:409] pool3/3x3_s2_pool3/3x3_s2_0_split -> pool3/3x3_s2_pool3/3x3_s2_0_split_2
I0810 21:05:19.800464   463 net.cpp:409] pool3/3x3_s2_pool3/3x3_s2_0_split -> pool3/3x3_s2_pool3/3x3_s2_0_split_3
I0810 21:05:19.800523   463 net.cpp:144] Setting up pool3/3x3_s2_pool3/3x3_s2_0_split
I0810 21:05:19.800531   463 net.cpp:151] Top shape: 10 480 40 40 (7680000)
I0810 21:05:19.800539   463 net.cpp:151] Top shape: 10 480 40 40 (7680000)
I0810 21:05:19.800545   463 net.cpp:151] Top shape: 10 480 40 40 (7680000)
I0810 21:05:19.800552   463 net.cpp:151] Top shape: 10 480 40 40 (7680000)
I0810 21:05:19.800559   463 net.cpp:159] Memory required for data: 3001922080
I0810 21:05:19.800565   463 layer_factory.hpp:77] Creating layer inception_4a/1x1
I0810 21:05:19.800578   463 net.cpp:94] Creating Layer inception_4a/1x1
I0810 21:05:19.800585   463 net.cpp:435] inception_4a/1x1 <- pool3/3x3_s2_pool3/3x3_s2_0_split_0
I0810 21:05:19.800596   463 net.cpp:409] inception_4a/1x1 -> inception_4a/1x1
I0810 21:05:19.802556   463 net.cpp:144] Setting up inception_4a/1x1
I0810 21:05:19.802580   463 net.cpp:151] Top shape: 10 192 40 40 (3072000)
I0810 21:05:19.802624   463 net.cpp:159] Memory required for data: 3014210080
I0810 21:05:19.802636   463 layer_factory.hpp:77] Creating layer inception_4a/relu_1x1
I0810 21:05:19.802649   463 net.cpp:94] Creating Layer inception_4a/relu_1x1
I0810 21:05:19.802655   463 net.cpp:435] inception_4a/relu_1x1 <- inception_4a/1x1
I0810 21:05:19.802665   463 net.cpp:396] inception_4a/relu_1x1 -> inception_4a/1x1 (in-place)
I0810 21:05:19.802678   463 net.cpp:144] Setting up inception_4a/relu_1x1
I0810 21:05:19.802686   463 net.cpp:151] Top shape: 10 192 40 40 (3072000)
I0810 21:05:19.802692   463 net.cpp:159] Memory required for data: 3026498080
I0810 21:05:19.802698   463 layer_factory.hpp:77] Creating layer inception_4a/3x3_reduce
I0810 21:05:19.802712   463 net.cpp:94] Creating Layer inception_4a/3x3_reduce
I0810 21:05:19.802719   463 net.cpp:435] inception_4a/3x3_reduce <- pool3/3x3_s2_pool3/3x3_s2_0_split_1
I0810 21:05:19.802731   463 net.cpp:409] inception_4a/3x3_reduce -> inception_4a/3x3_reduce
I0810 21:05:19.803402   463 net.cpp:144] Setting up inception_4a/3x3_reduce
I0810 21:05:19.803422   463 net.cpp:151] Top shape: 10 96 40 40 (1536000)
I0810 21:05:19.803429   463 net.cpp:159] Memory required for data: 3032642080
I0810 21:05:19.803450   463 layer_factory.hpp:77] Creating layer inception_4a/relu_3x3_reduce
I0810 21:05:19.803462   463 net.cpp:94] Creating Layer inception_4a/relu_3x3_reduce
I0810 21:05:19.803469   463 net.cpp:435] inception_4a/relu_3x3_reduce <- inception_4a/3x3_reduce
I0810 21:05:19.803480   463 net.cpp:396] inception_4a/relu_3x3_reduce -> inception_4a/3x3_reduce (in-place)
I0810 21:05:19.803493   463 net.cpp:144] Setting up inception_4a/relu_3x3_reduce
I0810 21:05:19.803500   463 net.cpp:151] Top shape: 10 96 40 40 (1536000)
I0810 21:05:19.803506   463 net.cpp:159] Memory required for data: 3038786080
I0810 21:05:19.803512   463 layer_factory.hpp:77] Creating layer inception_4a/3x3
I0810 21:05:19.803526   463 net.cpp:94] Creating Layer inception_4a/3x3
I0810 21:05:19.803532   463 net.cpp:435] inception_4a/3x3 <- inception_4a/3x3_reduce
I0810 21:05:19.803544   463 net.cpp:409] inception_4a/3x3 -> inception_4a/3x3
I0810 21:05:19.805635   463 net.cpp:144] Setting up inception_4a/3x3
I0810 21:05:19.805655   463 net.cpp:151] Top shape: 10 208 40 40 (3328000)
I0810 21:05:19.805662   463 net.cpp:159] Memory required for data: 3052098080
I0810 21:05:19.805675   463 layer_factory.hpp:77] Creating layer inception_4a/relu_3x3
I0810 21:05:19.805686   463 net.cpp:94] Creating Layer inception_4a/relu_3x3
I0810 21:05:19.805693   463 net.cpp:435] inception_4a/relu_3x3 <- inception_4a/3x3
I0810 21:05:19.805704   463 net.cpp:396] inception_4a/relu_3x3 -> inception_4a/3x3 (in-place)
I0810 21:05:19.805716   463 net.cpp:144] Setting up inception_4a/relu_3x3
I0810 21:05:19.805724   463 net.cpp:151] Top shape: 10 208 40 40 (3328000)
I0810 21:05:19.805730   463 net.cpp:159] Memory required for data: 3065410080
I0810 21:05:19.805737   463 layer_factory.hpp:77] Creating layer inception_4a/5x5_reduce
I0810 21:05:19.805748   463 net.cpp:94] Creating Layer inception_4a/5x5_reduce
I0810 21:05:19.805755   463 net.cpp:435] inception_4a/5x5_reduce <- pool3/3x3_s2_pool3/3x3_s2_0_split_2
I0810 21:05:19.805768   463 net.cpp:409] inception_4a/5x5_reduce -> inception_4a/5x5_reduce
I0810 21:05:19.806052   463 net.cpp:144] Setting up inception_4a/5x5_reduce
I0810 21:05:19.806066   463 net.cpp:151] Top shape: 10 16 40 40 (256000)
I0810 21:05:19.806071   463 net.cpp:159] Memory required for data: 3066434080
I0810 21:05:19.806079   463 layer_factory.hpp:77] Creating layer inception_4a/relu_5x5_reduce
I0810 21:05:19.806089   463 net.cpp:94] Creating Layer inception_4a/relu_5x5_reduce
I0810 21:05:19.806097   463 net.cpp:435] inception_4a/relu_5x5_reduce <- inception_4a/5x5_reduce
I0810 21:05:19.806105   463 net.cpp:396] inception_4a/relu_5x5_reduce -> inception_4a/5x5_reduce (in-place)
I0810 21:05:19.806115   463 net.cpp:144] Setting up inception_4a/relu_5x5_reduce
I0810 21:05:19.806123   463 net.cpp:151] Top shape: 10 16 40 40 (256000)
I0810 21:05:19.806147   463 net.cpp:159] Memory required for data: 3067458080
I0810 21:05:19.806154   463 layer_factory.hpp:77] Creating layer inception_4a/5x5
I0810 21:05:19.806197   463 net.cpp:94] Creating Layer inception_4a/5x5
I0810 21:05:19.806205   463 net.cpp:435] inception_4a/5x5 <- inception_4a/5x5_reduce
I0810 21:05:19.806216   463 net.cpp:409] inception_4a/5x5 -> inception_4a/5x5
I0810 21:05:19.806557   463 net.cpp:144] Setting up inception_4a/5x5
I0810 21:05:19.806569   463 net.cpp:151] Top shape: 10 48 40 40 (768000)
I0810 21:05:19.806576   463 net.cpp:159] Memory required for data: 3070530080
I0810 21:05:19.806584   463 layer_factory.hpp:77] Creating layer inception_4a/relu_5x5
I0810 21:05:19.806593   463 net.cpp:94] Creating Layer inception_4a/relu_5x5
I0810 21:05:19.806601   463 net.cpp:435] inception_4a/relu_5x5 <- inception_4a/5x5
I0810 21:05:19.806610   463 net.cpp:396] inception_4a/relu_5x5 -> inception_4a/5x5 (in-place)
I0810 21:05:19.806620   463 net.cpp:144] Setting up inception_4a/relu_5x5
I0810 21:05:19.806627   463 net.cpp:151] Top shape: 10 48 40 40 (768000)
I0810 21:05:19.806633   463 net.cpp:159] Memory required for data: 3073602080
I0810 21:05:19.806639   463 layer_factory.hpp:77] Creating layer inception_4a/pool
I0810 21:05:19.806649   463 net.cpp:94] Creating Layer inception_4a/pool
I0810 21:05:19.806655   463 net.cpp:435] inception_4a/pool <- pool3/3x3_s2_pool3/3x3_s2_0_split_3
I0810 21:05:19.806665   463 net.cpp:409] inception_4a/pool -> inception_4a/pool
I0810 21:05:19.806713   463 net.cpp:144] Setting up inception_4a/pool
I0810 21:05:19.806723   463 net.cpp:151] Top shape: 10 480 40 40 (7680000)
I0810 21:05:19.806730   463 net.cpp:159] Memory required for data: 3104322080
I0810 21:05:19.806735   463 layer_factory.hpp:77] Creating layer inception_4a/pool_proj
I0810 21:05:19.806747   463 net.cpp:94] Creating Layer inception_4a/pool_proj
I0810 21:05:19.806753   463 net.cpp:435] inception_4a/pool_proj <- inception_4a/pool
I0810 21:05:19.806763   463 net.cpp:409] inception_4a/pool_proj -> inception_4a/pool_proj
I0810 21:05:19.824530   463 net.cpp:144] Setting up inception_4a/pool_proj
I0810 21:05:19.824578   463 net.cpp:151] Top shape: 10 64 40 40 (1024000)
I0810 21:05:19.824584   463 net.cpp:159] Memory required for data: 3108418080
I0810 21:05:19.824600   463 layer_factory.hpp:77] Creating layer inception_4a/relu_pool_proj
I0810 21:05:19.824618   463 net.cpp:94] Creating Layer inception_4a/relu_pool_proj
I0810 21:05:19.824628   463 net.cpp:435] inception_4a/relu_pool_proj <- inception_4a/pool_proj
I0810 21:05:19.824642   463 net.cpp:396] inception_4a/relu_pool_proj -> inception_4a/pool_proj (in-place)
I0810 21:05:19.824661   463 net.cpp:144] Setting up inception_4a/relu_pool_proj
I0810 21:05:19.824671   463 net.cpp:151] Top shape: 10 64 40 40 (1024000)
I0810 21:05:19.824677   463 net.cpp:159] Memory required for data: 3112514080
I0810 21:05:19.824684   463 layer_factory.hpp:77] Creating layer inception_4a/output
I0810 21:05:19.824694   463 net.cpp:94] Creating Layer inception_4a/output
I0810 21:05:19.824702   463 net.cpp:435] inception_4a/output <- inception_4a/1x1
I0810 21:05:19.824710   463 net.cpp:435] inception_4a/output <- inception_4a/3x3
I0810 21:05:19.824718   463 net.cpp:435] inception_4a/output <- inception_4a/5x5
I0810 21:05:19.824725   463 net.cpp:435] inception_4a/output <- inception_4a/pool_proj
I0810 21:05:19.824735   463 net.cpp:409] inception_4a/output -> inception_4a/output
I0810 21:05:19.824771   463 net.cpp:144] Setting up inception_4a/output
I0810 21:05:19.824781   463 net.cpp:151] Top shape: 10 512 40 40 (8192000)
I0810 21:05:19.824786   463 net.cpp:159] Memory required for data: 3145282080
I0810 21:05:19.824793   463 layer_factory.hpp:77] Creating layer inception_4a/output_inception_4a/output_0_split
I0810 21:05:19.824803   463 net.cpp:94] Creating Layer inception_4a/output_inception_4a/output_0_split
I0810 21:05:19.824810   463 net.cpp:435] inception_4a/output_inception_4a/output_0_split <- inception_4a/output
I0810 21:05:19.824821   463 net.cpp:409] inception_4a/output_inception_4a/output_0_split -> inception_4a/output_inception_4a/output_0_split_0
I0810 21:05:19.824867   463 net.cpp:409] inception_4a/output_inception_4a/output_0_split -> inception_4a/output_inception_4a/output_0_split_1
I0810 21:05:19.824878   463 net.cpp:409] inception_4a/output_inception_4a/output_0_split -> inception_4a/output_inception_4a/output_0_split_2
I0810 21:05:19.824913   463 net.cpp:409] inception_4a/output_inception_4a/output_0_split -> inception_4a/output_inception_4a/output_0_split_3
I0810 21:05:19.824978   463 net.cpp:144] Setting up inception_4a/output_inception_4a/output_0_split
I0810 21:05:19.824987   463 net.cpp:151] Top shape: 10 512 40 40 (8192000)
I0810 21:05:19.824995   463 net.cpp:151] Top shape: 10 512 40 40 (8192000)
I0810 21:05:19.825001   463 net.cpp:151] Top shape: 10 512 40 40 (8192000)
I0810 21:05:19.825008   463 net.cpp:151] Top shape: 10 512 40 40 (8192000)
I0810 21:05:19.825013   463 net.cpp:159] Memory required for data: 3276354080
I0810 21:05:19.825019   463 layer_factory.hpp:77] Creating layer inception_4b/1x1
I0810 21:05:19.825034   463 net.cpp:94] Creating Layer inception_4b/1x1
I0810 21:05:19.825042   463 net.cpp:435] inception_4b/1x1 <- inception_4a/output_inception_4a/output_0_split_0
I0810 21:05:19.825052   463 net.cpp:409] inception_4b/1x1 -> inception_4b/1x1
I0810 21:05:19.825789   463 net.cpp:144] Setting up inception_4b/1x1
I0810 21:05:19.825801   463 net.cpp:151] Top shape: 10 160 40 40 (2560000)
I0810 21:05:19.825808   463 net.cpp:159] Memory required for data: 3286594080
I0810 21:05:19.825817   463 layer_factory.hpp:77] Creating layer inception_4b/relu_1x1
I0810 21:05:19.825826   463 net.cpp:94] Creating Layer inception_4b/relu_1x1
I0810 21:05:19.825834   463 net.cpp:435] inception_4b/relu_1x1 <- inception_4b/1x1
I0810 21:05:19.825844   463 net.cpp:396] inception_4b/relu_1x1 -> inception_4b/1x1 (in-place)
I0810 21:05:19.825855   463 net.cpp:144] Setting up inception_4b/relu_1x1
I0810 21:05:19.825862   463 net.cpp:151] Top shape: 10 160 40 40 (2560000)
I0810 21:05:19.825867   463 net.cpp:159] Memory required for data: 3296834080
I0810 21:05:19.825873   463 layer_factory.hpp:77] Creating layer inception_4b/3x3_reduce
I0810 21:05:19.825886   463 net.cpp:94] Creating Layer inception_4b/3x3_reduce
I0810 21:05:19.825892   463 net.cpp:435] inception_4b/3x3_reduce <- inception_4a/output_inception_4a/output_0_split_1
I0810 21:05:19.825904   463 net.cpp:409] inception_4b/3x3_reduce -> inception_4b/3x3_reduce
I0810 21:05:19.827373   463 net.cpp:144] Setting up inception_4b/3x3_reduce
I0810 21:05:19.827389   463 net.cpp:151] Top shape: 10 112 40 40 (1792000)
I0810 21:05:19.827395   463 net.cpp:159] Memory required for data: 3304002080
I0810 21:05:19.827405   463 layer_factory.hpp:77] Creating layer inception_4b/relu_3x3_reduce
I0810 21:05:19.827416   463 net.cpp:94] Creating Layer inception_4b/relu_3x3_reduce
I0810 21:05:19.827425   463 net.cpp:435] inception_4b/relu_3x3_reduce <- inception_4b/3x3_reduce
I0810 21:05:19.827435   463 net.cpp:396] inception_4b/relu_3x3_reduce -> inception_4b/3x3_reduce (in-place)
I0810 21:05:19.827445   463 net.cpp:144] Setting up inception_4b/relu_3x3_reduce
I0810 21:05:19.827452   463 net.cpp:151] Top shape: 10 112 40 40 (1792000)
I0810 21:05:19.827458   463 net.cpp:159] Memory required for data: 3311170080
I0810 21:05:19.827464   463 layer_factory.hpp:77] Creating layer inception_4b/3x3
I0810 21:05:19.827478   463 net.cpp:94] Creating Layer inception_4b/3x3
I0810 21:05:19.827486   463 net.cpp:435] inception_4b/3x3 <- inception_4b/3x3_reduce
I0810 21:05:19.827495   463 net.cpp:409] inception_4b/3x3 -> inception_4b/3x3
I0810 21:05:19.829622   463 net.cpp:144] Setting up inception_4b/3x3
I0810 21:05:19.829640   463 net.cpp:151] Top shape: 10 224 40 40 (3584000)
I0810 21:05:19.829646   463 net.cpp:159] Memory required for data: 3325506080
I0810 21:05:19.829656   463 layer_factory.hpp:77] Creating layer inception_4b/relu_3x3
I0810 21:05:19.829726   463 net.cpp:94] Creating Layer inception_4b/relu_3x3
I0810 21:05:19.829741   463 net.cpp:435] inception_4b/relu_3x3 <- inception_4b/3x3
I0810 21:05:19.829778   463 net.cpp:396] inception_4b/relu_3x3 -> inception_4b/3x3 (in-place)
I0810 21:05:19.829793   463 net.cpp:144] Setting up inception_4b/relu_3x3
I0810 21:05:19.829802   463 net.cpp:151] Top shape: 10 224 40 40 (3584000)
I0810 21:05:19.829808   463 net.cpp:159] Memory required for data: 3339842080
I0810 21:05:19.829815   463 layer_factory.hpp:77] Creating layer inception_4b/5x5_reduce
I0810 21:05:19.829828   463 net.cpp:94] Creating Layer inception_4b/5x5_reduce
I0810 21:05:19.829836   463 net.cpp:435] inception_4b/5x5_reduce <- inception_4a/output_inception_4a/output_0_split_2
I0810 21:05:19.829847   463 net.cpp:409] inception_4b/5x5_reduce -> inception_4b/5x5_reduce
I0810 21:05:19.830194   463 net.cpp:144] Setting up inception_4b/5x5_reduce
I0810 21:05:19.830209   463 net.cpp:151] Top shape: 10 24 40 40 (384000)
I0810 21:05:19.830214   463 net.cpp:159] Memory required for data: 3341378080
I0810 21:05:19.830224   463 layer_factory.hpp:77] Creating layer inception_4b/relu_5x5_reduce
I0810 21:05:19.830233   463 net.cpp:94] Creating Layer inception_4b/relu_5x5_reduce
I0810 21:05:19.830240   463 net.cpp:435] inception_4b/relu_5x5_reduce <- inception_4b/5x5_reduce
I0810 21:05:19.830250   463 net.cpp:396] inception_4b/relu_5x5_reduce -> inception_4b/5x5_reduce (in-place)
I0810 21:05:19.830260   463 net.cpp:144] Setting up inception_4b/relu_5x5_reduce
I0810 21:05:19.830267   463 net.cpp:151] Top shape: 10 24 40 40 (384000)
I0810 21:05:19.830272   463 net.cpp:159] Memory required for data: 3342914080
I0810 21:05:19.830279   463 layer_factory.hpp:77] Creating layer inception_4b/5x5
I0810 21:05:19.830291   463 net.cpp:94] Creating Layer inception_4b/5x5
I0810 21:05:19.830296   463 net.cpp:435] inception_4b/5x5 <- inception_4b/5x5_reduce
I0810 21:05:19.830307   463 net.cpp:409] inception_4b/5x5 -> inception_4b/5x5
I0810 21:05:19.830775   463 net.cpp:144] Setting up inception_4b/5x5
I0810 21:05:19.830786   463 net.cpp:151] Top shape: 10 64 40 40 (1024000)
I0810 21:05:19.830792   463 net.cpp:159] Memory required for data: 3347010080
I0810 21:05:19.830801   463 layer_factory.hpp:77] Creating layer inception_4b/relu_5x5
I0810 21:05:19.830811   463 net.cpp:94] Creating Layer inception_4b/relu_5x5
I0810 21:05:19.830818   463 net.cpp:435] inception_4b/relu_5x5 <- inception_4b/5x5
I0810 21:05:19.830826   463 net.cpp:396] inception_4b/relu_5x5 -> inception_4b/5x5 (in-place)
I0810 21:05:19.830837   463 net.cpp:144] Setting up inception_4b/relu_5x5
I0810 21:05:19.830844   463 net.cpp:151] Top shape: 10 64 40 40 (1024000)
I0810 21:05:19.830849   463 net.cpp:159] Memory required for data: 3351106080
I0810 21:05:19.830855   463 layer_factory.hpp:77] Creating layer inception_4b/pool
I0810 21:05:19.830865   463 net.cpp:94] Creating Layer inception_4b/pool
I0810 21:05:19.830873   463 net.cpp:435] inception_4b/pool <- inception_4a/output_inception_4a/output_0_split_3
I0810 21:05:19.830881   463 net.cpp:409] inception_4b/pool -> inception_4b/pool
I0810 21:05:19.830930   463 net.cpp:144] Setting up inception_4b/pool
I0810 21:05:19.830940   463 net.cpp:151] Top shape: 10 512 40 40 (8192000)
I0810 21:05:19.830945   463 net.cpp:159] Memory required for data: 3383874080
I0810 21:05:19.830951   463 layer_factory.hpp:77] Creating layer inception_4b/pool_proj
I0810 21:05:19.830965   463 net.cpp:94] Creating Layer inception_4b/pool_proj
I0810 21:05:19.830971   463 net.cpp:435] inception_4b/pool_proj <- inception_4b/pool
I0810 21:05:19.830981   463 net.cpp:409] inception_4b/pool_proj -> inception_4b/pool_proj
I0810 21:05:19.831404   463 net.cpp:144] Setting up inception_4b/pool_proj
I0810 21:05:19.831416   463 net.cpp:151] Top shape: 10 64 40 40 (1024000)
I0810 21:05:19.831423   463 net.cpp:159] Memory required for data: 3387970080
I0810 21:05:19.831432   463 layer_factory.hpp:77] Creating layer inception_4b/relu_pool_proj
I0810 21:05:19.831444   463 net.cpp:94] Creating Layer inception_4b/relu_pool_proj
I0810 21:05:19.831450   463 net.cpp:435] inception_4b/relu_pool_proj <- inception_4b/pool_proj
I0810 21:05:19.831475   463 net.cpp:396] inception_4b/relu_pool_proj -> inception_4b/pool_proj (in-place)
I0810 21:05:19.831486   463 net.cpp:144] Setting up inception_4b/relu_pool_proj
I0810 21:05:19.831495   463 net.cpp:151] Top shape: 10 64 40 40 (1024000)
I0810 21:05:19.831499   463 net.cpp:159] Memory required for data: 3392066080
I0810 21:05:19.831506   463 layer_factory.hpp:77] Creating layer inception_4b/output
I0810 21:05:19.831516   463 net.cpp:94] Creating Layer inception_4b/output
I0810 21:05:19.831522   463 net.cpp:435] inception_4b/output <- inception_4b/1x1
I0810 21:05:19.831529   463 net.cpp:435] inception_4b/output <- inception_4b/3x3
I0810 21:05:19.831549   463 net.cpp:435] inception_4b/output <- inception_4b/5x5
I0810 21:05:19.831557   463 net.cpp:435] inception_4b/output <- inception_4b/pool_proj
I0810 21:05:19.831567   463 net.cpp:409] inception_4b/output -> inception_4b/output
I0810 21:05:19.831600   463 net.cpp:144] Setting up inception_4b/output
I0810 21:05:19.831610   463 net.cpp:151] Top shape: 10 512 40 40 (8192000)
I0810 21:05:19.831615   463 net.cpp:159] Memory required for data: 3424834080
I0810 21:05:19.831621   463 layer_factory.hpp:77] Creating layer inception_4b/output_inception_4b/output_0_split
I0810 21:05:19.831631   463 net.cpp:94] Creating Layer inception_4b/output_inception_4b/output_0_split
I0810 21:05:19.831638   463 net.cpp:435] inception_4b/output_inception_4b/output_0_split <- inception_4b/output
I0810 21:05:19.831656   463 net.cpp:409] inception_4b/output_inception_4b/output_0_split -> inception_4b/output_inception_4b/output_0_split_0
I0810 21:05:19.831668   463 net.cpp:409] inception_4b/output_inception_4b/output_0_split -> inception_4b/output_inception_4b/output_0_split_1
I0810 21:05:19.831678   463 net.cpp:409] inception_4b/output_inception_4b/output_0_split -> inception_4b/output_inception_4b/output_0_split_2
I0810 21:05:19.831688   463 net.cpp:409] inception_4b/output_inception_4b/output_0_split -> inception_4b/output_inception_4b/output_0_split_3
I0810 21:05:19.831750   463 net.cpp:144] Setting up inception_4b/output_inception_4b/output_0_split
I0810 21:05:19.831759   463 net.cpp:151] Top shape: 10 512 40 40 (8192000)
I0810 21:05:19.831766   463 net.cpp:151] Top shape: 10 512 40 40 (8192000)
I0810 21:05:19.831773   463 net.cpp:151] Top shape: 10 512 40 40 (8192000)
I0810 21:05:19.831779   463 net.cpp:151] Top shape: 10 512 40 40 (8192000)
I0810 21:05:19.831785   463 net.cpp:159] Memory required for data: 3555906080
I0810 21:05:19.831791   463 layer_factory.hpp:77] Creating layer inception_4c/1x1
I0810 21:05:19.831802   463 net.cpp:94] Creating Layer inception_4c/1x1
I0810 21:05:19.831818   463 net.cpp:435] inception_4c/1x1 <- inception_4b/output_inception_4b/output_0_split_0
I0810 21:05:19.831831   463 net.cpp:409] inception_4c/1x1 -> inception_4c/1x1
I0810 21:05:19.832427   463 net.cpp:144] Setting up inception_4c/1x1
I0810 21:05:19.832439   463 net.cpp:151] Top shape: 10 128 40 40 (2048000)
I0810 21:05:19.832445   463 net.cpp:159] Memory required for data: 3564098080
I0810 21:05:19.832454   463 layer_factory.hpp:77] Creating layer inception_4c/relu_1x1
I0810 21:05:19.832463   463 net.cpp:94] Creating Layer inception_4c/relu_1x1
I0810 21:05:19.832470   463 net.cpp:435] inception_4c/relu_1x1 <- inception_4c/1x1
I0810 21:05:19.832480   463 net.cpp:396] inception_4c/relu_1x1 -> inception_4c/1x1 (in-place)
I0810 21:05:19.832492   463 net.cpp:144] Setting up inception_4c/relu_1x1
I0810 21:05:19.832500   463 net.cpp:151] Top shape: 10 128 40 40 (2048000)
I0810 21:05:19.832506   463 net.cpp:159] Memory required for data: 3572290080
I0810 21:05:19.832512   463 layer_factory.hpp:77] Creating layer inception_4c/3x3_reduce
I0810 21:05:19.832525   463 net.cpp:94] Creating Layer inception_4c/3x3_reduce
I0810 21:05:19.832531   463 net.cpp:435] inception_4c/3x3_reduce <- inception_4b/output_inception_4b/output_0_split_1
I0810 21:05:19.832545   463 net.cpp:409] inception_4c/3x3_reduce -> inception_4c/3x3_reduce
I0810 21:05:19.833180   463 net.cpp:144] Setting up inception_4c/3x3_reduce
I0810 21:05:19.833210   463 net.cpp:151] Top shape: 10 128 40 40 (2048000)
I0810 21:05:19.833216   463 net.cpp:159] Memory required for data: 3580482080
I0810 21:05:19.833226   463 layer_factory.hpp:77] Creating layer inception_4c/relu_3x3_reduce
I0810 21:05:19.833236   463 net.cpp:94] Creating Layer inception_4c/relu_3x3_reduce
I0810 21:05:19.833243   463 net.cpp:435] inception_4c/relu_3x3_reduce <- inception_4c/3x3_reduce
I0810 21:05:19.833253   463 net.cpp:396] inception_4c/relu_3x3_reduce -> inception_4c/3x3_reduce (in-place)
I0810 21:05:19.833263   463 net.cpp:144] Setting up inception_4c/relu_3x3_reduce
I0810 21:05:19.833271   463 net.cpp:151] Top shape: 10 128 40 40 (2048000)
I0810 21:05:19.833277   463 net.cpp:159] Memory required for data: 3588674080
I0810 21:05:19.833283   463 layer_factory.hpp:77] Creating layer inception_4c/3x3
I0810 21:05:19.833294   463 net.cpp:94] Creating Layer inception_4c/3x3
I0810 21:05:19.833302   463 net.cpp:435] inception_4c/3x3 <- inception_4c/3x3_reduce
I0810 21:05:19.833312   463 net.cpp:409] inception_4c/3x3 -> inception_4c/3x3
I0810 21:05:19.836010   463 net.cpp:144] Setting up inception_4c/3x3
I0810 21:05:19.836030   463 net.cpp:151] Top shape: 10 256 40 40 (4096000)
I0810 21:05:19.836036   463 net.cpp:159] Memory required for data: 3605058080
I0810 21:05:19.836046   463 layer_factory.hpp:77] Creating layer inception_4c/relu_3x3
I0810 21:05:19.836057   463 net.cpp:94] Creating Layer inception_4c/relu_3x3
I0810 21:05:19.836066   463 net.cpp:435] inception_4c/relu_3x3 <- inception_4c/3x3
I0810 21:05:19.836076   463 net.cpp:396] inception_4c/relu_3x3 -> inception_4c/3x3 (in-place)
I0810 21:05:19.836087   463 net.cpp:144] Setting up inception_4c/relu_3x3
I0810 21:05:19.836096   463 net.cpp:151] Top shape: 10 256 40 40 (4096000)
I0810 21:05:19.836102   463 net.cpp:159] Memory required for data: 3621442080
I0810 21:05:19.836107   463 layer_factory.hpp:77] Creating layer inception_4c/5x5_reduce
I0810 21:05:19.836119   463 net.cpp:94] Creating Layer inception_4c/5x5_reduce
I0810 21:05:19.836127   463 net.cpp:435] inception_4c/5x5_reduce <- inception_4b/output_inception_4b/output_0_split_2
I0810 21:05:19.836138   463 net.cpp:409] inception_4c/5x5_reduce -> inception_4c/5x5_reduce
I0810 21:05:19.836452   463 net.cpp:144] Setting up inception_4c/5x5_reduce
I0810 21:05:19.836463   463 net.cpp:151] Top shape: 10 24 40 40 (384000)
I0810 21:05:19.836469   463 net.cpp:159] Memory required for data: 3622978080
I0810 21:05:19.836479   463 layer_factory.hpp:77] Creating layer inception_4c/relu_5x5_reduce
I0810 21:05:19.836488   463 net.cpp:94] Creating Layer inception_4c/relu_5x5_reduce
I0810 21:05:19.836495   463 net.cpp:435] inception_4c/relu_5x5_reduce <- inception_4c/5x5_reduce
I0810 21:05:19.836504   463 net.cpp:396] inception_4c/relu_5x5_reduce -> inception_4c/5x5_reduce (in-place)
I0810 21:05:19.836514   463 net.cpp:144] Setting up inception_4c/relu_5x5_reduce
I0810 21:05:19.836521   463 net.cpp:151] Top shape: 10 24 40 40 (384000)
I0810 21:05:19.836527   463 net.cpp:159] Memory required for data: 3624514080
I0810 21:05:19.836534   463 layer_factory.hpp:77] Creating layer inception_4c/5x5
I0810 21:05:19.836545   463 net.cpp:94] Creating Layer inception_4c/5x5
I0810 21:05:19.836725   463 net.cpp:435] inception_4c/5x5 <- inception_4c/5x5_reduce
I0810 21:05:19.836745   463 net.cpp:409] inception_4c/5x5 -> inception_4c/5x5
I0810 21:05:19.838001   463 net.cpp:144] Setting up inception_4c/5x5
I0810 21:05:19.838021   463 net.cpp:151] Top shape: 10 64 40 40 (1024000)
I0810 21:05:19.838027   463 net.cpp:159] Memory required for data: 3628610080
I0810 21:05:19.838037   463 layer_factory.hpp:77] Creating layer inception_4c/relu_5x5
I0810 21:05:19.838047   463 net.cpp:94] Creating Layer inception_4c/relu_5x5
I0810 21:05:19.838055   463 net.cpp:435] inception_4c/relu_5x5 <- inception_4c/5x5
I0810 21:05:19.838065   463 net.cpp:396] inception_4c/relu_5x5 -> inception_4c/5x5 (in-place)
I0810 21:05:19.838076   463 net.cpp:144] Setting up inception_4c/relu_5x5
I0810 21:05:19.838084   463 net.cpp:151] Top shape: 10 64 40 40 (1024000)
I0810 21:05:19.838111   463 net.cpp:159] Memory required for data: 3632706080
I0810 21:05:19.838119   463 layer_factory.hpp:77] Creating layer inception_4c/pool
I0810 21:05:19.838129   463 net.cpp:94] Creating Layer inception_4c/pool
I0810 21:05:19.838135   463 net.cpp:435] inception_4c/pool <- inception_4b/output_inception_4b/output_0_split_3
I0810 21:05:19.838145   463 net.cpp:409] inception_4c/pool -> inception_4c/pool
I0810 21:05:19.838197   463 net.cpp:144] Setting up inception_4c/pool
I0810 21:05:19.838207   463 net.cpp:151] Top shape: 10 512 40 40 (8192000)
I0810 21:05:19.838213   463 net.cpp:159] Memory required for data: 3665474080
I0810 21:05:19.838219   463 layer_factory.hpp:77] Creating layer inception_4c/pool_proj
I0810 21:05:19.838232   463 net.cpp:94] Creating Layer inception_4c/pool_proj
I0810 21:05:19.838239   463 net.cpp:435] inception_4c/pool_proj <- inception_4c/pool
I0810 21:05:19.838249   463 net.cpp:409] inception_4c/pool_proj -> inception_4c/pool_proj
I0810 21:05:19.838697   463 net.cpp:144] Setting up inception_4c/pool_proj
I0810 21:05:19.838711   463 net.cpp:151] Top shape: 10 64 40 40 (1024000)
I0810 21:05:19.838717   463 net.cpp:159] Memory required for data: 3669570080
I0810 21:05:19.838740   463 layer_factory.hpp:77] Creating layer inception_4c/relu_pool_proj
I0810 21:05:19.838752   463 net.cpp:94] Creating Layer inception_4c/relu_pool_proj
I0810 21:05:19.838758   463 net.cpp:435] inception_4c/relu_pool_proj <- inception_4c/pool_proj
I0810 21:05:19.838768   463 net.cpp:396] inception_4c/relu_pool_proj -> inception_4c/pool_proj (in-place)
I0810 21:05:19.838778   463 net.cpp:144] Setting up inception_4c/relu_pool_proj
I0810 21:05:19.838786   463 net.cpp:151] Top shape: 10 64 40 40 (1024000)
I0810 21:05:19.838791   463 net.cpp:159] Memory required for data: 3673666080
I0810 21:05:19.838798   463 layer_factory.hpp:77] Creating layer inception_4c/output
I0810 21:05:19.838806   463 net.cpp:94] Creating Layer inception_4c/output
I0810 21:05:19.838814   463 net.cpp:435] inception_4c/output <- inception_4c/1x1
I0810 21:05:19.838820   463 net.cpp:435] inception_4c/output <- inception_4c/3x3
I0810 21:05:19.838827   463 net.cpp:435] inception_4c/output <- inception_4c/5x5
I0810 21:05:19.838835   463 net.cpp:435] inception_4c/output <- inception_4c/pool_proj
I0810 21:05:19.838845   463 net.cpp:409] inception_4c/output -> inception_4c/output
I0810 21:05:19.838877   463 net.cpp:144] Setting up inception_4c/output
I0810 21:05:19.838886   463 net.cpp:151] Top shape: 10 512 40 40 (8192000)
I0810 21:05:19.838892   463 net.cpp:159] Memory required for data: 3706434080
I0810 21:05:19.838898   463 layer_factory.hpp:77] Creating layer inception_4c/output_inception_4c/output_0_split
I0810 21:05:19.838908   463 net.cpp:94] Creating Layer inception_4c/output_inception_4c/output_0_split
I0810 21:05:19.838914   463 net.cpp:435] inception_4c/output_inception_4c/output_0_split <- inception_4c/output
I0810 21:05:19.838924   463 net.cpp:409] inception_4c/output_inception_4c/output_0_split -> inception_4c/output_inception_4c/output_0_split_0
I0810 21:05:19.838934   463 net.cpp:409] inception_4c/output_inception_4c/output_0_split -> inception_4c/output_inception_4c/output_0_split_1
I0810 21:05:19.838944   463 net.cpp:409] inception_4c/output_inception_4c/output_0_split -> inception_4c/output_inception_4c/output_0_split_2
I0810 21:05:19.838953   463 net.cpp:409] inception_4c/output_inception_4c/output_0_split -> inception_4c/output_inception_4c/output_0_split_3
I0810 21:05:19.839015   463 net.cpp:144] Setting up inception_4c/output_inception_4c/output_0_split
I0810 21:05:19.839025   463 net.cpp:151] Top shape: 10 512 40 40 (8192000)
I0810 21:05:19.839031   463 net.cpp:151] Top shape: 10 512 40 40 (8192000)
I0810 21:05:19.839038   463 net.cpp:151] Top shape: 10 512 40 40 (8192000)
I0810 21:05:19.839047   463 net.cpp:151] Top shape: 10 512 40 40 (8192000)
I0810 21:05:19.839052   463 net.cpp:159] Memory required for data: 3837506080
I0810 21:05:19.839058   463 layer_factory.hpp:77] Creating layer inception_4d/1x1
I0810 21:05:19.839083   463 net.cpp:94] Creating Layer inception_4d/1x1
I0810 21:05:19.839092   463 net.cpp:435] inception_4d/1x1 <- inception_4c/output_inception_4c/output_0_split_0
I0810 21:05:19.839102   463 net.cpp:409] inception_4d/1x1 -> inception_4d/1x1
I0810 21:05:19.839643   463 net.cpp:144] Setting up inception_4d/1x1
I0810 21:05:19.839665   463 net.cpp:151] Top shape: 10 112 40 40 (1792000)
I0810 21:05:19.839671   463 net.cpp:159] Memory required for data: 3844674080
I0810 21:05:19.839681   463 layer_factory.hpp:77] Creating layer inception_4d/relu_1x1
I0810 21:05:19.839690   463 net.cpp:94] Creating Layer inception_4d/relu_1x1
I0810 21:05:19.839697   463 net.cpp:435] inception_4d/relu_1x1 <- inception_4d/1x1
I0810 21:05:19.839706   463 net.cpp:396] inception_4d/relu_1x1 -> inception_4d/1x1 (in-place)
I0810 21:05:19.839716   463 net.cpp:144] Setting up inception_4d/relu_1x1
I0810 21:05:19.839725   463 net.cpp:151] Top shape: 10 112 40 40 (1792000)
I0810 21:05:19.839730   463 net.cpp:159] Memory required for data: 3851842080
I0810 21:05:19.839736   463 layer_factory.hpp:77] Creating layer inception_4d/3x3_reduce
I0810 21:05:19.839747   463 net.cpp:94] Creating Layer inception_4d/3x3_reduce
I0810 21:05:19.839753   463 net.cpp:435] inception_4d/3x3_reduce <- inception_4c/output_inception_4c/output_0_split_1
I0810 21:05:19.839764   463 net.cpp:409] inception_4d/3x3_reduce -> inception_4d/3x3_reduce
I0810 21:05:19.840426   463 net.cpp:144] Setting up inception_4d/3x3_reduce
I0810 21:05:19.840438   463 net.cpp:151] Top shape: 10 144 40 40 (2304000)
I0810 21:05:19.840445   463 net.cpp:159] Memory required for data: 3861058080
I0810 21:05:19.840453   463 layer_factory.hpp:77] Creating layer inception_4d/relu_3x3_reduce
I0810 21:05:19.840462   463 net.cpp:94] Creating Layer inception_4d/relu_3x3_reduce
I0810 21:05:19.840469   463 net.cpp:435] inception_4d/relu_3x3_reduce <- inception_4d/3x3_reduce
I0810 21:05:19.840477   463 net.cpp:396] inception_4d/relu_3x3_reduce -> inception_4d/3x3_reduce (in-place)
I0810 21:05:19.840487   463 net.cpp:144] Setting up inception_4d/relu_3x3_reduce
I0810 21:05:19.840494   463 net.cpp:151] Top shape: 10 144 40 40 (2304000)
I0810 21:05:19.840500   463 net.cpp:159] Memory required for data: 3870274080
I0810 21:05:19.840507   463 layer_factory.hpp:77] Creating layer inception_4d/3x3
I0810 21:05:19.840517   463 net.cpp:94] Creating Layer inception_4d/3x3
I0810 21:05:19.840523   463 net.cpp:435] inception_4d/3x3 <- inception_4d/3x3_reduce
I0810 21:05:19.840533   463 net.cpp:409] inception_4d/3x3 -> inception_4d/3x3
I0810 21:05:19.844781   463 net.cpp:144] Setting up inception_4d/3x3
I0810 21:05:19.844805   463 net.cpp:151] Top shape: 10 288 40 40 (4608000)
I0810 21:05:19.844811   463 net.cpp:159] Memory required for data: 3888706080
I0810 21:05:19.844822   463 layer_factory.hpp:77] Creating layer inception_4d/relu_3x3
I0810 21:05:19.844833   463 net.cpp:94] Creating Layer inception_4d/relu_3x3
I0810 21:05:19.844841   463 net.cpp:435] inception_4d/relu_3x3 <- inception_4d/3x3
I0810 21:05:19.844851   463 net.cpp:396] inception_4d/relu_3x3 -> inception_4d/3x3 (in-place)
I0810 21:05:19.844864   463 net.cpp:144] Setting up inception_4d/relu_3x3
I0810 21:05:19.844871   463 net.cpp:151] Top shape: 10 288 40 40 (4608000)
I0810 21:05:19.844877   463 net.cpp:159] Memory required for data: 3907138080
I0810 21:05:19.844915   463 layer_factory.hpp:77] Creating layer inception_4d/5x5_reduce
I0810 21:05:19.844929   463 net.cpp:94] Creating Layer inception_4d/5x5_reduce
I0810 21:05:19.844938   463 net.cpp:435] inception_4d/5x5_reduce <- inception_4c/output_inception_4c/output_0_split_2
I0810 21:05:19.844947   463 net.cpp:409] inception_4d/5x5_reduce -> inception_4d/5x5_reduce
I0810 21:05:19.845305   463 net.cpp:144] Setting up inception_4d/5x5_reduce
I0810 21:05:19.845319   463 net.cpp:151] Top shape: 10 32 40 40 (512000)
I0810 21:05:19.845325   463 net.cpp:159] Memory required for data: 3909186080
I0810 21:05:19.845335   463 layer_factory.hpp:77] Creating layer inception_4d/relu_5x5_reduce
I0810 21:05:19.845368   463 net.cpp:94] Creating Layer inception_4d/relu_5x5_reduce
I0810 21:05:19.845376   463 net.cpp:435] inception_4d/relu_5x5_reduce <- inception_4d/5x5_reduce
I0810 21:05:19.845386   463 net.cpp:396] inception_4d/relu_5x5_reduce -> inception_4d/5x5_reduce (in-place)
I0810 21:05:19.845396   463 net.cpp:144] Setting up inception_4d/relu_5x5_reduce
I0810 21:05:19.845403   463 net.cpp:151] Top shape: 10 32 40 40 (512000)
I0810 21:05:19.845409   463 net.cpp:159] Memory required for data: 3911234080
I0810 21:05:19.845415   463 layer_factory.hpp:77] Creating layer inception_4d/5x5
I0810 21:05:19.845427   463 net.cpp:94] Creating Layer inception_4d/5x5
I0810 21:05:19.845432   463 net.cpp:435] inception_4d/5x5 <- inception_4d/5x5_reduce
I0810 21:05:19.845443   463 net.cpp:409] inception_4d/5x5 -> inception_4d/5x5
I0810 21:05:19.846007   463 net.cpp:144] Setting up inception_4d/5x5
I0810 21:05:19.846021   463 net.cpp:151] Top shape: 10 64 40 40 (1024000)
I0810 21:05:19.846027   463 net.cpp:159] Memory required for data: 3915330080
I0810 21:05:19.846036   463 layer_factory.hpp:77] Creating layer inception_4d/relu_5x5
I0810 21:05:19.846046   463 net.cpp:94] Creating Layer inception_4d/relu_5x5
I0810 21:05:19.846053   463 net.cpp:435] inception_4d/relu_5x5 <- inception_4d/5x5
I0810 21:05:19.846062   463 net.cpp:396] inception_4d/relu_5x5 -> inception_4d/5x5 (in-place)
I0810 21:05:19.846073   463 net.cpp:144] Setting up inception_4d/relu_5x5
I0810 21:05:19.846081   463 net.cpp:151] Top shape: 10 64 40 40 (1024000)
I0810 21:05:19.846086   463 net.cpp:159] Memory required for data: 3919426080
I0810 21:05:19.846092   463 layer_factory.hpp:77] Creating layer inception_4d/pool
I0810 21:05:19.846102   463 net.cpp:94] Creating Layer inception_4d/pool
I0810 21:05:19.846109   463 net.cpp:435] inception_4d/pool <- inception_4c/output_inception_4c/output_0_split_3
I0810 21:05:19.846118   463 net.cpp:409] inception_4d/pool -> inception_4d/pool
I0810 21:05:19.846168   463 net.cpp:144] Setting up inception_4d/pool
I0810 21:05:19.846179   463 net.cpp:151] Top shape: 10 512 40 40 (8192000)
I0810 21:05:19.846184   463 net.cpp:159] Memory required for data: 3952194080
I0810 21:05:19.846190   463 layer_factory.hpp:77] Creating layer inception_4d/pool_proj
I0810 21:05:19.846202   463 net.cpp:94] Creating Layer inception_4d/pool_proj
I0810 21:05:19.846210   463 net.cpp:435] inception_4d/pool_proj <- inception_4d/pool
I0810 21:05:19.846220   463 net.cpp:409] inception_4d/pool_proj -> inception_4d/pool_proj
I0810 21:05:19.846637   463 net.cpp:144] Setting up inception_4d/pool_proj
I0810 21:05:19.846698   463 net.cpp:151] Top shape: 10 64 40 40 (1024000)
I0810 21:05:19.846706   463 net.cpp:159] Memory required for data: 3956290080
I0810 21:05:19.846715   463 layer_factory.hpp:77] Creating layer inception_4d/relu_pool_proj
I0810 21:05:19.846725   463 net.cpp:94] Creating Layer inception_4d/relu_pool_proj
I0810 21:05:19.846732   463 net.cpp:435] inception_4d/relu_pool_proj <- inception_4d/pool_proj
I0810 21:05:19.846742   463 net.cpp:396] inception_4d/relu_pool_proj -> inception_4d/pool_proj (in-place)
I0810 21:05:19.846753   463 net.cpp:144] Setting up inception_4d/relu_pool_proj
I0810 21:05:19.846760   463 net.cpp:151] Top shape: 10 64 40 40 (1024000)
I0810 21:05:19.846766   463 net.cpp:159] Memory required for data: 3960386080
I0810 21:05:19.846772   463 layer_factory.hpp:77] Creating layer inception_4d/output
I0810 21:05:19.846781   463 net.cpp:94] Creating Layer inception_4d/output
I0810 21:05:19.846788   463 net.cpp:435] inception_4d/output <- inception_4d/1x1
I0810 21:05:19.846796   463 net.cpp:435] inception_4d/output <- inception_4d/3x3
I0810 21:05:19.846803   463 net.cpp:435] inception_4d/output <- inception_4d/5x5
I0810 21:05:19.846812   463 net.cpp:435] inception_4d/output <- inception_4d/pool_proj
I0810 21:05:19.846822   463 net.cpp:409] inception_4d/output -> inception_4d/output
I0810 21:05:19.846856   463 net.cpp:144] Setting up inception_4d/output
I0810 21:05:19.846866   463 net.cpp:151] Top shape: 10 528 40 40 (8448000)
I0810 21:05:19.846886   463 net.cpp:159] Memory required for data: 3994178080
I0810 21:05:19.846894   463 layer_factory.hpp:77] Creating layer inception_4d/output_inception_4d/output_0_split
I0810 21:05:19.846904   463 net.cpp:94] Creating Layer inception_4d/output_inception_4d/output_0_split
I0810 21:05:19.846910   463 net.cpp:435] inception_4d/output_inception_4d/output_0_split <- inception_4d/output
I0810 21:05:19.846920   463 net.cpp:409] inception_4d/output_inception_4d/output_0_split -> inception_4d/output_inception_4d/output_0_split_0
I0810 21:05:19.846931   463 net.cpp:409] inception_4d/output_inception_4d/output_0_split -> inception_4d/output_inception_4d/output_0_split_1
I0810 21:05:19.846942   463 net.cpp:409] inception_4d/output_inception_4d/output_0_split -> inception_4d/output_inception_4d/output_0_split_2
I0810 21:05:19.846951   463 net.cpp:409] inception_4d/output_inception_4d/output_0_split -> inception_4d/output_inception_4d/output_0_split_3
I0810 21:05:19.847014   463 net.cpp:144] Setting up inception_4d/output_inception_4d/output_0_split
I0810 21:05:19.847024   463 net.cpp:151] Top shape: 10 528 40 40 (8448000)
I0810 21:05:19.847031   463 net.cpp:151] Top shape: 10 528 40 40 (8448000)
I0810 21:05:19.847038   463 net.cpp:151] Top shape: 10 528 40 40 (8448000)
I0810 21:05:19.847044   463 net.cpp:151] Top shape: 10 528 40 40 (8448000)
I0810 21:05:19.847050   463 net.cpp:159] Memory required for data: 4129346080
I0810 21:05:19.847056   463 layer_factory.hpp:77] Creating layer inception_4e/1x1
I0810 21:05:19.847067   463 net.cpp:94] Creating Layer inception_4e/1x1
I0810 21:05:19.847074   463 net.cpp:435] inception_4e/1x1 <- inception_4d/output_inception_4d/output_0_split_0
I0810 21:05:19.847085   463 net.cpp:409] inception_4e/1x1 -> inception_4e/1x1
I0810 21:05:19.848984   463 net.cpp:144] Setting up inception_4e/1x1
I0810 21:05:19.849002   463 net.cpp:151] Top shape: 10 256 40 40 (4096000)
I0810 21:05:19.849009   463 net.cpp:159] Memory required for data: 4145730080
I0810 21:05:19.849020   463 layer_factory.hpp:77] Creating layer inception_4e/relu_1x1
I0810 21:05:19.849030   463 net.cpp:94] Creating Layer inception_4e/relu_1x1
I0810 21:05:19.849037   463 net.cpp:435] inception_4e/relu_1x1 <- inception_4e/1x1
I0810 21:05:19.849047   463 net.cpp:396] inception_4e/relu_1x1 -> inception_4e/1x1 (in-place)
I0810 21:05:19.849059   463 net.cpp:144] Setting up inception_4e/relu_1x1
I0810 21:05:19.849067   463 net.cpp:151] Top shape: 10 256 40 40 (4096000)
I0810 21:05:19.849072   463 net.cpp:159] Memory required for data: 4162114080
I0810 21:05:19.849078   463 layer_factory.hpp:77] Creating layer inception_4e/3x3_reduce
I0810 21:05:19.849090   463 net.cpp:94] Creating Layer inception_4e/3x3_reduce
I0810 21:05:19.849097   463 net.cpp:435] inception_4e/3x3_reduce <- inception_4d/output_inception_4d/output_0_split_1
I0810 21:05:19.849109   463 net.cpp:409] inception_4e/3x3_reduce -> inception_4e/3x3_reduce
I0810 21:05:19.850162   463 net.cpp:144] Setting up inception_4e/3x3_reduce
I0810 21:05:19.850179   463 net.cpp:151] Top shape: 10 160 40 40 (2560000)
I0810 21:05:19.850185   463 net.cpp:159] Memory required for data: 4172354080
I0810 21:05:19.850194   463 layer_factory.hpp:77] Creating layer inception_4e/relu_3x3_reduce
I0810 21:05:19.850204   463 net.cpp:94] Creating Layer inception_4e/relu_3x3_reduce
I0810 21:05:19.850212   463 net.cpp:435] inception_4e/relu_3x3_reduce <- inception_4e/3x3_reduce
I0810 21:05:19.850222   463 net.cpp:396] inception_4e/relu_3x3_reduce -> inception_4e/3x3_reduce (in-place)
I0810 21:05:19.850234   463 net.cpp:144] Setting up inception_4e/relu_3x3_reduce
I0810 21:05:19.850240   463 net.cpp:151] Top shape: 10 160 40 40 (2560000)
I0810 21:05:19.850246   463 net.cpp:159] Memory required for data: 4182594080
I0810 21:05:19.850252   463 layer_factory.hpp:77] Creating layer inception_4e/3x3
I0810 21:05:19.850265   463 net.cpp:94] Creating Layer inception_4e/3x3
I0810 21:05:19.850272   463 net.cpp:435] inception_4e/3x3 <- inception_4e/3x3_reduce
I0810 21:05:19.850283   463 net.cpp:409] inception_4e/3x3 -> inception_4e/3x3
I0810 21:05:19.863759   463 net.cpp:144] Setting up inception_4e/3x3
I0810 21:05:19.863790   463 net.cpp:151] Top shape: 10 320 40 40 (5120000)
I0810 21:05:19.863797   463 net.cpp:159] Memory required for data: 4203074080
I0810 21:05:19.863811   463 layer_factory.hpp:77] Creating layer inception_4e/relu_3x3
I0810 21:05:19.863823   463 net.cpp:94] Creating Layer inception_4e/relu_3x3
I0810 21:05:19.863832   463 net.cpp:435] inception_4e/relu_3x3 <- inception_4e/3x3
I0810 21:05:19.863843   463 net.cpp:396] inception_4e/relu_3x3 -> inception_4e/3x3 (in-place)
I0810 21:05:19.863860   463 net.cpp:144] Setting up inception_4e/relu_3x3
I0810 21:05:19.863867   463 net.cpp:151] Top shape: 10 320 40 40 (5120000)
I0810 21:05:19.863873   463 net.cpp:159] Memory required for data: 4223554080
I0810 21:05:19.863879   463 layer_factory.hpp:77] Creating layer inception_4e/5x5_reduce
I0810 21:05:19.863893   463 net.cpp:94] Creating Layer inception_4e/5x5_reduce
I0810 21:05:19.863900   463 net.cpp:435] inception_4e/5x5_reduce <- inception_4d/output_inception_4d/output_0_split_2
I0810 21:05:19.863911   463 net.cpp:409] inception_4e/5x5_reduce -> inception_4e/5x5_reduce
I0810 21:05:19.864269   463 net.cpp:144] Setting up inception_4e/5x5_reduce
I0810 21:05:19.864281   463 net.cpp:151] Top shape: 10 32 40 40 (512000)
I0810 21:05:19.864287   463 net.cpp:159] Memory required for data: 4225602080
I0810 21:05:19.864296   463 layer_factory.hpp:77] Creating layer inception_4e/relu_5x5_reduce
I0810 21:05:19.864305   463 net.cpp:94] Creating Layer inception_4e/relu_5x5_reduce
I0810 21:05:19.864312   463 net.cpp:435] inception_4e/relu_5x5_reduce <- inception_4e/5x5_reduce
I0810 21:05:19.864321   463 net.cpp:396] inception_4e/relu_5x5_reduce -> inception_4e/5x5_reduce (in-place)
I0810 21:05:19.864332   463 net.cpp:144] Setting up inception_4e/relu_5x5_reduce
I0810 21:05:19.864339   463 net.cpp:151] Top shape: 10 32 40 40 (512000)
I0810 21:05:19.864346   463 net.cpp:159] Memory required for data: 4227650080
I0810 21:05:19.864351   463 layer_factory.hpp:77] Creating layer inception_4e/5x5
I0810 21:05:19.864362   463 net.cpp:94] Creating Layer inception_4e/5x5
I0810 21:05:19.864369   463 net.cpp:435] inception_4e/5x5 <- inception_4e/5x5_reduce
I0810 21:05:19.864379   463 net.cpp:409] inception_4e/5x5 -> inception_4e/5x5
I0810 21:05:19.869689   463 net.cpp:144] Setting up inception_4e/5x5
I0810 21:05:19.869732   463 net.cpp:151] Top shape: 10 128 40 40 (2048000)
I0810 21:05:19.869740   463 net.cpp:159] Memory required for data: 4235842080
I0810 21:05:19.869752   463 layer_factory.hpp:77] Creating layer inception_4e/relu_5x5
I0810 21:05:19.869766   463 net.cpp:94] Creating Layer inception_4e/relu_5x5
I0810 21:05:19.869776   463 net.cpp:435] inception_4e/relu_5x5 <- inception_4e/5x5
I0810 21:05:19.869789   463 net.cpp:396] inception_4e/relu_5x5 -> inception_4e/5x5 (in-place)
I0810 21:05:19.869805   463 net.cpp:144] Setting up inception_4e/relu_5x5
I0810 21:05:19.869813   463 net.cpp:151] Top shape: 10 128 40 40 (2048000)
I0810 21:05:19.869819   463 net.cpp:159] Memory required for data: 4244034080
I0810 21:05:19.869825   463 layer_factory.hpp:77] Creating layer inception_4e/pool
I0810 21:05:19.869837   463 net.cpp:94] Creating Layer inception_4e/pool
I0810 21:05:19.869844   463 net.cpp:435] inception_4e/pool <- inception_4d/output_inception_4d/output_0_split_3
I0810 21:05:19.869854   463 net.cpp:409] inception_4e/pool -> inception_4e/pool
I0810 21:05:19.869963   463 net.cpp:144] Setting up inception_4e/pool
I0810 21:05:19.869976   463 net.cpp:151] Top shape: 10 528 40 40 (8448000)
I0810 21:05:19.869982   463 net.cpp:159] Memory required for data: 4277826080
I0810 21:05:19.869989   463 layer_factory.hpp:77] Creating layer inception_4e/pool_proj
I0810 21:05:19.870005   463 net.cpp:94] Creating Layer inception_4e/pool_proj
I0810 21:05:19.870012   463 net.cpp:435] inception_4e/pool_proj <- inception_4e/pool
I0810 21:05:19.870023   463 net.cpp:409] inception_4e/pool_proj -> inception_4e/pool_proj
I0810 21:05:19.870775   463 net.cpp:144] Setting up inception_4e/pool_proj
I0810 21:05:19.870790   463 net.cpp:151] Top shape: 10 128 40 40 (2048000)
I0810 21:05:19.870796   463 net.cpp:159] Memory required for data: 4286018080
I0810 21:05:19.870806   463 layer_factory.hpp:77] Creating layer inception_4e/relu_pool_proj
I0810 21:05:19.870856   463 net.cpp:94] Creating Layer inception_4e/relu_pool_proj
I0810 21:05:19.870863   463 net.cpp:435] inception_4e/relu_pool_proj <- inception_4e/pool_proj
I0810 21:05:19.870872   463 net.cpp:396] inception_4e/relu_pool_proj -> inception_4e/pool_proj (in-place)
I0810 21:05:19.870883   463 net.cpp:144] Setting up inception_4e/relu_pool_proj
I0810 21:05:19.870890   463 net.cpp:151] Top shape: 10 128 40 40 (2048000)
I0810 21:05:19.870896   463 net.cpp:159] Memory required for data: 4294210080
I0810 21:05:19.870903   463 layer_factory.hpp:77] Creating layer inception_4e/output
I0810 21:05:19.870913   463 net.cpp:94] Creating Layer inception_4e/output
I0810 21:05:19.870918   463 net.cpp:435] inception_4e/output <- inception_4e/1x1
I0810 21:05:19.870926   463 net.cpp:435] inception_4e/output <- inception_4e/3x3
I0810 21:05:19.870934   463 net.cpp:435] inception_4e/output <- inception_4e/5x5
I0810 21:05:19.870941   463 net.cpp:435] inception_4e/output <- inception_4e/pool_proj
I0810 21:05:19.870949   463 net.cpp:409] inception_4e/output -> inception_4e/output
I0810 21:05:19.870983   463 net.cpp:144] Setting up inception_4e/output
I0810 21:05:19.870993   463 net.cpp:151] Top shape: 10 832 40 40 (13312000)
I0810 21:05:19.870998   463 net.cpp:159] Memory required for data: 4347458080
I0810 21:05:19.871004   463 layer_factory.hpp:77] Creating layer inception_4e/output_inception_4e/output_0_split
I0810 21:05:19.871014   463 net.cpp:94] Creating Layer inception_4e/output_inception_4e/output_0_split
I0810 21:05:19.871021   463 net.cpp:435] inception_4e/output_inception_4e/output_0_split <- inception_4e/output
I0810 21:05:19.871029   463 net.cpp:409] inception_4e/output_inception_4e/output_0_split -> inception_4e/output_inception_4e/output_0_split_0
I0810 21:05:19.871040   463 net.cpp:409] inception_4e/output_inception_4e/output_0_split -> inception_4e/output_inception_4e/output_0_split_1
I0810 21:05:19.871050   463 net.cpp:409] inception_4e/output_inception_4e/output_0_split -> inception_4e/output_inception_4e/output_0_split_2
I0810 21:05:19.871060   463 net.cpp:409] inception_4e/output_inception_4e/output_0_split -> inception_4e/output_inception_4e/output_0_split_3
I0810 21:05:19.871125   463 net.cpp:144] Setting up inception_4e/output_inception_4e/output_0_split
I0810 21:05:19.871134   463 net.cpp:151] Top shape: 10 832 40 40 (13312000)
I0810 21:05:19.871140   463 net.cpp:151] Top shape: 10 832 40 40 (13312000)
I0810 21:05:19.871148   463 net.cpp:151] Top shape: 10 832 40 40 (13312000)
I0810 21:05:19.871157   463 net.cpp:151] Top shape: 10 832 40 40 (13312000)
I0810 21:05:19.871163   463 net.cpp:159] Memory required for data: 4560450080
I0810 21:05:19.871170   463 layer_factory.hpp:77] Creating layer inception_5a/1x1
I0810 21:05:19.871182   463 net.cpp:94] Creating Layer inception_5a/1x1
I0810 21:05:19.871188   463 net.cpp:435] inception_5a/1x1 <- inception_4e/output_inception_4e/output_0_split_0
I0810 21:05:19.871199   463 net.cpp:409] inception_5a/1x1 -> inception_5a/1x1
I0810 21:05:19.891589   463 net.cpp:144] Setting up inception_5a/1x1
I0810 21:05:19.891633   463 net.cpp:151] Top shape: 10 256 40 40 (4096000)
I0810 21:05:19.891639   463 net.cpp:159] Memory required for data: 4576834080
I0810 21:05:19.891662   463 layer_factory.hpp:77] Creating layer inception_5a/relu_1x1
I0810 21:05:19.891680   463 net.cpp:94] Creating Layer inception_5a/relu_1x1
I0810 21:05:19.891690   463 net.cpp:435] inception_5a/relu_1x1 <- inception_5a/1x1
I0810 21:05:19.891703   463 net.cpp:396] inception_5a/relu_1x1 -> inception_5a/1x1 (in-place)
I0810 21:05:19.891721   463 net.cpp:144] Setting up inception_5a/relu_1x1
I0810 21:05:19.891729   463 net.cpp:151] Top shape: 10 256 40 40 (4096000)
I0810 21:05:19.891736   463 net.cpp:159] Memory required for data: 4593218080
I0810 21:05:19.891778   463 layer_factory.hpp:77] Creating layer inception_5a/3x3_reduce
I0810 21:05:19.891795   463 net.cpp:94] Creating Layer inception_5a/3x3_reduce
I0810 21:05:19.891803   463 net.cpp:435] inception_5a/3x3_reduce <- inception_4e/output_inception_4e/output_0_split_1
I0810 21:05:19.891815   463 net.cpp:409] inception_5a/3x3_reduce -> inception_5a/3x3_reduce
I0810 21:05:19.893712   463 net.cpp:144] Setting up inception_5a/3x3_reduce
I0810 21:05:19.893733   463 net.cpp:151] Top shape: 10 160 40 40 (2560000)
I0810 21:05:19.893738   463 net.cpp:159] Memory required for data: 4603458080
I0810 21:05:19.893749   463 layer_factory.hpp:77] Creating layer inception_5a/relu_3x3_reduce
I0810 21:05:19.893760   463 net.cpp:94] Creating Layer inception_5a/relu_3x3_reduce
I0810 21:05:19.893769   463 net.cpp:435] inception_5a/relu_3x3_reduce <- inception_5a/3x3_reduce
I0810 21:05:19.893779   463 net.cpp:396] inception_5a/relu_3x3_reduce -> inception_5a/3x3_reduce (in-place)
I0810 21:05:19.893791   463 net.cpp:144] Setting up inception_5a/relu_3x3_reduce
I0810 21:05:19.893798   463 net.cpp:151] Top shape: 10 160 40 40 (2560000)
I0810 21:05:19.893805   463 net.cpp:159] Memory required for data: 4613698080
I0810 21:05:19.893810   463 layer_factory.hpp:77] Creating layer inception_5a/3x3
I0810 21:05:19.893824   463 net.cpp:94] Creating Layer inception_5a/3x3
I0810 21:05:19.893831   463 net.cpp:435] inception_5a/3x3 <- inception_5a/3x3_reduce
I0810 21:05:19.893842   463 net.cpp:409] inception_5a/3x3 -> inception_5a/3x3
I0810 21:05:19.907948   463 net.cpp:144] Setting up inception_5a/3x3
I0810 21:05:19.907997   463 net.cpp:151] Top shape: 10 320 40 40 (5120000)
I0810 21:05:19.908004   463 net.cpp:159] Memory required for data: 4634178080
I0810 21:05:19.908018   463 layer_factory.hpp:77] Creating layer inception_5a/relu_3x3
I0810 21:05:19.908035   463 net.cpp:94] Creating Layer inception_5a/relu_3x3
I0810 21:05:19.908044   463 net.cpp:435] inception_5a/relu_3x3 <- inception_5a/3x3
I0810 21:05:19.908057   463 net.cpp:396] inception_5a/relu_3x3 -> inception_5a/3x3 (in-place)
I0810 21:05:19.908076   463 net.cpp:144] Setting up inception_5a/relu_3x3
I0810 21:05:19.908083   463 net.cpp:151] Top shape: 10 320 40 40 (5120000)
I0810 21:05:19.908088   463 net.cpp:159] Memory required for data: 4654658080
I0810 21:05:19.908095   463 layer_factory.hpp:77] Creating layer inception_5a/5x5_reduce
I0810 21:05:19.908110   463 net.cpp:94] Creating Layer inception_5a/5x5_reduce
I0810 21:05:19.908118   463 net.cpp:435] inception_5a/5x5_reduce <- inception_4e/output_inception_4e/output_0_split_2
I0810 21:05:19.908129   463 net.cpp:409] inception_5a/5x5_reduce -> inception_5a/5x5_reduce
I0810 21:05:19.908658   463 net.cpp:144] Setting up inception_5a/5x5_reduce
I0810 21:05:19.908674   463 net.cpp:151] Top shape: 10 32 40 40 (512000)
I0810 21:05:19.908679   463 net.cpp:159] Memory required for data: 4656706080
I0810 21:05:19.908689   463 layer_factory.hpp:77] Creating layer inception_5a/relu_5x5_reduce
I0810 21:05:19.908699   463 net.cpp:94] Creating Layer inception_5a/relu_5x5_reduce
I0810 21:05:19.908707   463 net.cpp:435] inception_5a/relu_5x5_reduce <- inception_5a/5x5_reduce
I0810 21:05:19.908716   463 net.cpp:396] inception_5a/relu_5x5_reduce -> inception_5a/5x5_reduce (in-place)
I0810 21:05:19.908728   463 net.cpp:144] Setting up inception_5a/relu_5x5_reduce
I0810 21:05:19.908735   463 net.cpp:151] Top shape: 10 32 40 40 (512000)
I0810 21:05:19.908741   463 net.cpp:159] Memory required for data: 4658754080
I0810 21:05:19.908748   463 layer_factory.hpp:77] Creating layer inception_5a/5x5
I0810 21:05:19.908761   463 net.cpp:94] Creating Layer inception_5a/5x5
I0810 21:05:19.908767   463 net.cpp:435] inception_5a/5x5 <- inception_5a/5x5_reduce
I0810 21:05:19.908778   463 net.cpp:409] inception_5a/5x5 -> inception_5a/5x5
I0810 21:05:19.909979   463 net.cpp:144] Setting up inception_5a/5x5
I0810 21:05:19.909998   463 net.cpp:151] Top shape: 10 128 40 40 (2048000)
I0810 21:05:19.910006   463 net.cpp:159] Memory required for data: 4666946080
I0810 21:05:19.910056   463 layer_factory.hpp:77] Creating layer inception_5a/relu_5x5
I0810 21:05:19.910068   463 net.cpp:94] Creating Layer inception_5a/relu_5x5
I0810 21:05:19.910075   463 net.cpp:435] inception_5a/relu_5x5 <- inception_5a/5x5
I0810 21:05:19.910084   463 net.cpp:396] inception_5a/relu_5x5 -> inception_5a/5x5 (in-place)
I0810 21:05:19.910096   463 net.cpp:144] Setting up inception_5a/relu_5x5
I0810 21:05:19.910104   463 net.cpp:151] Top shape: 10 128 40 40 (2048000)
I0810 21:05:19.910109   463 net.cpp:159] Memory required for data: 4675138080
I0810 21:05:19.910116   463 layer_factory.hpp:77] Creating layer inception_5a/pool
I0810 21:05:19.910127   463 net.cpp:94] Creating Layer inception_5a/pool
I0810 21:05:19.910135   463 net.cpp:435] inception_5a/pool <- inception_4e/output_inception_4e/output_0_split_3
I0810 21:05:19.910143   463 net.cpp:409] inception_5a/pool -> inception_5a/pool
I0810 21:05:19.910200   463 net.cpp:144] Setting up inception_5a/pool
I0810 21:05:19.910212   463 net.cpp:151] Top shape: 10 832 40 40 (13312000)
I0810 21:05:19.910218   463 net.cpp:159] Memory required for data: 4728386080
I0810 21:05:19.910223   463 layer_factory.hpp:77] Creating layer inception_5a/pool_proj
I0810 21:05:19.910236   463 net.cpp:94] Creating Layer inception_5a/pool_proj
I0810 21:05:19.910243   463 net.cpp:435] inception_5a/pool_proj <- inception_5a/pool
I0810 21:05:19.910254   463 net.cpp:409] inception_5a/pool_proj -> inception_5a/pool_proj
I0810 21:05:19.912039   463 net.cpp:144] Setting up inception_5a/pool_proj
I0810 21:05:19.912060   463 net.cpp:151] Top shape: 10 128 40 40 (2048000)
I0810 21:05:19.912065   463 net.cpp:159] Memory required for data: 4736578080
I0810 21:05:19.912075   463 layer_factory.hpp:77] Creating layer inception_5a/relu_pool_proj
I0810 21:05:19.912086   463 net.cpp:94] Creating Layer inception_5a/relu_pool_proj
I0810 21:05:19.912093   463 net.cpp:435] inception_5a/relu_pool_proj <- inception_5a/pool_proj
I0810 21:05:19.912104   463 net.cpp:396] inception_5a/relu_pool_proj -> inception_5a/pool_proj (in-place)
I0810 21:05:19.912115   463 net.cpp:144] Setting up inception_5a/relu_pool_proj
I0810 21:05:19.912123   463 net.cpp:151] Top shape: 10 128 40 40 (2048000)
I0810 21:05:19.912128   463 net.cpp:159] Memory required for data: 4744770080
I0810 21:05:19.912134   463 layer_factory.hpp:77] Creating layer inception_5a/output
I0810 21:05:19.912144   463 net.cpp:94] Creating Layer inception_5a/output
I0810 21:05:19.912153   463 net.cpp:435] inception_5a/output <- inception_5a/1x1
I0810 21:05:19.912160   463 net.cpp:435] inception_5a/output <- inception_5a/3x3
I0810 21:05:19.912168   463 net.cpp:435] inception_5a/output <- inception_5a/5x5
I0810 21:05:19.912175   463 net.cpp:435] inception_5a/output <- inception_5a/pool_proj
I0810 21:05:19.912185   463 net.cpp:409] inception_5a/output -> inception_5a/output
I0810 21:05:19.912220   463 net.cpp:144] Setting up inception_5a/output
I0810 21:05:19.912230   463 net.cpp:151] Top shape: 10 832 40 40 (13312000)
I0810 21:05:19.912235   463 net.cpp:159] Memory required for data: 4798018080
I0810 21:05:19.912241   463 layer_factory.hpp:77] Creating layer inception_5a/output_inception_5a/output_0_split
I0810 21:05:19.912252   463 net.cpp:94] Creating Layer inception_5a/output_inception_5a/output_0_split
I0810 21:05:19.912259   463 net.cpp:435] inception_5a/output_inception_5a/output_0_split <- inception_5a/output
I0810 21:05:19.912269   463 net.cpp:409] inception_5a/output_inception_5a/output_0_split -> inception_5a/output_inception_5a/output_0_split_0
I0810 21:05:19.912281   463 net.cpp:409] inception_5a/output_inception_5a/output_0_split -> inception_5a/output_inception_5a/output_0_split_1
I0810 21:05:19.912292   463 net.cpp:409] inception_5a/output_inception_5a/output_0_split -> inception_5a/output_inception_5a/output_0_split_2
I0810 21:05:19.912302   463 net.cpp:409] inception_5a/output_inception_5a/output_0_split -> inception_5a/output_inception_5a/output_0_split_3
I0810 21:05:19.912364   463 net.cpp:144] Setting up inception_5a/output_inception_5a/output_0_split
I0810 21:05:19.912394   463 net.cpp:151] Top shape: 10 832 40 40 (13312000)
I0810 21:05:19.912400   463 net.cpp:151] Top shape: 10 832 40 40 (13312000)
I0810 21:05:19.912407   463 net.cpp:151] Top shape: 10 832 40 40 (13312000)
I0810 21:05:19.912415   463 net.cpp:151] Top shape: 10 832 40 40 (13312000)
I0810 21:05:19.912420   463 net.cpp:159] Memory required for data: 5011010080
I0810 21:05:19.912426   463 layer_factory.hpp:77] Creating layer inception_5b/1x1
I0810 21:05:19.912438   463 net.cpp:94] Creating Layer inception_5b/1x1
I0810 21:05:19.912446   463 net.cpp:435] inception_5b/1x1 <- inception_5a/output_inception_5a/output_0_split_0
I0810 21:05:19.912456   463 net.cpp:409] inception_5b/1x1 -> inception_5b/1x1
I0810 21:05:19.915249   463 net.cpp:144] Setting up inception_5b/1x1
I0810 21:05:19.915268   463 net.cpp:151] Top shape: 10 384 40 40 (6144000)
I0810 21:05:19.915274   463 net.cpp:159] Memory required for data: 5035586080
I0810 21:05:19.915284   463 layer_factory.hpp:77] Creating layer inception_5b/relu_1x1
I0810 21:05:19.915295   463 net.cpp:94] Creating Layer inception_5b/relu_1x1
I0810 21:05:19.915303   463 net.cpp:435] inception_5b/relu_1x1 <- inception_5b/1x1
I0810 21:05:19.915313   463 net.cpp:396] inception_5b/relu_1x1 -> inception_5b/1x1 (in-place)
I0810 21:05:19.915324   463 net.cpp:144] Setting up inception_5b/relu_1x1
I0810 21:05:19.915333   463 net.cpp:151] Top shape: 10 384 40 40 (6144000)
I0810 21:05:19.915338   463 net.cpp:159] Memory required for data: 5060162080
I0810 21:05:19.915345   463 layer_factory.hpp:77] Creating layer inception_5b/3x3_reduce
I0810 21:05:19.915359   463 net.cpp:94] Creating Layer inception_5b/3x3_reduce
I0810 21:05:19.915365   463 net.cpp:435] inception_5b/3x3_reduce <- inception_5a/output_inception_5a/output_0_split_1
I0810 21:05:19.915377   463 net.cpp:409] inception_5b/3x3_reduce -> inception_5b/3x3_reduce
I0810 21:05:19.926470   463 net.cpp:144] Setting up inception_5b/3x3_reduce
I0810 21:05:19.926519   463 net.cpp:151] Top shape: 10 192 40 40 (3072000)
I0810 21:05:19.926525   463 net.cpp:159] Memory required for data: 5072450080
I0810 21:05:19.926539   463 layer_factory.hpp:77] Creating layer inception_5b/relu_3x3_reduce
I0810 21:05:19.926555   463 net.cpp:94] Creating Layer inception_5b/relu_3x3_reduce
I0810 21:05:19.926565   463 net.cpp:435] inception_5b/relu_3x3_reduce <- inception_5b/3x3_reduce
I0810 21:05:19.926578   463 net.cpp:396] inception_5b/relu_3x3_reduce -> inception_5b/3x3_reduce (in-place)
I0810 21:05:19.926597   463 net.cpp:144] Setting up inception_5b/relu_3x3_reduce
I0810 21:05:19.926605   463 net.cpp:151] Top shape: 10 192 40 40 (3072000)
I0810 21:05:19.926610   463 net.cpp:159] Memory required for data: 5084738080
I0810 21:05:19.926617   463 layer_factory.hpp:77] Creating layer inception_5b/3x3
I0810 21:05:19.926632   463 net.cpp:94] Creating Layer inception_5b/3x3
I0810 21:05:19.926638   463 net.cpp:435] inception_5b/3x3 <- inception_5b/3x3_reduce
I0810 21:05:19.926658   463 net.cpp:409] inception_5b/3x3 -> inception_5b/3x3
I0810 21:05:19.932440   463 net.cpp:144] Setting up inception_5b/3x3
I0810 21:05:19.932476   463 net.cpp:151] Top shape: 10 384 40 40 (6144000)
I0810 21:05:19.932482   463 net.cpp:159] Memory required for data: 5109314080
I0810 21:05:19.932494   463 layer_factory.hpp:77] Creating layer inception_5b/relu_3x3
I0810 21:05:19.932509   463 net.cpp:94] Creating Layer inception_5b/relu_3x3
I0810 21:05:19.932544   463 net.cpp:435] inception_5b/relu_3x3 <- inception_5b/3x3
I0810 21:05:19.932559   463 net.cpp:396] inception_5b/relu_3x3 -> inception_5b/3x3 (in-place)
I0810 21:05:19.932574   463 net.cpp:144] Setting up inception_5b/relu_3x3
I0810 21:05:19.932584   463 net.cpp:151] Top shape: 10 384 40 40 (6144000)
I0810 21:05:19.932588   463 net.cpp:159] Memory required for data: 5133890080
I0810 21:05:19.932595   463 layer_factory.hpp:77] Creating layer inception_5b/5x5_reduce
I0810 21:05:19.932610   463 net.cpp:94] Creating Layer inception_5b/5x5_reduce
I0810 21:05:19.932618   463 net.cpp:435] inception_5b/5x5_reduce <- inception_5a/output_inception_5a/output_0_split_2
I0810 21:05:19.932677   463 net.cpp:409] inception_5b/5x5_reduce -> inception_5b/5x5_reduce
I0810 21:05:19.934098   463 net.cpp:144] Setting up inception_5b/5x5_reduce
I0810 21:05:19.934115   463 net.cpp:151] Top shape: 10 48 40 40 (768000)
I0810 21:05:19.934123   463 net.cpp:159] Memory required for data: 5136962080
I0810 21:05:19.934132   463 layer_factory.hpp:77] Creating layer inception_5b/relu_5x5_reduce
I0810 21:05:19.934144   463 net.cpp:94] Creating Layer inception_5b/relu_5x5_reduce
I0810 21:05:19.934151   463 net.cpp:435] inception_5b/relu_5x5_reduce <- inception_5b/5x5_reduce
I0810 21:05:19.934162   463 net.cpp:396] inception_5b/relu_5x5_reduce -> inception_5b/5x5_reduce (in-place)
I0810 21:05:19.934175   463 net.cpp:144] Setting up inception_5b/relu_5x5_reduce
I0810 21:05:19.934182   463 net.cpp:151] Top shape: 10 48 40 40 (768000)
I0810 21:05:19.934187   463 net.cpp:159] Memory required for data: 5140034080
I0810 21:05:19.934195   463 layer_factory.hpp:77] Creating layer inception_5b/5x5
I0810 21:05:19.934207   463 net.cpp:94] Creating Layer inception_5b/5x5
I0810 21:05:19.934214   463 net.cpp:435] inception_5b/5x5 <- inception_5b/5x5_reduce
I0810 21:05:19.934226   463 net.cpp:409] inception_5b/5x5 -> inception_5b/5x5
I0810 21:05:19.935366   463 net.cpp:144] Setting up inception_5b/5x5
I0810 21:05:19.935380   463 net.cpp:151] Top shape: 10 128 40 40 (2048000)
I0810 21:05:19.935386   463 net.cpp:159] Memory required for data: 5148226080
I0810 21:05:19.935397   463 layer_factory.hpp:77] Creating layer inception_5b/relu_5x5
I0810 21:05:19.935407   463 net.cpp:94] Creating Layer inception_5b/relu_5x5
I0810 21:05:19.935415   463 net.cpp:435] inception_5b/relu_5x5 <- inception_5b/5x5
I0810 21:05:19.935423   463 net.cpp:396] inception_5b/relu_5x5 -> inception_5b/5x5 (in-place)
I0810 21:05:19.935434   463 net.cpp:144] Setting up inception_5b/relu_5x5
I0810 21:05:19.935441   463 net.cpp:151] Top shape: 10 128 40 40 (2048000)
I0810 21:05:19.935447   463 net.cpp:159] Memory required for data: 5156418080
I0810 21:05:19.935453   463 layer_factory.hpp:77] Creating layer inception_5b/pool
I0810 21:05:19.935464   463 net.cpp:94] Creating Layer inception_5b/pool
I0810 21:05:19.935472   463 net.cpp:435] inception_5b/pool <- inception_5a/output_inception_5a/output_0_split_3
I0810 21:05:19.935482   463 net.cpp:409] inception_5b/pool -> inception_5b/pool
I0810 21:05:19.935534   463 net.cpp:144] Setting up inception_5b/pool
I0810 21:05:19.935544   463 net.cpp:151] Top shape: 10 832 40 40 (13312000)
I0810 21:05:19.935549   463 net.cpp:159] Memory required for data: 5209666080
I0810 21:05:19.935555   463 layer_factory.hpp:77] Creating layer inception_5b/pool_proj
I0810 21:05:19.935570   463 net.cpp:94] Creating Layer inception_5b/pool_proj
I0810 21:05:19.935576   463 net.cpp:435] inception_5b/pool_proj <- inception_5b/pool
I0810 21:05:19.935587   463 net.cpp:409] inception_5b/pool_proj -> inception_5b/pool_proj
I0810 21:05:19.937185   463 net.cpp:144] Setting up inception_5b/pool_proj
I0810 21:05:19.937202   463 net.cpp:151] Top shape: 10 128 40 40 (2048000)
I0810 21:05:19.937208   463 net.cpp:159] Memory required for data: 5217858080
I0810 21:05:19.937218   463 layer_factory.hpp:77] Creating layer inception_5b/relu_pool_proj
I0810 21:05:19.937229   463 net.cpp:94] Creating Layer inception_5b/relu_pool_proj
I0810 21:05:19.937237   463 net.cpp:435] inception_5b/relu_pool_proj <- inception_5b/pool_proj
I0810 21:05:19.937247   463 net.cpp:396] inception_5b/relu_pool_proj -> inception_5b/pool_proj (in-place)
I0810 21:05:19.937259   463 net.cpp:144] Setting up inception_5b/relu_pool_proj
I0810 21:05:19.937266   463 net.cpp:151] Top shape: 10 128 40 40 (2048000)
I0810 21:05:19.937273   463 net.cpp:159] Memory required for data: 5226050080
I0810 21:05:19.937279   463 layer_factory.hpp:77] Creating layer inception_5b/output
I0810 21:05:19.937290   463 net.cpp:94] Creating Layer inception_5b/output
I0810 21:05:19.937297   463 net.cpp:435] inception_5b/output <- inception_5b/1x1
I0810 21:05:19.937337   463 net.cpp:435] inception_5b/output <- inception_5b/3x3
I0810 21:05:19.937346   463 net.cpp:435] inception_5b/output <- inception_5b/5x5
I0810 21:05:19.937353   463 net.cpp:435] inception_5b/output <- inception_5b/pool_proj
I0810 21:05:19.937363   463 net.cpp:409] inception_5b/output -> inception_5b/output
I0810 21:05:19.937402   463 net.cpp:144] Setting up inception_5b/output
I0810 21:05:19.937412   463 net.cpp:151] Top shape: 10 1024 40 40 (16384000)
I0810 21:05:19.937418   463 net.cpp:159] Memory required for data: 5291586080
I0810 21:05:19.937424   463 layer_factory.hpp:77] Creating layer pool5/drop_s1
I0810 21:05:19.937438   463 net.cpp:94] Creating Layer pool5/drop_s1
I0810 21:05:19.937444   463 net.cpp:435] pool5/drop_s1 <- inception_5b/output
I0810 21:05:19.937455   463 net.cpp:409] pool5/drop_s1 -> pool5/drop_s1
I0810 21:05:19.937505   463 net.cpp:144] Setting up pool5/drop_s1
I0810 21:05:19.937513   463 net.cpp:151] Top shape: 10 1024 40 40 (16384000)
I0810 21:05:19.937520   463 net.cpp:159] Memory required for data: 5357122080
I0810 21:05:19.937525   463 layer_factory.hpp:77] Creating layer pool5/drop_s1_pool5/drop_s1_0_split
I0810 21:05:19.937536   463 net.cpp:94] Creating Layer pool5/drop_s1_pool5/drop_s1_0_split
I0810 21:05:19.937542   463 net.cpp:435] pool5/drop_s1_pool5/drop_s1_0_split <- pool5/drop_s1
I0810 21:05:19.937552   463 net.cpp:409] pool5/drop_s1_pool5/drop_s1_0_split -> pool5/drop_s1_pool5/drop_s1_0_split_0
I0810 21:05:19.937563   463 net.cpp:409] pool5/drop_s1_pool5/drop_s1_0_split -> pool5/drop_s1_pool5/drop_s1_0_split_1
I0810 21:05:19.937608   463 net.cpp:144] Setting up pool5/drop_s1_pool5/drop_s1_0_split
I0810 21:05:19.937618   463 net.cpp:151] Top shape: 10 1024 40 40 (16384000)
I0810 21:05:19.937624   463 net.cpp:151] Top shape: 10 1024 40 40 (16384000)
I0810 21:05:19.937629   463 net.cpp:159] Memory required for data: 5488194080
I0810 21:05:19.937635   463 layer_factory.hpp:77] Creating layer cvg/classifier
I0810 21:05:19.937657   463 net.cpp:94] Creating Layer cvg/classifier
I0810 21:05:19.937666   463 net.cpp:435] cvg/classifier <- pool5/drop_s1_pool5/drop_s1_0_split_0
I0810 21:05:19.937677   463 net.cpp:409] cvg/classifier -> cvg/classifier
I0810 21:05:19.937934   463 net.cpp:144] Setting up cvg/classifier
I0810 21:05:19.937947   463 net.cpp:151] Top shape: 10 1 40 40 (16000)
I0810 21:05:19.937952   463 net.cpp:159] Memory required for data: 5488258080
I0810 21:05:19.937961   463 layer_factory.hpp:77] Creating layer coverage/sig
I0810 21:05:19.937970   463 net.cpp:94] Creating Layer coverage/sig
I0810 21:05:19.937978   463 net.cpp:435] coverage/sig <- cvg/classifier
I0810 21:05:19.937986   463 net.cpp:409] coverage/sig -> coverage
I0810 21:05:19.938024   463 net.cpp:144] Setting up coverage/sig
I0810 21:05:19.938032   463 net.cpp:151] Top shape: 10 1 40 40 (16000)
I0810 21:05:19.938038   463 net.cpp:159] Memory required for data: 5488322080
I0810 21:05:19.938045   463 layer_factory.hpp:77] Creating layer bbox/regressor
I0810 21:05:19.938056   463 net.cpp:94] Creating Layer bbox/regressor
I0810 21:05:19.938062   463 net.cpp:435] bbox/regressor <- pool5/drop_s1_pool5/drop_s1_0_split_1
I0810 21:05:19.938073   463 net.cpp:409] bbox/regressor -> bboxes
I0810 21:05:19.938344   463 net.cpp:144] Setting up bbox/regressor
I0810 21:05:19.938356   463 net.cpp:151] Top shape: 10 4 40 40 (64000)
I0810 21:05:19.938362   463 net.cpp:159] Memory required for data: 5488578080
I0810 21:05:19.938370   463 layer_factory.hpp:77] Creating layer bbox_mask
I0810 21:05:19.938380   463 net.cpp:94] Creating Layer bbox_mask
I0810 21:05:19.938387   463 net.cpp:435] bbox_mask <- bboxes
I0810 21:05:19.938395   463 net.cpp:435] bbox_mask <- coverage-block
I0810 21:05:19.938405   463 net.cpp:409] bbox_mask -> bboxes-masked
I0810 21:05:19.938439   463 net.cpp:144] Setting up bbox_mask
I0810 21:05:19.938448   463 net.cpp:151] Top shape: 10 4 40 40 (64000)
I0810 21:05:19.938454   463 net.cpp:159] Memory required for data: 5488834080
I0810 21:05:19.938460   463 layer_factory.hpp:77] Creating layer bbox-norm
I0810 21:05:19.938484   463 net.cpp:94] Creating Layer bbox-norm
I0810 21:05:19.938491   463 net.cpp:435] bbox-norm <- bboxes-masked
I0810 21:05:19.938499   463 net.cpp:435] bbox-norm <- size-block_size-block_0_split_1
I0810 21:05:19.938509   463 net.cpp:409] bbox-norm -> bboxes-masked-norm
I0810 21:05:19.938542   463 net.cpp:144] Setting up bbox-norm
I0810 21:05:19.938551   463 net.cpp:151] Top shape: 10 4 40 40 (64000)
I0810 21:05:19.938557   463 net.cpp:159] Memory required for data: 5489090080
I0810 21:05:19.938563   463 layer_factory.hpp:77] Creating layer bbox-obj-norm
I0810 21:05:19.938573   463 net.cpp:94] Creating Layer bbox-obj-norm
I0810 21:05:19.938580   463 net.cpp:435] bbox-obj-norm <- bboxes-masked-norm
I0810 21:05:19.938588   463 net.cpp:435] bbox-obj-norm <- obj-block_obj-block_0_split_1
I0810 21:05:19.938597   463 net.cpp:409] bbox-obj-norm -> bboxes-obj-masked-norm
I0810 21:05:19.938627   463 net.cpp:144] Setting up bbox-obj-norm
I0810 21:05:19.938635   463 net.cpp:151] Top shape: 10 4 40 40 (64000)
I0810 21:05:19.938642   463 net.cpp:159] Memory required for data: 5489346080
I0810 21:05:19.938657   463 layer_factory.hpp:77] Creating layer bbox_loss
I0810 21:05:19.938668   463 net.cpp:94] Creating Layer bbox_loss
I0810 21:05:19.938674   463 net.cpp:435] bbox_loss <- bboxes-obj-masked-norm
I0810 21:05:19.938683   463 net.cpp:435] bbox_loss <- bbox-obj-label-norm
I0810 21:05:19.938694   463 net.cpp:409] bbox_loss -> loss_bbox
…
I0810 21:05:19.943166   463 net.cpp:52] Initializing net from parameters:
state {
phase: TEST
}
layer {
name: "val_data"
type: "Data"
top: "data"
include {
phase: TEST
}
transform_param {
mean_file: "/opt/DIGITS/digits/jobs/20180810-202617-c692/train_db/mean.binaryproto"
}
data_param {
source: "/opt/DIGITS/digits/jobs/20180810-202617-c692/val_db/features"
batch_size: 6
backend: LMDB
}
}
layer {
name: "val_label"
type: "Data"
top: "label"
include {
phase: TEST
}
data_param {
source: "/opt/DIGITS/digits/jobs/20180810-202617-c692/val_db/labels"
batch_size: 6
backend: LMDB
}
}
layer {
name: "val_transform"
type: "DetectNetTransformation"
bottom: "data"
bottom: "label"
top: "transformed_data"
top: "transformed_label"
include {
phase: TEST
}
transform_param {
mean_value: 127
}
detectnet_groundtruth_param {
stride: 16
scale_cvg: 0.4
gridbox_type: GRIDBOX_MIN
min_cvg_len: 20
coverage_type: RECTANGULAR
image_size_x: 640
image_size_y: 640
obj_norm: true
crop_bboxes: false
object_class {
src: 1
dst: 0
}
}
}
layer {
name: "slice-label"
type: "Slice"
bottom: "transformed_label"
top: "foreground-label"
top: "bbox-label"
top: "size-label"
top: "obj-label"
top: "coverage-label"
slice_param {
slice_dim: 1
slice_point: 1
slice_point: 5
slice_point: 7
slice_point: 8
}
}
layer {
name: "coverage-block"
type: "Concat"
bottom: "foreground-label"
bottom: "foreground-label"
bottom: "foreground-label"
bottom: "foreground-label"
top: "coverage-block"
concat_param {
concat_dim: 1
}
}
layer {
name: "size-block"
type: "Concat"
bottom: "size-label"
bottom: "size-label"
top: "size-block"
concat_param {
concat_dim: 1
}
}
layer {
name: "obj-block"
type: "Concat"
bottom: "obj-label"
bottom: "obj-label"
bottom: "obj-label"
bottom: "obj-label"
top: "obj-block"
concat_param {
concat_dim: 1
}
}
layer {
name: "bb-label-norm"
type: "Eltwise"
bottom: "bbox-label"
bottom: "size-block"
top: "bbox-label-norm"
eltwise_param {
operation: PROD
}
}
layer {
name: "bb-obj-norm"
type: "Eltwise"
bottom: "bbox-label-norm"
bottom: "obj-block"
top: "bbox-obj-label-norm"
eltwise_param {
operation: PROD
}
}
layer {
name: "conv1/7x7_s2"
type: "Convolution"
bottom: "transformed_data"
top: "conv1/7x7_s2"
param {
lr_mult: 1
decay_mult: 1
}
param {
lr_mult: 2
decay_mult: 0
}
convolution_param {
num_output: 64
pad: 3
kernel_size: 7
stride: 2
weight_filler {
type: "xavier"
std: 0.1
}
bias_filler {
type: "constant"
value: 0.2
}
}
}
layer {
name: "conv1/relu_7x7"
type: "ReLU"
bottom: "conv1/7x7_s2"
top: "conv1/7x7_s2"
}
layer {
name: "pool1/3x3_s2"
type: "Pooling"
bottom: "conv1/7x7_s2"
top: "pool1/3x3_s2"
pooling_param {
pool: MAX
kernel_size: 3
stride: 2
}
}
layer {
name: "pool1/norm1"
type: "LRN"
bottom: "pool1/3x3_s2"
top: "pool1/norm1"
lrn_param {
local_size: 5
alpha: 0.0001
beta: 0.75
}
}
layer {
name: "conv2/3x3_reduce"
type: "Convolution"
bottom: "pool1/norm1"
top: "conv2/3x3_reduce"
param {
lr_mult: 1
decay_mult: 1
}
param {
lr_mult: 2
decay_mult: 0
}
convolution_param {
num_output: 64
kernel_size: 1
weight_filler {
type: "xavier"
std: 0.1
}
bias_filler {
type: "constant"
value: 0.2
}
}
}
layer {
name: "conv2/relu_3x3_reduce"
type: "ReLU"
bottom: "conv2/3x3_reduce"
top: "conv2/3x3_reduce"
}
layer {
name: "conv2/3x3"
type: "Convolution"
bottom: "conv2/3x3_reduce"
top: "conv2/3x3"
param {
lr_mult: 1
decay_mult: 1
}
param {
lr_mult: 2
decay_mult: 0
}
convolution_param {
num_output: 192
pad: 1
kernel_size: 3
weight_filler {
type: "xavier"
std: 0.03
}
bias_filler {
type: "constant"
value: 0.2
}
}
}
layer {
name: "conv2/relu_3x3"
type: "ReLU"
bottom: "conv2/3x3"
top: "conv2/3x3"
}
layer {
name: "conv2/norm2"
type: "LRN"
bottom: "conv2/3x3"
top: "conv2/norm2"
lrn_param {
local_size: 5
alpha: 0.0001
beta: 0.75
}
}
layer {
name: "pool2/3x3_s2"
type: "Pooling"
bottom: "conv2/norm2"
top: "pool2/3x3_s2"
pooling_param {
pool: MAX
kernel_size: 3
stride: 2
}
}
layer {
name: "inception_3a/1x1"
type: "Convolution"
bottom: "pool2/3x3_s2"
top: "inception_3a/1x1"
param {
lr_mult: 1
decay_mult: 1
}
param {
lr_mult: 2
decay_mult: 0
}
convolution_param {
num_output: 64
kernel_size: 1
weight_filler {
type: "xavier"
std: 0.03
}
bias_filler {
type: "constant"
value: 0.2
}
}
}
layer {
name: "inception_3a/relu_1x1"
type: "ReLU"
bottom: "inception_3a/1x1"
top: "inception_3a/1x1"
}
layer {
name: "inception_3a/3x3_reduce"
type: "Convolution"
bottom: "pool2/3x3_s2"
top: "inception_3a/3x3_reduce"
param {
lr_mult: 1
decay_mult: 1
}
param {
lr_mult: 2
decay_mult: 0
}
convolution_param {
num_output: 96
kernel_size: 1
weight_filler {
type: "xavier"
std: 0.09
}
bias_filler {
type: "constant"
value: 0.2
}
}
}
layer {
name: "inception_3a/relu_3x3_reduce"
type: "ReLU"
bottom: "inception_3a/3x3_reduce"
top: "inception_3a/3x3_reduce"
}
layer {
name: "inception_3a/3x3"
type: "Convolution"
bottom: "inception_3a/3x3_reduce"
top: "inception_3a/3x3"
param {
lr_mult: 1
decay_mult: 1
}
param {
lr_mult: 2
decay_mult: 0
}
convolution_param {
num_output: 128
pad: 1
kernel_size: 3
weight_filler {
type: "xavier"
std: 0.03
}
bias_filler {
type: "constant"
value: 0.2
}
}
}
layer {
name: "inception_3a/relu_3x3"
type: "ReLU"
bottom: "inception_3a/3x3"
top: "inception_3a/3x3"
}
layer {
name: "inception_3a/5x5_reduce"
type: "Convolution"
bottom: "pool2/3x3_s2"
top: "inception_3a/5x5_reduce"
param {
lr_mult: 1
decay_mult: 1
}
param {
lr_mult: 2
decay_mult: 0
}
convolution_param {
num_output: 16
kernel_size: 1
weight_filler {
type: "xavier"
std: 0.2
}
bias_filler {
type: "constant"
value: 0.2
}
}
}
layer {
name: "inception_3a/relu_5x5_reduce"
type: "ReLU"
bottom: "inception_3a/5x5_reduce"
top: "inception_3a/5x5_reduce"
}
layer {
name: "inception_3a/5x5"
type: "Convolution"
bottom: "inception_3a/5x5_reduce"
top: "inception_3a/5x5"
param {
lr_mult: 1
decay_mult: 1
}
param {
lr_mult: 2
decay_mult: 0
}
convolution_param {
num_output: 32
pad: 2
kernel_size: 5
weight_filler {
type: "xavier"
std: 0.03
}
bias_filler {
type: "constant"
value: 0.2
}
}
}
layer {
name: "inception_3a/relu_5x5"
type: "ReLU"
bottom: "inception_3a/5x5"
top: "inception_3a/5x5"
}
layer {
name: "inception_3a/pool"
type: "Pooling"
bottom: "pool2/3x3_s2"
top: "inception_3a/pool"
pooling_param {
pool: MAX
kernel_size: 3
stride: 1
pad: 1
}
}
layer {
name: "inception_3a/pool_proj"
type: "Convolution"
bottom: "inception_3a/pool"
top: "inception_3a/pool_proj"
param {
lr_mult: 1
decay_mult: 1
}
param {
lr_mult: 2
decay_mult: 0
}
convolution_param {
num_output: 32
kernel_size: 1
weight_filler {
type: "xavier"
std: 0.1
}
bias_filler {
type: "constant"
value: 0.2
}
}
}
layer {
name: "inception_3a/relu_pool_proj"
type: "ReLU"
bottom: "inception_3a/pool_proj"
top: "inception_3a/pool_proj"
}
layer {
name: "inception_3a/output"
type: "Concat"
bottom: "inception_3a/1x1"
bottom: "inception_3a/3x3"
bottom: "inception_3a/5x5"
bottom: "inception_3a/pool_proj"
top: "inception_3a/output"
}
layer {
name: "inception_3b/1x1"
type: "Convolution"
bottom: "inception_3a/output"
top: "inception_3b/1x1"
param {
lr_mult: 1
decay_mult: 1
}
param {
lr_mult: 2
decay_mult: 0
}
convolution_param {
num_output: 128
kernel_size: 1
weight_filler {
type: "xavier"
std: 0.03
}
bias_filler {
type: "constant"
value: 0.2
}
}
}
layer {
name: "inception_3b/relu_1x1"
type: "ReLU"
bottom: "inception_3b/1x1"
top: "inception_3b/1x1"
}
layer {
name: "inception_3b/3x3_reduce"
type: "Convolution"
bottom: "inception_3a/output"
top: "inception_3b/3x3_reduce"
param {
lr_mult: 1
decay_mult: 1
}
param {
lr_mult: 2
decay_mult: 0
}
convolution_param {
num_output: 128
kernel_size: 1
weight_filler {
type: "xavier"
std: 0.09
}
bias_filler {
type: "constant"
value: 0.2
}
}
}
layer {
name: "inception_3b/relu_3x3_reduce"
type: "ReLU"
bottom: "inception_3b/3x3_reduce"
top: "inception_3b/3x3_reduce"
}
layer {
name: "inception_3b/3x3"
type: "Convolution"
bottom: "inception_3b/3x3_reduce"
top: "inception_3b/3x3"
param {
lr_mult: 1
decay_mult: 1
}
param {
lr_mult: 2
decay_mult: 0
}
convolution_param {
num_output: 192
pad: 1
kernel_size: 3
weight_filler {
type: "xavier"
std: 0.03
}
bias_filler {
type: "constant"
value: 0.2
}
}
}
layer {
name: "inception_3b/relu_3x3"
type: "ReLU"
bottom: "inception_3b/3x3"
top: "inception_3b/3x3"
}
layer {
name: "inception_3b/5x5_reduce"
type: "Convolution"
bottom: "inception_3a/output"
top: "inception_3b/5x5_reduce"
param {
lr_mult: 1
decay_mult: 1
}
param {
lr_mult: 2
decay_mult: 0
}
convolution_param {
num_output: 32
kernel_size: 1
weight_filler {
type: "xavier"
std: 0.2
}
bias_filler {
type: "constant"
value: 0.2
}
}
}
layer {
name: "inception_3b/relu_5x5_reduce"
type: "ReLU"
bottom: "inception_3b/5x5_reduce"
top: "inception_3b/5x5_reduce"
}
layer {
name: "inception_3b/5x5"
type: "Convolution"
bottom: "inception_3b/5x5_reduce"
top: "inception_3b/5x5"
param {
lr_mult: 1
decay_mult: 1
}
param {
lr_mult: 2
decay_mult: 0
}
convolution_param {
num_output: 96
pad: 2
kernel_size: 5
weight_filler {
type: "xavier"
std: 0.03
}
bias_filler {
type: "constant"
value: 0.2
}
}
}
layer {
name: "inception_3b/relu_5x5"
type: "ReLU"
bottom: "inception_3b/5x5"
top: "inception_3b/5x5"
}
layer {
name: "inception_3b/pool"
type: "Pooling"
bottom: "inception_3a/output"
top: "inception_3b/pool"
pooling_param {
pool: MAX
kernel_size: 3
stride: 1
pad: 1
}
}
layer {
name: "inception_3b/pool_proj"
type: "Convolution"
bottom: "inception_3b/pool"
top: "inception_3b/pool_proj"
param {
lr_mult: 1
decay_mult: 1
}
param {
lr_mult: 2
decay_mult: 0
}
convolution_param {
num_output: 64
kernel_size: 1
weight_filler {
type: "xavier"
std: 0.1
}
bias_filler {
type: "constant"
value: 0.2
}
}
}
layer {
name: "inception_3b/relu_pool_proj"
type: "ReLU"
bottom: "inception_3b/pool_proj"
top: "inception_3b/pool_proj"
}
layer {
name: "inception_3b/output"
type: "Concat"
bottom: "inception_3b/1x1"
bottom: "inception_3b/3x3"
bottom: "inception_3b/5x5"
bottom: "inception_3b/pool_proj"
top: "inception_3b/output"
}
layer {
name: "pool3/3x3_s2"
type: "Pooling"
bottom: "inception_3b/output"
top: "pool3/3x3_s2"
pooling_param {
pool: MAX
kernel_size: 3
stride: 2
}
}
layer {
name: "inception_4a/1x1"
type: "Convolution"
bottom: "pool3/3x3_s2"
top: "inception_4a/1x1"
param {
lr_mult: 1
decay_mult: 1
}
param {
lr_mult: 2
decay_mult: 0
}
convolution_param {
num_output: 192
kernel_size: 1
weight_filler {
type: "xavier"
std: 0.03
}
bias_filler {
type: "constant"
value: 0.2
}
}
}
layer {
name: "inception_4a/relu_1x1"
type: "ReLU"
bottom: "inception_4a/1x1"
top: "inception_4a/1x1"
}
layer {
name: "inception_4a/3x3_reduce"
type: "Convolution"
bottom: "pool3/3x3_s2"
top: "inception_4a/3x3_reduce"
param {
lr_mult: 1
decay_mult: 1
}
param {
lr_mult: 2
decay_mult: 0
}
convolution_param {
num_output: 96
kernel_size: 1
weight_filler {
type: "xavier"
std: 0.09
}
bias_filler {
type: "constant"
value: 0.2
}
}
}
layer {
name: "inception_4a/relu_3x3_reduce"
type: "ReLU"
bottom: "inception_4a/3x3_reduce"
top: "inception_4a/3x3_reduce"
}
layer {
name: "inception_4a/3x3"
type: "Convolution"
bottom: "inception_4a/3x3_reduce"
top: "inception_4a/3x3"
param {
lr_mult: 1
decay_mult: 1
}
param {
lr_mult: 2
decay_mult: 0
}
convolution_param {
num_output: 208
pad: 1
kernel_size: 3
weight_filler {
type: "xavier"
std: 0.03
}
bias_filler {
type: "constant"
value: 0.2
}
}
}
layer {
name: "inception_4a/relu_3x3"
type: "ReLU"
bottom: "inception_4a/3x3"
top: "inception_4a/3x3"
}
layer {
name: "inception_4a/5x5_reduce"
type: "Convolution"
bottom: "pool3/3x3_s2"
top: "inception_4a/5x5_reduce"
param {
lr_mult: 1
decay_mult: 1
}
param {
lr_mult: 2
decay_mult: 0
}
convolution_param {
num_output: 16
kernel_size: 1
weight_filler {
type: "xavier"
std: 0.2
}
bias_filler {
type: "constant"
value: 0.2
}
}
}
layer {
name: "inception_4a/relu_5x5_reduce"
type: "ReLU"
bottom: "inception_4a/5x5_reduce"
top: "inception_4a/5x5_reduce"
}
layer {
name: "inception_4a/5x5"
type: "Convolution"
bottom: "inception_4a/5x5_reduce"
top: "inception_4a/5x5"
param {
lr_mult: 1
decay_mult: 1
}
param {
lr_mult: 2
decay_mult: 0
}
convolution_param {
num_output: 48
pad: 2
kernel_size: 5
weight_filler {
type: "xavier"
std: 0.03
}
bias_filler {
type: "constant"
value: 0.2
}
}
}
layer {
name: "inception_4a/relu_5x5"
type: "ReLU"
bottom: "inception_4a/5x5"
top: "inception_4a/5x5"
}
layer {
name: "inception_4a/pool"
type: "Pooling"
bottom: "pool3/3x3_s2"
top: "inception_4a/pool"
pooling_param {
pool: MAX
kernel_size: 3
stride: 1
pad: 1
}
}
layer {
name: "inception_4a/pool_proj"
type: "Convolution"
bottom: "inception_4a/pool"
top: "inception_4a/pool_proj"
param {
lr_mult: 1
decay_mult: 1
}
param {
lr_mult: 2
decay_mult: 0
}
convolution_param {
num_output: 64
kernel_size: 1
weight_filler {
type: "xavier"
std: 0.1
}
bias_filler {
type: "constant"
value: 0.2
}
}
}
layer {
name: "inception_4a/relu_pool_proj"
type: "ReLU"
bottom: "inception_4a/pool_proj"
top: "inception_4a/pool_proj"
}
layer {
name: "inception_4a/output"
type: "Concat"
bottom: "inception_4a/1x1"
bottom: "inception_4a/3x3"
bottom: "inception_4a/5x5"
bottom: "inception_4a/pool_proj"
top: "inception_4a/output"
}
layer {
name: "inception_4b/1x1"
type: "Convolution"
bottom: "inception_4a/output"
top: "inception_4b/1x1"
param {
lr_mult: 1
decay_mult: 1
}
param {
lr_mult: 2
decay_mult: 0
}
convolution_param {
num_output: 160
kernel_size: 1
weight_filler {
type: "xavier"
std: 0.03
}
bias_filler {
type: "constant"
value: 0.2
}
}
}
layer {
name: "inception_4b/relu_1x1"
type: "ReLU"
bottom: "inception_4b/1x1"
top: "inception_4b/1x1"
}
layer {
name: "inception_4b/3x3_reduce"
type: "Convolution"
bottom: "inception_4a/output"
top: "inception_4b/3x3_reduce"
param {
lr_mult: 1
decay_mult: 1
}
param {
lr_mult: 2
decay_mult: 0
}
convolution_param {
num_output: 112
kernel_size: 1
weight_filler {
type: "xavier"
std: 0.09
}
bias_filler {
type: "constant"
value: 0.2
}
}
}
layer {
name: "inception_4b/relu_3x3_reduce"
type: "ReLU"
bottom: "inception_4b/3x3_reduce"
top: "inception_4b/3x3_reduce"
}
layer {
name: "inception_4b/3x3"
type: "Convolution"
bottom: "inception_4b/3x3_reduce"
top: "inception_4b/3x3"
param {
lr_mult: 1
decay_mult: 1
}
param {
lr_mult: 2
decay_mult: 0
}
convolution_param {
num_output: 224
pad: 1
kernel_size: 3
weight_filler {
type: "xavier"
std: 0.03
}
bias_filler {
type: "constant"
value: 0.2
}
}
}
layer {
name: "inception_4b/relu_3x3"
type: "ReLU"
bottom: "inception_4b/3x3"
top: "inception_4b/3x3"
}
layer {
name: "inception_4b/5x5_reduce"
type: "Convolution"
bottom: "inception_4a/output"
top: "inception_4b/5x5_reduce"
param {
lr_mult: 1
decay_mult: 1
}
param {
lr_mult: 2
decay_mult: 0
}
convolution_param {
num_output: 24
kernel_size: 1
weight_filler {
type: "xavier"
std: 0.2
}
bias_filler {
type: "constant"
value: 0.2
}
}
}
layer {
name: "inception_4b/relu_5x5_reduce"
type: "ReLU"
bottom: "inception_4b/5x5_reduce"
top: "inception_4b/5x5_reduce"
}
layer {
name: "inception_4b/5x5"
type: "Convolution"
bottom: "inception_4b/5x5_reduce"
top: "inception_4b/5x5"
param {
lr_mult: 1
decay_mult: 1
}
param {
lr_mult: 2
decay_mult: 0
}
convolution_param {
num_output: 64
pad: 2
kernel_size: 5
weight_filler {
type: "xavier"
std: 0.03
}
bias_filler {
type: "constant"
value: 0.2
}
}
}
layer {
name: "inception_4b/relu_5x5"
type: "ReLU"
bottom: "inception_4b/5x5"
top: "inception_4b/5x5"
}
layer {
name: "inception_4b/pool"
type: "Pooling"
bottom: "inception_4a/output"
top: "inception_4b/pool"
pooling_param {
pool: MAX
kernel_size: 3
stride: 1
pad: 1
}
}
layer {
name: "inception_4b/pool_proj"
type: "Convolution"
bottom: "inception_4b/pool"
top: "inception_4b/pool_proj"
param {
lr_mult: 1
decay_mult: 1
}
param {
lr_mult: 2
decay_mult: 0
}
convolution_param {
num_output: 64
kernel_size: 1
weight_filler {
type: "xavier"
std: 0.1
}
bias_filler {
type: "constant"
value: 0.2
}
}
}
layer {
name: "inception_4b/relu_pool_proj"
type: "ReLU"
bottom: "inception_4b/pool_proj"
top: "inception_4b/pool_proj"
}
layer {
name: "inception_4b/output"
type: "Concat"
bottom: "inception_4b/1x1"
bottom: "inception_4b/3x3"
bottom: "inception_4b/5x5"
…
I0810 21:05:20.297968   463 net.cpp:435] inception_4c/pool_proj <- inception_4c/pool
I0810 21:05:20.297979   463 net.cpp:409] inception_4c/pool_proj -> inception_4c/pool_proj
I0810 21:05:20.298434   463 net.cpp:144] Setting up inception_4c/pool_proj
I0810 21:05:20.298446   463 net.cpp:151] Top shape: 6 64 40 40 (614400)
I0810 21:05:20.298452   463 net.cpp:159] Memory required for data: 2202126048
I0810 21:05:20.298477   463 layer_factory.hpp:77] Creating layer inception_4c/relu_pool_proj
I0810 21:05:20.298487   463 net.cpp:94] Creating Layer inception_4c/relu_pool_proj
I0810 21:05:20.298494   463 net.cpp:435] inception_4c/relu_pool_proj <- inception_4c/pool_proj
I0810 21:05:20.298503   463 net.cpp:396] inception_4c/relu_pool_proj -> inception_4c/pool_proj (in-place)
I0810 21:05:20.298516   463 net.cpp:144] Setting up inception_4c/relu_pool_proj
I0810 21:05:20.298522   463 net.cpp:151] Top shape: 6 64 40 40 (614400)
I0810 21:05:20.298528   463 net.cpp:159] Memory required for data: 2204583648
I0810 21:05:20.298534   463 layer_factory.hpp:77] Creating layer inception_4c/output
I0810 21:05:20.298544   463 net.cpp:94] Creating Layer inception_4c/output
I0810 21:05:20.298552   463 net.cpp:435] inception_4c/output <- inception_4c/1x1
I0810 21:05:20.298575   463 net.cpp:435] inception_4c/output <- inception_4c/3x3
I0810 21:05:20.298584   463 net.cpp:435] inception_4c/output <- inception_4c/5x5
I0810 21:05:20.298591   463 net.cpp:435] inception_4c/output <- inception_4c/pool_proj
I0810 21:05:20.298600   463 net.cpp:409] inception_4c/output -> inception_4c/output
I0810 21:05:20.298643   463 net.cpp:144] Setting up inception_4c/output
I0810 21:05:20.298653   463 net.cpp:151] Top shape: 6 512 40 40 (4915200)
I0810 21:05:20.298660   463 net.cpp:159] Memory required for data: 2224244448
I0810 21:05:20.298665   463 layer_factory.hpp:77] Creating layer inception_4c/output_inception_4c/output_0_split
I0810 21:05:20.298676   463 net.cpp:94] Creating Layer inception_4c/output_inception_4c/output_0_split
I0810 21:05:20.298683   463 net.cpp:435] inception_4c/output_inception_4c/output_0_split <- inception_4c/output
I0810 21:05:20.298693   463 net.cpp:409] inception_4c/output_inception_4c/output_0_split -> inception_4c/output_inception_4c/output_0_split_0
I0810 21:05:20.298704   463 net.cpp:409] inception_4c/output_inception_4c/output_0_split -> inception_4c/output_inception_4c/output_0_split_1
I0810 21:05:20.298715   463 net.cpp:409] inception_4c/output_inception_4c/output_0_split -> inception_4c/output_inception_4c/output_0_split_2
I0810 21:05:20.298725   463 net.cpp:409] inception_4c/output_inception_4c/output_0_split -> inception_4c/output_inception_4c/output_0_split_3
I0810 21:05:20.298795   463 net.cpp:144] Setting up inception_4c/output_inception_4c/output_0_split
I0810 21:05:20.298805   463 net.cpp:151] Top shape: 6 512 40 40 (4915200)
I0810 21:05:20.298812   463 net.cpp:151] Top shape: 6 512 40 40 (4915200)
I0810 21:05:20.298818   463 net.cpp:151] Top shape: 6 512 40 40 (4915200)
I0810 21:05:20.298825   463 net.cpp:151] Top shape: 6 512 40 40 (4915200)
I0810 21:05:20.298830   463 net.cpp:159] Memory required for data: 2302887648
I0810 21:05:20.298836   463 layer_factory.hpp:77] Creating layer inception_4d/1x1
I0810 21:05:20.298848   463 net.cpp:94] Creating Layer inception_4d/1x1
I0810 21:05:20.298856   463 net.cpp:435] inception_4d/1x1 <- inception_4c/output_inception_4c/output_0_split_0
I0810 21:05:20.298866   463 net.cpp:409] inception_4d/1x1 -> inception_4d/1x1
I0810 21:05:20.299445   463 net.cpp:144] Setting up inception_4d/1x1
I0810 21:05:20.299458   463 net.cpp:151] Top shape: 6 112 40 40 (1075200)
I0810 21:05:20.299463   463 net.cpp:159] Memory required for data: 2307188448
I0810 21:05:20.299473   463 layer_factory.hpp:77] Creating layer inception_4d/relu_1x1
I0810 21:05:20.299482   463 net.cpp:94] Creating Layer inception_4d/relu_1x1
I0810 21:05:20.299489   463 net.cpp:435] inception_4d/relu_1x1 <- inception_4d/1x1
I0810 21:05:20.299499   463 net.cpp:396] inception_4d/relu_1x1 -> inception_4d/1x1 (in-place)
I0810 21:05:20.299509   463 net.cpp:144] Setting up inception_4d/relu_1x1
I0810 21:05:20.299515   463 net.cpp:151] Top shape: 6 112 40 40 (1075200)
I0810 21:05:20.299521   463 net.cpp:159] Memory required for data: 2311489248
I0810 21:05:20.299527   463 layer_factory.hpp:77] Creating layer inception_4d/3x3_reduce
I0810 21:05:20.299540   463 net.cpp:94] Creating Layer inception_4d/3x3_reduce
I0810 21:05:20.299546   463 net.cpp:435] inception_4d/3x3_reduce <- inception_4c/output_inception_4c/output_0_split_1
I0810 21:05:20.299556   463 net.cpp:409] inception_4d/3x3_reduce -> inception_4d/3x3_reduce
I0810 21:05:20.300276   463 net.cpp:144] Setting up inception_4d/3x3_reduce
I0810 21:05:20.300288   463 net.cpp:151] Top shape: 6 144 40 40 (1382400)
I0810 21:05:20.300294   463 net.cpp:159] Memory required for data: 2317018848
I0810 21:05:20.300303   463 layer_factory.hpp:77] Creating layer inception_4d/relu_3x3_reduce
I0810 21:05:20.300313   463 net.cpp:94] Creating Layer inception_4d/relu_3x3_reduce
I0810 21:05:20.300320   463 net.cpp:435] inception_4d/relu_3x3_reduce <- inception_4d/3x3_reduce
I0810 21:05:20.300329   463 net.cpp:396] inception_4d/relu_3x3_reduce -> inception_4d/3x3_reduce (in-place)
I0810 21:05:20.300354   463 net.cpp:144] Setting up inception_4d/relu_3x3_reduce
I0810 21:05:20.300362   463 net.cpp:151] Top shape: 6 144 40 40 (1382400)
I0810 21:05:20.300369   463 net.cpp:159] Memory required for data: 2322548448
I0810 21:05:20.300376   463 layer_factory.hpp:77] Creating layer inception_4d/3x3
I0810 21:05:20.300390   463 net.cpp:94] Creating Layer inception_4d/3x3
I0810 21:05:20.300396   463 net.cpp:435] inception_4d/3x3 <- inception_4d/3x3_reduce
I0810 21:05:20.300406   463 net.cpp:409] inception_4d/3x3 -> inception_4d/3x3
I0810 21:05:20.316694   463 net.cpp:144] Setting up inception_4d/3x3
I0810 21:05:20.316731   463 net.cpp:151] Top shape: 6 288 40 40 (2764800)
I0810 21:05:20.316738   463 net.cpp:159] Memory required for data: 2333607648
I0810 21:05:20.316752   463 layer_factory.hpp:77] Creating layer inception_4d/relu_3x3
I0810 21:05:20.316766   463 net.cpp:94] Creating Layer inception_4d/relu_3x3
I0810 21:05:20.316776   463 net.cpp:435] inception_4d/relu_3x3 <- inception_4d/3x3
I0810 21:05:20.316788   463 net.cpp:396] inception_4d/relu_3x3 -> inception_4d/3x3 (in-place)
I0810 21:05:20.316803   463 net.cpp:144] Setting up inception_4d/relu_3x3
I0810 21:05:20.316812   463 net.cpp:151] Top shape: 6 288 40 40 (2764800)
I0810 21:05:20.316817   463 net.cpp:159] Memory required for data: 2344666848
I0810 21:05:20.316823   463 layer_factory.hpp:77] Creating layer inception_4d/5x5_reduce
I0810 21:05:20.316836   463 net.cpp:94] Creating Layer inception_4d/5x5_reduce
I0810 21:05:20.316844   463 net.cpp:435] inception_4d/5x5_reduce <- inception_4c/output_inception_4c/output_0_split_2
I0810 21:05:20.316854   463 net.cpp:409] inception_4d/5x5_reduce -> inception_4d/5x5_reduce
I0810 21:05:20.317311   463 net.cpp:144] Setting up inception_4d/5x5_reduce
I0810 21:05:20.317325   463 net.cpp:151] Top shape: 6 32 40 40 (307200)
I0810 21:05:20.317332   463 net.cpp:159] Memory required for data: 2345895648
I0810 21:05:20.317342   463 layer_factory.hpp:77] Creating layer inception_4d/relu_5x5_reduce
I0810 21:05:20.317351   463 net.cpp:94] Creating Layer inception_4d/relu_5x5_reduce
I0810 21:05:20.317358   463 net.cpp:435] inception_4d/relu_5x5_reduce <- inception_4d/5x5_reduce
I0810 21:05:20.317368   463 net.cpp:396] inception_4d/relu_5x5_reduce -> inception_4d/5x5_reduce (in-place)
I0810 21:05:20.317379   463 net.cpp:144] Setting up inception_4d/relu_5x5_reduce
I0810 21:05:20.317387   463 net.cpp:151] Top shape: 6 32 40 40 (307200)
I0810 21:05:20.317394   463 net.cpp:159] Memory required for data: 2347124448
I0810 21:05:20.317399   463 layer_factory.hpp:77] Creating layer inception_4d/5x5
I0810 21:05:20.317411   463 net.cpp:94] Creating Layer inception_4d/5x5
I0810 21:05:20.317418   463 net.cpp:435] inception_4d/5x5 <- inception_4d/5x5_reduce
I0810 21:05:20.317430   463 net.cpp:409] inception_4d/5x5 -> inception_4d/5x5
I0810 21:05:20.318017   463 net.cpp:144] Setting up inception_4d/5x5
I0810 21:05:20.318028   463 net.cpp:151] Top shape: 6 64 40 40 (614400)
I0810 21:05:20.318034   463 net.cpp:159] Memory required for data: 2349582048
I0810 21:05:20.318043   463 layer_factory.hpp:77] Creating layer inception_4d/relu_5x5
I0810 21:05:20.318053   463 net.cpp:94] Creating Layer inception_4d/relu_5x5
I0810 21:05:20.318060   463 net.cpp:435] inception_4d/relu_5x5 <- inception_4d/5x5
I0810 21:05:20.318069   463 net.cpp:396] inception_4d/relu_5x5 -> inception_4d/5x5 (in-place)
I0810 21:05:20.318078   463 net.cpp:144] Setting up inception_4d/relu_5x5
I0810 21:05:20.318086   463 net.cpp:151] Top shape: 6 64 40 40 (614400)
I0810 21:05:20.318092   463 net.cpp:159] Memory required for data: 2352039648
I0810 21:05:20.318099   463 layer_factory.hpp:77] Creating layer inception_4d/pool
I0810 21:05:20.318109   463 net.cpp:94] Creating Layer inception_4d/pool
I0810 21:05:20.318115   463 net.cpp:435] inception_4d/pool <- inception_4c/output_inception_4c/output_0_split_3
I0810 21:05:20.318125   463 net.cpp:409] inception_4d/pool -> inception_4d/pool
I0810 21:05:20.318192   463 net.cpp:144] Setting up inception_4d/pool
I0810 21:05:20.318202   463 net.cpp:151] Top shape: 6 512 40 40 (4915200)
I0810 21:05:20.318244   463 net.cpp:159] Memory required for data: 2371700448
I0810 21:05:20.318251   463 layer_factory.hpp:77] Creating layer inception_4d/pool_proj
I0810 21:05:20.318264   463 net.cpp:94] Creating Layer inception_4d/pool_proj
I0810 21:05:20.318271   463 net.cpp:435] inception_4d/pool_proj <- inception_4d/pool
I0810 21:05:20.318282   463 net.cpp:409] inception_4d/pool_proj -> inception_4d/pool_proj
I0810 21:05:20.318756   463 net.cpp:144] Setting up inception_4d/pool_proj
I0810 21:05:20.318768   463 net.cpp:151] Top shape: 6 64 40 40 (614400)
I0810 21:05:20.318773   463 net.cpp:159] Memory required for data: 2374158048
I0810 21:05:20.318783   463 layer_factory.hpp:77] Creating layer inception_4d/relu_pool_proj
I0810 21:05:20.318792   463 net.cpp:94] Creating Layer inception_4d/relu_pool_proj
I0810 21:05:20.318799   463 net.cpp:435] inception_4d/relu_pool_proj <- inception_4d/pool_proj
I0810 21:05:20.318809   463 net.cpp:396] inception_4d/relu_pool_proj -> inception_4d/pool_proj (in-place)
I0810 21:05:20.318819   463 net.cpp:144] Setting up inception_4d/relu_pool_proj
I0810 21:05:20.318826   463 net.cpp:151] Top shape: 6 64 40 40 (614400)
I0810 21:05:20.318832   463 net.cpp:159] Memory required for data: 2376615648
I0810 21:05:20.318837   463 layer_factory.hpp:77] Creating layer inception_4d/output
I0810 21:05:20.318847   463 net.cpp:94] Creating Layer inception_4d/output
I0810 21:05:20.318855   463 net.cpp:435] inception_4d/output <- inception_4d/1x1
I0810 21:05:20.318861   463 net.cpp:435] inception_4d/output <- inception_4d/3x3
I0810 21:05:20.318869   463 net.cpp:435] inception_4d/output <- inception_4d/5x5
I0810 21:05:20.318876   463 net.cpp:435] inception_4d/output <- inception_4d/pool_proj
I0810 21:05:20.318886   463 net.cpp:409] inception_4d/output -> inception_4d/output
I0810 21:05:20.318922   463 net.cpp:144] Setting up inception_4d/output
I0810 21:05:20.318933   463 net.cpp:151] Top shape: 6 528 40 40 (5068800)
I0810 21:05:20.318938   463 net.cpp:159] Memory required for data: 2396890848
I0810 21:05:20.318943   463 layer_factory.hpp:77] Creating layer inception_4d/output_inception_4d/output_0_split
I0810 21:05:20.318954   463 net.cpp:94] Creating Layer inception_4d/output_inception_4d/output_0_split
I0810 21:05:20.318961   463 net.cpp:435] inception_4d/output_inception_4d/output_0_split <- inception_4d/output
I0810 21:05:20.318970   463 net.cpp:409] inception_4d/output_inception_4d/output_0_split -> inception_4d/output_inception_4d/output_0_split_0
I0810 21:05:20.318981   463 net.cpp:409] inception_4d/output_inception_4d/output_0_split -> inception_4d/output_inception_4d/output_0_split_1
I0810 21:05:20.318991   463 net.cpp:409] inception_4d/output_inception_4d/output_0_split -> inception_4d/output_inception_4d/output_0_split_2
I0810 21:05:20.319002   463 net.cpp:409] inception_4d/output_inception_4d/output_0_split -> inception_4d/output_inception_4d/output_0_split_3
I0810 21:05:20.319073   463 net.cpp:144] Setting up inception_4d/output_inception_4d/output_0_split
I0810 21:05:20.319082   463 net.cpp:151] Top shape: 6 528 40 40 (5068800)
I0810 21:05:20.319089   463 net.cpp:151] Top shape: 6 528 40 40 (5068800)
I0810 21:05:20.319097   463 net.cpp:151] Top shape: 6 528 40 40 (5068800)
I0810 21:05:20.319103   463 net.cpp:151] Top shape: 6 528 40 40 (5068800)
I0810 21:05:20.319108   463 net.cpp:159] Memory required for data: 2477991648
I0810 21:05:20.319114   463 layer_factory.hpp:77] Creating layer inception_4e/1x1
I0810 21:05:20.319125   463 net.cpp:94] Creating Layer inception_4e/1x1
I0810 21:05:20.319133   463 net.cpp:435] inception_4e/1x1 <- inception_4d/output_inception_4d/output_0_split_0
I0810 21:05:20.319144   463 net.cpp:409] inception_4e/1x1 -> inception_4e/1x1
I0810 21:05:20.321804   463 net.cpp:144] Setting up inception_4e/1x1
I0810 21:05:20.321822   463 net.cpp:151] Top shape: 6 256 40 40 (2457600)
I0810 21:05:20.321828   463 net.cpp:159] Memory required for data: 2487822048
I0810 21:05:20.321840   463 layer_factory.hpp:77] Creating layer inception_4e/relu_1x1
I0810 21:05:20.321866   463 net.cpp:94] Creating Layer inception_4e/relu_1x1
I0810 21:05:20.321874   463 net.cpp:435] inception_4e/relu_1x1 <- inception_4e/1x1
I0810 21:05:20.321887   463 net.cpp:396] inception_4e/relu_1x1 -> inception_4e/1x1 (in-place)
I0810 21:05:20.321898   463 net.cpp:144] Setting up inception_4e/relu_1x1
I0810 21:05:20.321907   463 net.cpp:151] Top shape: 6 256 40 40 (2457600)
I0810 21:05:20.321913   463 net.cpp:159] Memory required for data: 2497652448
I0810 21:05:20.321918   463 layer_factory.hpp:77] Creating layer inception_4e/3x3_reduce
I0810 21:05:20.321931   463 net.cpp:94] Creating Layer inception_4e/3x3_reduce
I0810 21:05:20.321938   463 net.cpp:435] inception_4e/3x3_reduce <- inception_4d/output_inception_4d/output_0_split_1
I0810 21:05:20.321949   463 net.cpp:409] inception_4e/3x3_reduce -> inception_4e/3x3_reduce
I0810 21:05:20.322692   463 net.cpp:144] Setting up inception_4e/3x3_reduce
I0810 21:05:20.322705   463 net.cpp:151] Top shape: 6 160 40 40 (1536000)
I0810 21:05:20.322710   463 net.cpp:159] Memory required for data: 2503796448
I0810 21:05:20.322719   463 layer_factory.hpp:77] Creating layer inception_4e/relu_3x3_reduce
I0810 21:05:20.322729   463 net.cpp:94] Creating Layer inception_4e/relu_3x3_reduce
I0810 21:05:20.322736   463 net.cpp:435] inception_4e/relu_3x3_reduce <- inception_4e/3x3_reduce
I0810 21:05:20.322746   463 net.cpp:396] inception_4e/relu_3x3_reduce -> inception_4e/3x3_reduce (in-place)
I0810 21:05:20.322757   463 net.cpp:144] Setting up inception_4e/relu_3x3_reduce
I0810 21:05:20.322764   463 net.cpp:151] Top shape: 6 160 40 40 (1536000)
I0810 21:05:20.322769   463 net.cpp:159] Memory required for data: 2509940448
I0810 21:05:20.322775   463 layer_factory.hpp:77] Creating layer inception_4e/3x3
I0810 21:05:20.322788   463 net.cpp:94] Creating Layer inception_4e/3x3
I0810 21:05:20.322794   463 net.cpp:435] inception_4e/3x3 <- inception_4e/3x3_reduce
I0810 21:05:20.322805   463 net.cpp:409] inception_4e/3x3 -> inception_4e/3x3
I0810 21:05:20.347710   463 net.cpp:144] Setting up inception_4e/3x3
I0810 21:05:20.347751   463 net.cpp:151] Top shape: 6 320 40 40 (3072000)
I0810 21:05:20.347759   463 net.cpp:159] Memory required for data: 2522228448
I0810 21:05:20.347774   463 layer_factory.hpp:77] Creating layer inception_4e/relu_3x3
I0810 21:05:20.347789   463 net.cpp:94] Creating Layer inception_4e/relu_3x3
I0810 21:05:20.347798   463 net.cpp:435] inception_4e/relu_3x3 <- inception_4e/3x3
I0810 21:05:20.347811   463 net.cpp:396] inception_4e/relu_3x3 -> inception_4e/3x3 (in-place)
I0810 21:05:20.347829   463 net.cpp:144] Setting up inception_4e/relu_3x3
I0810 21:05:20.347837   463 net.cpp:151] Top shape: 6 320 40 40 (3072000)
I0810 21:05:20.347842   463 net.cpp:159] Memory required for data: 2534516448
I0810 21:05:20.347848   463 layer_factory.hpp:77] Creating layer inception_4e/5x5_reduce
I0810 21:05:20.347863   463 net.cpp:94] Creating Layer inception_4e/5x5_reduce
I0810 21:05:20.347870   463 net.cpp:435] inception_4e/5x5_reduce <- inception_4d/output_inception_4d/output_0_split_2
I0810 21:05:20.347882   463 net.cpp:409] inception_4e/5x5_reduce -> inception_4e/5x5_reduce
I0810 21:05:20.348315   463 net.cpp:144] Setting up inception_4e/5x5_reduce
I0810 21:05:20.348330   463 net.cpp:151] Top shape: 6 32 40 40 (307200)
I0810 21:05:20.348335   463 net.cpp:159] Memory required for data: 2535745248
I0810 21:05:20.348345   463 layer_factory.hpp:77] Creating layer inception_4e/relu_5x5_reduce
I0810 21:05:20.348354   463 net.cpp:94] Creating Layer inception_4e/relu_5x5_reduce
I0810 21:05:20.348362   463 net.cpp:435] inception_4e/relu_5x5_reduce <- inception_4e/5x5_reduce
I0810 21:05:20.348371   463 net.cpp:396] inception_4e/relu_5x5_reduce -> inception_4e/5x5_reduce (in-place)
I0810 21:05:20.348382   463 net.cpp:144] Setting up inception_4e/relu_5x5_reduce
I0810 21:05:20.348389   463 net.cpp:151] Top shape: 6 32 40 40 (307200)
I0810 21:05:20.348395   463 net.cpp:159] Memory required for data: 2536974048
I0810 21:05:20.348402   463 layer_factory.hpp:77] Creating layer inception_4e/5x5
I0810 21:05:20.348450   463 net.cpp:94] Creating Layer inception_4e/5x5
I0810 21:05:20.348459   463 net.cpp:435] inception_4e/5x5 <- inception_4e/5x5_reduce
I0810 21:05:20.348469   463 net.cpp:409] inception_4e/5x5 -> inception_4e/5x5
I0810 21:05:20.353647   463 net.cpp:144] Setting up inception_4e/5x5
I0810 21:05:20.353667   463 net.cpp:151] Top shape: 6 128 40 40 (1228800)
I0810 21:05:20.353674   463 net.cpp:159] Memory required for data: 2541889248
I0810 21:05:20.353684   463 layer_factory.hpp:77] Creating layer inception_4e/relu_5x5
I0810 21:05:20.353695   463 net.cpp:94] Creating Layer inception_4e/relu_5x5
I0810 21:05:20.353703   463 net.cpp:435] inception_4e/relu_5x5 <- inception_4e/5x5
I0810 21:05:20.353713   463 net.cpp:396] inception_4e/relu_5x5 -> inception_4e/5x5 (in-place)
I0810 21:05:20.353725   463 net.cpp:144] Setting up inception_4e/relu_5x5
I0810 21:05:20.353734   463 net.cpp:151] Top shape: 6 128 40 40 (1228800)
I0810 21:05:20.353739   463 net.cpp:159] Memory required for data: 2546804448
I0810 21:05:20.353745   463 layer_factory.hpp:77] Creating layer inception_4e/pool
I0810 21:05:20.353793   463 net.cpp:94] Creating Layer inception_4e/pool
I0810 21:05:20.353801   463 net.cpp:435] inception_4e/pool <- inception_4d/output_inception_4d/output_0_split_3
I0810 21:05:20.353809   463 net.cpp:409] inception_4e/pool -> inception_4e/pool
I0810 21:05:20.353866   463 net.cpp:144] Setting up inception_4e/pool
I0810 21:05:20.353876   463 net.cpp:151] Top shape: 6 528 40 40 (5068800)
I0810 21:05:20.353883   463 net.cpp:159] Memory required for data: 2567079648
I0810 21:05:20.353888   463 layer_factory.hpp:77] Creating layer inception_4e/pool_proj
I0810 21:05:20.353900   463 net.cpp:94] Creating Layer inception_4e/pool_proj
I0810 21:05:20.353907   463 net.cpp:435] inception_4e/pool_proj <- inception_4e/pool
I0810 21:05:20.353919   463 net.cpp:409] inception_4e/pool_proj -> inception_4e/pool_proj
I0810 21:05:20.354568   463 net.cpp:144] Setting up inception_4e/pool_proj
I0810 21:05:20.354583   463 net.cpp:151] Top shape: 6 128 40 40 (1228800)
I0810 21:05:20.354589   463 net.cpp:159] Memory required for data: 2571994848
I0810 21:05:20.354598   463 layer_factory.hpp:77] Creating layer inception_4e/relu_pool_proj
I0810 21:05:20.354607   463 net.cpp:94] Creating Layer inception_4e/relu_pool_proj
I0810 21:05:20.354614   463 net.cpp:435] inception_4e/relu_pool_proj <- inception_4e/pool_proj
I0810 21:05:20.354624   463 net.cpp:396] inception_4e/relu_pool_proj -> inception_4e/pool_proj (in-place)
I0810 21:05:20.354635   463 net.cpp:144] Setting up inception_4e/relu_pool_proj
I0810 21:05:20.354642   463 net.cpp:151] Top shape: 6 128 40 40 (1228800)
I0810 21:05:20.354648   463 net.cpp:159] Memory required for data: 2576910048
I0810 21:05:20.354655   463 layer_factory.hpp:77] Creating layer inception_4e/output
I0810 21:05:20.354665   463 net.cpp:94] Creating Layer inception_4e/output
I0810 21:05:20.354672   463 net.cpp:435] inception_4e/output <- inception_4e/1x1
I0810 21:05:20.354681   463 net.cpp:435] inception_4e/output <- inception_4e/3x3
I0810 21:05:20.354687   463 net.cpp:435] inception_4e/output <- inception_4e/5x5
I0810 21:05:20.354694   463 net.cpp:435] inception_4e/output <- inception_4e/pool_proj
I0810 21:05:20.354703   463 net.cpp:409] inception_4e/output -> inception_4e/output
I0810 21:05:20.354743   463 net.cpp:144] Setting up inception_4e/output
I0810 21:05:20.354753   463 net.cpp:151] Top shape: 6 832 40 40 (7987200)
I0810 21:05:20.354758   463 net.cpp:159] Memory required for data: 2608858848
I0810 21:05:20.354763   463 layer_factory.hpp:77] Creating layer inception_4e/output_inception_4e/output_0_split
I0810 21:05:20.354774   463 net.cpp:94] Creating Layer inception_4e/output_inception_4e/output_0_split
I0810 21:05:20.354780   463 net.cpp:435] inception_4e/output_inception_4e/output_0_split <- inception_4e/output
I0810 21:05:20.354790   463 net.cpp:409] inception_4e/output_inception_4e/output_0_split -> inception_4e/output_inception_4e/output_0_split_0
I0810 21:05:20.354801   463 net.cpp:409] inception_4e/output_inception_4e/output_0_split -> inception_4e/output_inception_4e/output_0_split_1
I0810 21:05:20.354832   463 net.cpp:409] inception_4e/output_inception_4e/output_0_split -> inception_4e/output_inception_4e/output_0_split_2
I0810 21:05:20.354843   463 net.cpp:409] inception_4e/output_inception_4e/output_0_split -> inception_4e/output_inception_4e/output_0_split_3
I0810 21:05:20.354918   463 net.cpp:144] Setting up inception_4e/output_inception_4e/output_0_split
I0810 21:05:20.354928   463 net.cpp:151] Top shape: 6 832 40 40 (7987200)
I0810 21:05:20.354934   463 net.cpp:151] Top shape: 6 832 40 40 (7987200)
I0810 21:05:20.354941   463 net.cpp:151] Top shape: 6 832 40 40 (7987200)
I0810 21:05:20.354948   463 net.cpp:151] Top shape: 6 832 40 40 (7987200)
I0810 21:05:20.354954   463 net.cpp:159] Memory required for data: 2736654048
I0810 21:05:20.354959   463 layer_factory.hpp:77] Creating layer inception_5a/1x1
I0810 21:05:20.354970   463 net.cpp:94] Creating Layer inception_5a/1x1
I0810 21:05:20.354977   463 net.cpp:435] inception_5a/1x1 <- inception_4e/output_inception_4e/output_0_split_0
I0810 21:05:20.354988   463 net.cpp:409] inception_5a/1x1 -> inception_5a/1x1
I0810 21:05:20.370445   463 net.cpp:144] Setting up inception_5a/1x1
I0810 21:05:20.370494   463 net.cpp:151] Top shape: 6 256 40 40 (2457600)
I0810 21:05:20.370510   463 net.cpp:159] Memory required for data: 2746484448
I0810 21:05:20.370523   463 layer_factory.hpp:77] Creating layer inception_5a/relu_1x1
I0810 21:05:20.370537   463 net.cpp:94] Creating Layer inception_5a/relu_1x1
I0810 21:05:20.370548   463 net.cpp:435] inception_5a/relu_1x1 <- inception_5a/1x1
I0810 21:05:20.370558   463 net.cpp:396] inception_5a/relu_1x1 -> inception_5a/1x1 (in-place)
I0810 21:05:20.370573   463 net.cpp:144] Setting up inception_5a/relu_1x1
I0810 21:05:20.370580   463 net.cpp:151] Top shape: 6 256 40 40 (2457600)
I0810 21:05:20.370585   463 net.cpp:159] Memory required for data: 2756314848
I0810 21:05:20.370599   463 layer_factory.hpp:77] Creating layer inception_5a/3x3_reduce
I0810 21:05:20.370625   463 net.cpp:94] Creating Layer inception_5a/3x3_reduce
I0810 21:05:20.370631   463 net.cpp:435] inception_5a/3x3_reduce <- inception_4e/output_inception_4e/output_0_split_1
I0810 21:05:20.370643   463 net.cpp:409] inception_5a/3x3_reduce -> inception_5a/3x3_reduce
I0810 21:05:20.373409   463 net.cpp:144] Setting up inception_5a/3x3_reduce
I0810 21:05:20.373426   463 net.cpp:151] Top shape: 6 160 40 40 (1536000)
I0810 21:05:20.373432   463 net.cpp:159] Memory required for data: 2762458848
I0810 21:05:20.373443   463 layer_factory.hpp:77] Creating layer inception_5a/relu_3x3_reduce
I0810 21:05:20.373453   463 net.cpp:94] Creating Layer inception_5a/relu_3x3_reduce
I0810 21:05:20.373461   463 net.cpp:435] inception_5a/relu_3x3_reduce <- inception_5a/3x3_reduce
I0810 21:05:20.373471   463 net.cpp:396] inception_5a/relu_3x3_reduce -> inception_5a/3x3_reduce (in-place)
I0810 21:05:20.373482   463 net.cpp:144] Setting up inception_5a/relu_3x3_reduce
I0810 21:05:20.373491   463 net.cpp:151] Top shape: 6 160 40 40 (1536000)
I0810 21:05:20.373497   463 net.cpp:159] Memory required for data: 2768602848
I0810 21:05:20.373502   463 layer_factory.hpp:77] Creating layer inception_5a/3x3
I0810 21:05:20.373515   463 net.cpp:94] Creating Layer inception_5a/3x3
I0810 21:05:20.373522   463 net.cpp:435] inception_5a/3x3 <- inception_5a/3x3_reduce
I0810 21:05:20.373533   463 net.cpp:409] inception_5a/3x3 -> inception_5a/3x3
I0810 21:05:20.377594   463 net.cpp:144] Setting up inception_5a/3x3
I0810 21:05:20.377612   463 net.cpp:151] Top shape: 6 320 40 40 (3072000)
I0810 21:05:20.377619   463 net.cpp:159] Memory required for data: 2780890848
I0810 21:05:20.377629   463 layer_factory.hpp:77] Creating layer inception_5a/relu_3x3
I0810 21:05:20.377640   463 net.cpp:94] Creating Layer inception_5a/relu_3x3
I0810 21:05:20.377647   463 net.cpp:435] inception_5a/relu_3x3 <- inception_5a/3x3
I0810 21:05:20.377657   463 net.cpp:396] inception_5a/relu_3x3 -> inception_5a/3x3 (in-place)
I0810 21:05:20.377704   463 net.cpp:144] Setting up inception_5a/relu_3x3
I0810 21:05:20.377713   463 net.cpp:151] Top shape: 6 320 40 40 (3072000)
I0810 21:05:20.377719   463 net.cpp:159] Memory required for data: 2793178848
I0810 21:05:20.377725   463 layer_factory.hpp:77] Creating layer inception_5a/5x5_reduce
I0810 21:05:20.377738   463 net.cpp:94] Creating Layer inception_5a/5x5_reduce
I0810 21:05:20.377746   463 net.cpp:435] inception_5a/5x5_reduce <- inception_4e/output_inception_4e/output_0_split_2
I0810 21:05:20.377758   463 net.cpp:409] inception_5a/5x5_reduce -> inception_5a/5x5_reduce
I0810 21:05:20.378233   463 net.cpp:144] Setting up inception_5a/5x5_reduce
I0810 21:05:20.378245   463 net.cpp:151] Top shape: 6 32 40 40 (307200)
I0810 21:05:20.378252   463 net.cpp:159] Memory required for data: 2794407648
I0810 21:05:20.378260   463 layer_factory.hpp:77] Creating layer inception_5a/relu_5x5_reduce
I0810 21:05:20.378270   463 net.cpp:94] Creating Layer inception_5a/relu_5x5_reduce
I0810 21:05:20.378278   463 net.cpp:435] inception_5a/relu_5x5_reduce <- inception_5a/5x5_reduce
I0810 21:05:20.378288   463 net.cpp:396] inception_5a/relu_5x5_reduce -> inception_5a/5x5_reduce (in-place)
I0810 21:05:20.378298   463 net.cpp:144] Setting up inception_5a/relu_5x5_reduce
I0810 21:05:20.378305   463 net.cpp:151] Top shape: 6 32 40 40 (307200)
I0810 21:05:20.378311   463 net.cpp:159] Memory required for data: 2795636448
I0810 21:05:20.378317   463 layer_factory.hpp:77] Creating layer inception_5a/5x5
I0810 21:05:20.378329   463 net.cpp:94] Creating Layer inception_5a/5x5
I0810 21:05:20.378335   463 net.cpp:435] inception_5a/5x5 <- inception_5a/5x5_reduce
I0810 21:05:20.378346   463 net.cpp:409] inception_5a/5x5 -> inception_5a/5x5
I0810 21:05:20.379242   463 net.cpp:144] Setting up inception_5a/5x5
I0810 21:05:20.379254   463 net.cpp:151] Top shape: 6 128 40 40 (1228800)
I0810 21:05:20.379261   463 net.cpp:159] Memory required for data: 2800551648
I0810 21:05:20.379271   463 layer_factory.hpp:77] Creating layer inception_5a/relu_5x5
I0810 21:05:20.379281   463 net.cpp:94] Creating Layer inception_5a/relu_5x5
I0810 21:05:20.379287   463 net.cpp:435] inception_5a/relu_5x5 <- inception_5a/5x5
I0810 21:05:20.379297   463 net.cpp:396] inception_5a/relu_5x5 -> inception_5a/5x5 (in-place)
I0810 21:05:20.379307   463 net.cpp:144] Setting up inception_5a/relu_5x5
I0810 21:05:20.379314   463 net.cpp:151] Top shape: 6 128 40 40 (1228800)
I0810 21:05:20.379319   463 net.cpp:159] Memory required for data: 2805466848
I0810 21:05:20.379325   463 layer_factory.hpp:77] Creating layer inception_5a/pool
I0810 21:05:20.379336   463 net.cpp:94] Creating Layer inception_5a/pool
I0810 21:05:20.379343   463 net.cpp:435] inception_5a/pool <- inception_4e/output_inception_4e/output_0_split_3
I0810 21:05:20.379354   463 net.cpp:409] inception_5a/pool -> inception_5a/pool
I0810 21:05:20.379411   463 net.cpp:144] Setting up inception_5a/pool
I0810 21:05:20.379421   463 net.cpp:151] Top shape: 6 832 40 40 (7987200)
I0810 21:05:20.379427   463 net.cpp:159] Memory required for data: 2837415648
I0810 21:05:20.379433   463 layer_factory.hpp:77] Creating layer inception_5a/pool_proj
I0810 21:05:20.379446   463 net.cpp:94] Creating Layer inception_5a/pool_proj
I0810 21:05:20.379452   463 net.cpp:435] inception_5a/pool_proj <- inception_5a/pool
I0810 21:05:20.379463   463 net.cpp:409] inception_5a/pool_proj -> inception_5a/pool_proj
I0810 21:05:20.381026   463 net.cpp:144] Setting up inception_5a/pool_proj
I0810 21:05:20.381043   463 net.cpp:151] Top shape: 6 128 40 40 (1228800)
I0810 21:05:20.381049   463 net.cpp:159] Memory required for data: 2842330848
I0810 21:05:20.381059   463 layer_factory.hpp:77] Creating layer inception_5a/relu_pool_proj
I0810 21:05:20.381072   463 net.cpp:94] Creating Layer inception_5a/relu_pool_proj
I0810 21:05:20.381078   463 net.cpp:435] inception_5a/relu_pool_proj <- inception_5a/pool_proj
I0810 21:05:20.381088   463 net.cpp:396] inception_5a/relu_pool_proj -> inception_5a/pool_proj (in-place)
I0810 21:05:20.381100   463 net.cpp:144] Setting up inception_5a/relu_pool_proj
I0810 21:05:20.381132   463 net.cpp:151] Top shape: 6 128 40 40 (1228800)
I0810 21:05:20.381139   463 net.cpp:159] Memory required for data: 2847246048
I0810 21:05:20.381145   463 layer_factory.hpp:77] Creating layer inception_5a/output
I0810 21:05:20.381156   463 net.cpp:94] Creating Layer inception_5a/output
I0810 21:05:20.381172   463 net.cpp:435] inception_5a/output <- inception_5a/1x1
I0810 21:05:20.381181   463 net.cpp:435] inception_5a/output <- inception_5a/3x3
I0810 21:05:20.381187   463 net.cpp:435] inception_5a/output <- inception_5a/5x5
I0810 21:05:20.381194   463 net.cpp:435] inception_5a/output <- inception_5a/pool_proj
I0810 21:05:20.381204   463 net.cpp:409] inception_5a/output -> inception_5a/output
I0810 21:05:20.381253   463 net.cpp:144] Setting up inception_5a/output
I0810 21:05:20.381263   463 net.cpp:151] Top shape: 6 832 40 40 (7987200)
I0810 21:05:20.381269   463 net.cpp:159] Memory required for data: 2879194848
I0810 21:05:20.381275   463 layer_factory.hpp:77] Creating layer inception_5a/output_inception_5a/output_0_split
I0810 21:05:20.381286   463 net.cpp:94] Creating Layer inception_5a/output_inception_5a/output_0_split
I0810 21:05:20.381294   463 net.cpp:435] inception_5a/output_inception_5a/output_0_split <- inception_5a/output
I0810 21:05:20.381304   463 net.cpp:409] inception_5a/output_inception_5a/output_0_split -> inception_5a/output_inception_5a/output_0_split_0
I0810 21:05:20.381314   463 net.cpp:409] inception_5a/output_inception_5a/output_0_split -> inception_5a/output_inception_5a/output_0_split_1
I0810 21:05:20.381325   463 net.cpp:409] inception_5a/output_inception_5a/output_0_split -> inception_5a/output_inception_5a/output_0_split_2
I0810 21:05:20.381342   463 net.cpp:409] inception_5a/output_inception_5a/output_0_split -> inception_5a/output_inception_5a/output_0_split_3
I0810 21:05:20.381418   463 net.cpp:144] Setting up inception_5a/output_inception_5a/output_0_split
I0810 21:05:20.381428   463 net.cpp:151] Top shape: 6 832 40 40 (7987200)
I0810 21:05:20.381435   463 net.cpp:151] Top shape: 6 832 40 40 (7987200)
I0810 21:05:20.381443   463 net.cpp:151] Top shape: 6 832 40 40 (7987200)
I0810 21:05:20.381448   463 net.cpp:151] Top shape: 6 832 40 40 (7987200)
I0810 21:05:20.381454   463 net.cpp:159] Memory required for data: 3006990048
I0810 21:05:20.381460   463 layer_factory.hpp:77] Creating layer inception_5b/1x1
I0810 21:05:20.381472   463 net.cpp:94] Creating Layer inception_5b/1x1
I0810 21:05:20.381479   463 net.cpp:435] inception_5b/1x1 <- inception_5a/output_inception_5a/output_0_split_0
I0810 21:05:20.381489   463 net.cpp:409] inception_5b/1x1 -> inception_5b/1x1
I0810 21:05:20.384256   463 net.cpp:144] Setting up inception_5b/1x1
I0810 21:05:20.384279   463 net.cpp:151] Top shape: 6 384 40 40 (3686400)
I0810 21:05:20.384285   463 net.cpp:159] Memory required for data: 3021735648
I0810 21:05:20.384295   463 layer_factory.hpp:77] Creating layer inception_5b/relu_1x1
I0810 21:05:20.384305   463 net.cpp:94] Creating Layer inception_5b/relu_1x1
I0810 21:05:20.384312   463 net.cpp:435] inception_5b/relu_1x1 <- inception_5b/1x1
I0810 21:05:20.384322   463 net.cpp:396] inception_5b/relu_1x1 -> inception_5b/1x1 (in-place)
I0810 21:05:20.384335   463 net.cpp:144] Setting up inception_5b/relu_1x1
I0810 21:05:20.384342   463 net.cpp:151] Top shape: 6 384 40 40 (3686400)
I0810 21:05:20.384348   463 net.cpp:159] Memory required for data: 3036481248
I0810 21:05:20.384354   463 layer_factory.hpp:77] Creating layer inception_5b/3x3_reduce
I0810 21:05:20.384366   463 net.cpp:94] Creating Layer inception_5b/3x3_reduce
I0810 21:05:20.384372   463 net.cpp:435] inception_5b/3x3_reduce <- inception_5a/output_inception_5a/output_0_split_1
I0810 21:05:20.384393   463 net.cpp:409] inception_5b/3x3_reduce -> inception_5b/3x3_reduce
I0810 21:05:20.386274   463 net.cpp:144] Setting up inception_5b/3x3_reduce
I0810 21:05:20.386291   463 net.cpp:151] Top shape: 6 192 40 40 (1843200)
I0810 21:05:20.386298   463 net.cpp:159] Memory required for data: 3043854048
I0810 21:05:20.386324   463 layer_factory.hpp:77] Creating layer inception_5b/relu_3x3_reduce
I0810 21:05:20.386337   463 net.cpp:94] Creating Layer inception_5b/relu_3x3_reduce
I0810 21:05:20.386343   463 net.cpp:435] inception_5b/relu_3x3_reduce <- inception_5b/3x3_reduce
I0810 21:05:20.386353   463 net.cpp:396] inception_5b/relu_3x3_reduce -> inception_5b/3x3_reduce (in-place)
I0810 21:05:20.386365   463 net.cpp:144] Setting up inception_5b/relu_3x3_reduce
I0810 21:05:20.386373   463 net.cpp:151] Top shape: 6 192 40 40 (1843200)
I0810 21:05:20.386379   463 net.cpp:159] Memory required for data: 3051226848
I0810 21:05:20.386385   463 layer_factory.hpp:77] Creating layer inception_5b/3x3
I0810 21:05:20.386399   463 net.cpp:94] Creating Layer inception_5b/3x3
I0810 21:05:20.386405   463 net.cpp:435] inception_5b/3x3 <- inception_5b/3x3_reduce
I0810 21:05:20.386416   463 net.cpp:409] inception_5b/3x3 -> inception_5b/3x3
I0810 21:05:20.392453   463 net.cpp:144] Setting up inception_5b/3x3
I0810 21:05:20.392472   463 net.cpp:151] Top shape: 6 384 40 40 (3686400)
I0810 21:05:20.392478   463 net.cpp:159] Memory required for data: 3065972448
I0810 21:05:20.392488   463 layer_factory.hpp:77] Creating layer inception_5b/relu_3x3
I0810 21:05:20.392499   463 net.cpp:94] Creating Layer inception_5b/relu_3x3
I0810 21:05:20.392508   463 net.cpp:435] inception_5b/relu_3x3 <- inception_5b/3x3
I0810 21:05:20.392516   463 net.cpp:396] inception_5b/relu_3x3 -> inception_5b/3x3 (in-place)
I0810 21:05:20.392529   463 net.cpp:144] Setting up inception_5b/relu_3x3
I0810 21:05:20.392536   463 net.cpp:151] Top shape: 6 384 40 40 (3686400)
I0810 21:05:20.392542   463 net.cpp:159] Memory required for data: 3080718048
I0810 21:05:20.392549   463 layer_factory.hpp:77] Creating layer inception_5b/5x5_reduce
I0810 21:05:20.392561   463 net.cpp:94] Creating Layer inception_5b/5x5_reduce
I0810 21:05:20.392570   463 net.cpp:435] inception_5b/5x5_reduce <- inception_5a/output_inception_5a/output_0_split_2
I0810 21:05:20.392580   463 net.cpp:409] inception_5b/5x5_reduce -> inception_5b/5x5_reduce
I0810 21:05:20.393793   463 net.cpp:144] Setting up inception_5b/5x5_reduce
I0810 21:05:20.393810   463 net.cpp:151] Top shape: 6 48 40 40 (460800)
I0810 21:05:20.393817   463 net.cpp:159] Memory required for data: 3082561248
I0810 21:05:20.393827   463 layer_factory.hpp:77] Creating layer inception_5b/relu_5x5_reduce
I0810 21:05:20.393838   463 net.cpp:94] Creating Layer inception_5b/relu_5x5_reduce
I0810 21:05:20.393846   463 net.cpp:435] inception_5b/relu_5x5_reduce <- inception_5b/5x5_reduce
I0810 21:05:20.393856   463 net.cpp:396] inception_5b/relu_5x5_reduce -> inception_5b/5x5_reduce (in-place)
I0810 21:05:20.393867   463 net.cpp:144] Setting up inception_5b/relu_5x5_reduce
I0810 21:05:20.393874   463 net.cpp:151] Top shape: 6 48 40 40 (460800)
I0810 21:05:20.393880   463 net.cpp:159] Memory required for data: 3084404448
I0810 21:05:20.393887   463 layer_factory.hpp:77] Creating layer inception_5b/5x5
I0810 21:05:20.393899   463 net.cpp:94] Creating Layer inception_5b/5x5
I0810 21:05:20.393906   463 net.cpp:435] inception_5b/5x5 <- inception_5b/5x5_reduce
I0810 21:05:20.393918   463 net.cpp:409] inception_5b/5x5 -> inception_5b/5x5
I0810 21:05:20.395053   463 net.cpp:144] Setting up inception_5b/5x5
I0810 21:05:20.395066   463 net.cpp:151] Top shape: 6 128 40 40 (1228800)
I0810 21:05:20.395072   463 net.cpp:159] Memory required for data: 3089319648
I0810 21:05:20.395081   463 layer_factory.hpp:77] Creating layer inception_5b/relu_5x5
I0810 21:05:20.395092   463 net.cpp:94] Creating Layer inception_5b/relu_5x5
I0810 21:05:20.395098   463 net.cpp:435] inception_5b/relu_5x5 <- inception_5b/5x5
I0810 21:05:20.395107   463 net.cpp:396] inception_5b/relu_5x5 -> inception_5b/5x5 (in-place)
I0810 21:05:20.395118   463 net.cpp:144] Setting up inception_5b/relu_5x5
I0810 21:05:20.395125   463 net.cpp:151] Top shape: 6 128 40 40 (1228800)
I0810 21:05:20.395131   463 net.cpp:159] Memory required for data: 3094234848
I0810 21:05:20.395138   463 layer_factory.hpp:77] Creating layer inception_5b/pool
I0810 21:05:20.395175   463 net.cpp:94] Creating Layer inception_5b/pool
I0810 21:05:20.395184   463 net.cpp:435] inception_5b/pool <- inception_5a/output_inception_5a/output_0_split_3
I0810 21:05:20.395195   463 net.cpp:409] inception_5b/pool -> inception_5b/pool
I0810 21:05:20.395243   463 net.cpp:144] Setting up inception_5b/pool
I0810 21:05:20.395253   463 net.cpp:151] Top shape: 6 832 40 40 (7987200)
I0810 21:05:20.395259   463 net.cpp:159] Memory required for data: 3126183648
I0810 21:05:20.395265   463 layer_factory.hpp:77] Creating layer inception_5b/pool_proj
I0810 21:05:20.395278   463 net.cpp:94] Creating Layer inception_5b/pool_proj
I0810 21:05:20.395285   463 net.cpp:435] inception_5b/pool_proj <- inception_5b/pool
I0810 21:05:20.395295   463 net.cpp:409] inception_5b/pool_proj -> inception_5b/pool_proj
I0810 21:05:20.396829   463 net.cpp:144] Setting up inception_5b/pool_proj
I0810 21:05:20.396845   463 net.cpp:151] Top shape: 6 128 40 40 (1228800)
I0810 21:05:20.396852   463 net.cpp:159] Memory required for data: 3131098848
I0810 21:05:20.396862   463 layer_factory.hpp:77] Creating layer inception_5b/relu_pool_proj
I0810 21:05:20.396872   463 net.cpp:94] Creating Layer inception_5b/relu_pool_proj
I0810 21:05:20.396898   463 net.cpp:435] inception_5b/relu_pool_proj <- inception_5b/pool_proj
I0810 21:05:20.396910   463 net.cpp:396] inception_5b/relu_pool_proj -> inception_5b/pool_proj (in-place)
I0810 21:05:20.396922   463 net.cpp:144] Setting up inception_5b/relu_pool_proj
I0810 21:05:20.396930   463 net.cpp:151] Top shape: 6 128 40 40 (1228800)
I0810 21:05:20.396935   463 net.cpp:159] Memory required for data: 3136014048
I0810 21:05:20.396942   463 layer_factory.hpp:77] Creating layer inception_5b/output
I0810 21:05:20.396951   463 net.cpp:94] Creating Layer inception_5b/output
I0810 21:05:20.396958   463 net.cpp:435] inception_5b/output <- inception_5b/1x1
I0810 21:05:20.396966   463 net.cpp:435] inception_5b/output <- inception_5b/3x3
I0810 21:05:20.396973   463 net.cpp:435] inception_5b/output <- inception_5b/5x5
I0810 21:05:20.396981   463 net.cpp:435] inception_5b/output <- inception_5b/pool_proj
I0810 21:05:20.396989   463 net.cpp:409] inception_5b/output -> inception_5b/output
I0810 21:05:20.397024   463 net.cpp:144] Setting up inception_5b/output
I0810 21:05:20.397033   463 net.cpp:151] Top shape: 6 1024 40 40 (9830400)
I0810 21:05:20.397038   463 net.cpp:159] Memory required for data: 3175335648
I0810 21:05:20.397044   463 layer_factory.hpp:77] Creating layer pool5/drop_s1
I0810 21:05:20.397054   463 net.cpp:94] Creating Layer pool5/drop_s1
I0810 21:05:20.397060   463 net.cpp:435] pool5/drop_s1 <- inception_5b/output
I0810 21:05:20.397071   463 net.cpp:409] pool5/drop_s1 -> pool5/drop_s1
I0810 21:05:20.397114   463 net.cpp:144] Setting up pool5/drop_s1
I0810 21:05:20.397122   463 net.cpp:151] Top shape: 6 1024 40 40 (9830400)
I0810 21:05:20.397128   463 net.cpp:159] Memory required for data: 3214657248
I0810 21:05:20.397133   463 layer_factory.hpp:77] Creating layer pool5/drop_s1_pool5/drop_s1_0_split
I0810 21:05:20.397155   463 net.cpp:94] Creating Layer pool5/drop_s1_pool5/drop_s1_0_split
I0810 21:05:20.397169   463 net.cpp:435] pool5/drop_s1_pool5/drop_s1_0_split <- pool5/drop_s1
I0810 21:05:20.397179   463 net.cpp:409] pool5/drop_s1_pool5/drop_s1_0_split -> pool5/drop_s1_pool5/drop_s1_0_split_0
I0810 21:05:20.397189   463 net.cpp:409] pool5/drop_s1_pool5/drop_s1_0_split -> pool5/drop_s1_pool5/drop_s1_0_split_1
I0810 21:05:20.397231   463 net.cpp:144] Setting up pool5/drop_s1_pool5/drop_s1_0_split
I0810 21:05:20.397240   463 net.cpp:151] Top shape: 6 1024 40 40 (9830400)
I0810 21:05:20.397248   463 net.cpp:151] Top shape: 6 1024 40 40 (9830400)
I0810 21:05:20.397253   463 net.cpp:159] Memory required for data: 3293300448
I0810 21:05:20.397258   463 layer_factory.hpp:77] Creating layer cvg/classifier
I0810 21:05:20.397270   463 net.cpp:94] Creating Layer cvg/classifier
I0810 21:05:20.397277   463 net.cpp:435] cvg/classifier <- pool5/drop_s1_pool5/drop_s1_0_split_0
I0810 21:05:20.397303   463 net.cpp:409] cvg/classifier -> cvg/classifier
I0810 21:05:20.397570   463 net.cpp:144] Setting up cvg/classifier
I0810 21:05:20.397583   463 net.cpp:151] Top shape: 6 1 40 40 (9600)
I0810 21:05:20.397588   463 net.cpp:159] Memory required for data: 3293338848
I0810 21:05:20.397598   463 layer_factory.hpp:77] Creating layer coverage/sig
I0810 21:05:20.397606   463 net.cpp:94] Creating Layer coverage/sig
I0810 21:05:20.397613   463 net.cpp:435] coverage/sig <- cvg/classifier
I0810 21:05:20.397621   463 net.cpp:409] coverage/sig -> coverage
I0810 21:05:20.397655   463 net.cpp:144] Setting up coverage/sig
I0810 21:05:20.397680   463 net.cpp:151] Top shape: 6 1 40 40 (9600)
I0810 21:05:20.397686   463 net.cpp:159] Memory required for data: 3293377248
I0810 21:05:20.397692   463 layer_factory.hpp:77] Creating layer coverage_coverage/sig_0_split
I0810 21:05:20.397702   463 net.cpp:94] Creating Layer coverage_coverage/sig_0_split
I0810 21:05:20.397708   463 net.cpp:435] coverage_coverage/sig_0_split <- coverage
I0810 21:05:20.397717   463 net.cpp:409] coverage_coverage/sig_0_split -> coverage_coverage/sig_0_split_0
I0810 21:05:20.397727   463 net.cpp:409] coverage_coverage/sig_0_split -> coverage_coverage/sig_0_split_1
I0810 21:05:20.397768   463 net.cpp:144] Setting up coverage_coverage/sig_0_split
I0810 21:05:20.397776   463 net.cpp:151] Top shape: 6 1 40 40 (9600)
I0810 21:05:20.397783   463 net.cpp:151] Top shape: 6 1 40 40 (9600)
I0810 21:05:20.397789   463 net.cpp:159] Memory required for data: 3293454048
I0810 21:05:20.397794   463 layer_factory.hpp:77] Creating layer bbox/regressor
I0810 21:05:20.397806   463 net.cpp:94] Creating Layer bbox/regressor
I0810 21:05:20.397814   463 net.cpp:435] bbox/regressor <- pool5/drop_s1_pool5/drop_s1_0_split_1
I0810 21:05:20.397825   463 net.cpp:409] bbox/regressor -> bboxes
I0810 21:05:20.398098   463 net.cpp:144] Setting up bbox/regressor
I0810 21:05:20.398110   463 net.cpp:151] Top shape: 6 4 40 40 (38400)
I0810 21:05:20.398116   463 net.cpp:159] Memory required for data: 3293607648
I0810 21:05:20.398125   463 layer_factory.hpp:77] Creating layer bboxes_bbox/regressor_0_split
I0810 21:05:20.398134   463 net.cpp:94] Creating Layer bboxes_bbox/regressor_0_split
I0810 21:05:20.398141   463 net.cpp:435] bboxes_bbox/regressor_0_split <- bboxes
I0810 21:05:20.398151   463 net.cpp:409] bboxes_bbox/regressor_0_split -> bboxes_bbox/regressor_0_split_0
I0810 21:05:20.398169   463 net.cpp:409] bboxes_bbox/regressor_0_split -> bboxes_bbox/regressor_0_split_1
I0810 21:05:20.398223   463 net.cpp:144] Setting up bboxes_bbox/regressor_0_split
I0810 21:05:20.398232   463 net.cpp:151] Top shape: 6 4 40 40 (38400)
I0810 21:05:20.398239   463 net.cpp:151] Top shape: 6 4 40 40 (38400)
I0810 21:05:20.398244   463 net.cpp:159] Memory required for data: 3293914848
I0810 21:05:20.398250   463 layer_factory.hpp:77] Creating layer bbox_mask
I0810 21:05:20.398262   463 net.cpp:94] Creating Layer bbox_mask
I0810 21:05:20.398267   463 net.cpp:435] bbox_mask <- bboxes_bbox/regressor_0_split_0
I0810 21:05:20.398275   463 net.cpp:435] bbox_mask <- coverage-block
I0810 21:05:20.398285   463 net.cpp:409] bbox_mask -> bboxes-masked
I0810 21:05:20.398316   463 net.cpp:144] Setting up bbox_mask
I0810 21:05:20.398325   463 net.cpp:151] Top shape: 6 4 40 40 (38400)
I0810 21:05:20.398330   463 net.cpp:159] Memory required for data: 3294068448
I0810 21:05:20.398336   463 layer_factory.hpp:77] Creating layer bbox-norm
I0810 21:05:20.398346   463 net.cpp:94] Creating Layer bbox-norm
I0810 21:05:20.398352   463 net.cpp:435] bbox-norm <- bboxes-masked
I0810 21:05:20.398360   463 net.cpp:435] bbox-norm <- size-block_size-block_0_split_1
I0810 21:05:20.398370   463 net.cpp:409] bbox-norm -> bboxes-masked-norm
I0810 21:05:20.398398   463 net.cpp:144] Setting up bbox-norm
I0810 21:05:20.398407   463 net.cpp:151] Top shape: 6 4 40 40 (38400)
I0810 21:05:20.398510   463 net.cpp:159] Memory required for data: 3294222048
I0810 21:05:20.398521   463 layer_factory.hpp:77] Creating layer bbox-obj-norm
I0810 21:05:20.398551   463 net.cpp:94] Creating Layer bbox-obj-norm
I0810 21:05:20.398561   463 net.cpp:435] bbox-obj-norm <- bboxes-masked-norm
I0810 21:05:20.398571   463 net.cpp:435] bbox-obj-norm <- obj-block_obj-block_0_split_1
I0810 21:05:20.398581   463 net.cpp:409] bbox-obj-norm -> bboxes-obj-masked-norm
I0810 21:05:20.398633   463 net.cpp:144] Setting up bbox-obj-norm
I0810 21:05:20.398644   463 net.cpp:151] Top shape: 6 4 40 40 (38400)
I0810 21:05:20.398650   463 net.cpp:159] Memory required for data: 3294375648
I0810 21:05:20.398656   463 layer_factory.hpp:77] Creating layer bbox_loss
I0810 21:05:20.398667   463 net.cpp:94] Creating Layer bbox_loss
I0810 21:05:20.398674   463 net.cpp:435] bbox_loss <- bboxes-obj-masked-norm
I0810 21:05:20.398682   463 net.cpp:435] bbox_loss <- bbox-obj-label-norm
I0810 21:05:20.398694   463 net.cpp:409] bbox_loss -> loss_bbox
…
I0810 21:05:20.398892   463 net.cpp:154]     with loss weight 1
I0810 21:05:20.398901   463 net.cpp:159] Memory required for data: 3294375656
I0810 21:05:20.398907   463 layer_factory.hpp:77] Creating layer cluster
I0810 21:05:21.092106   463 net.cpp:94] Creating Layer cluster
I0810 21:05:21.092149   463 net.cpp:435] cluster <- coverage_coverage/sig_0_split_1
I0810 21:05:21.092171   463 net.cpp:435] cluster <- bboxes_bbox/regressor_0_split_1
I0810 21:05:21.092186   463 net.cpp:409] cluster -> bbox-list
I0810 21:05:21.590293   463 net.cpp:144] Setting up cluster
I0810 21:05:21.590334   463 net.cpp:151] Top shape: 6 50 5 (1500)
I0810 21:05:21.590342   463 net.cpp:159] Memory required for data: 3294381656
I0810 21:05:21.590354   463 layer_factory.hpp:77] Creating layer cluster_gt
I0810 21:05:21.590410   463 net.cpp:94] Creating Layer cluster_gt
I0810 21:05:21.590422   463 net.cpp:435] cluster_gt <- coverage-label_slice-label_4_split_1
I0810 21:05:21.590435   463 net.cpp:435] cluster_gt <- bbox-label_slice-label_1_split_1
I0810 21:05:21.590445   463 net.cpp:409] cluster_gt -> bbox-list-label
I0810 21:05:21.590601   463 net.cpp:144] Setting up cluster_gt
I0810 21:05:21.590615   463 net.cpp:151] Top shape: 6 50 5 (1500)
I0810 21:05:21.590620   463 net.cpp:159] Memory required for data: 3294387656
I0810 21:05:21.590629   463 layer_factory.hpp:77] Creating layer score
I0810 21:05:21.590939   463 net.cpp:94] Creating Layer score
I0810 21:05:21.590956   463 net.cpp:435] score <- bbox-list-label
I0810 21:05:21.590970   463 net.cpp:435] score <- bbox-list
I0810 21:05:21.590984   463 net.cpp:409] score -> bbox-list-scored
I0810 21:05:21.591265   463 net.cpp:144] Setting up score
I0810 21:05:21.591284   463 net.cpp:151] Top shape: 6 50 5 (1500)
I0810 21:05:21.591292   463 net.cpp:159] Memory required for data: 3294393656
I0810 21:05:21.591302   463 layer_factory.hpp:77] Creating layer mAP
I0810 21:05:21.591343   463 net.cpp:94] Creating Layer mAP
I0810 21:05:21.591357   463 net.cpp:435] mAP <- bbox-list-scored
I0810 21:05:21.591373   463 net.cpp:409] mAP -> mAP
I0810 21:05:21.591398   463 net.cpp:409] mAP -> precision
I0810 21:05:21.591416   463 net.cpp:409] mAP -> recall
I0810 21:05:21.591547   463 net.cpp:144] Setting up mAP
I0810 21:05:21.591565   463 net.cpp:151] Top shape: 1 (1)
I0810 21:05:21.591576   463 net.cpp:151] Top shape: 1 (1)
I0810 21:05:21.591586   463 net.cpp:151] Top shape: 1 (1)
I0810 21:05:21.591627   463 net.cpp:159] Memory required for data: 3294393668
I0810 21:05:21.591639   463 net.cpp:222] mAP does not need backward computation.
I0810 21:05:21.591650   463 net.cpp:222] score does not need backward computation.
I0810 21:05:21.591660   463 net.cpp:222] cluster_gt does not need backward computation.
I0810 21:05:21.591670   463 net.cpp:222] cluster does not need backward computation.
…
